model/BloomCrimeTask11100-1_1200.pth (torch, 368495 bytes, 5 tensors)

fc.0.weight f4 [300, 2]
00000000: 2279 adbb 9c36 c23e b1fc 14bf 1d38 05bf
00000010: d670 8bbe ab2a 423e 15e3 bbbf a628 003f
00000020: de83 80bd 9799 3f3e 5dd3 5abe 1b54 0ebe
00000030: b469 99be e5cf 74bf 9f3d 95be 4c94 d63c
00000040: 7a05 2d3f c96c 193f de70 f5be 86a7 9dbe
00000050: 93d6 4d3e 836d 893d e703 15be 7a75 073f
00000060: 8dc2 43bf 676a 5fbf 011d 8e3f 17a5 74bf
00000070: 04b2 3dbf 89b5 20be 11a0 46bf 77a5 d03d
00000080: b3d9 2fbf 5ee4 52bf e078 afbf 05ad f4bf
00000090: 9e8a 7abf b26a 0f3e 1361 763d 8153 9b3d
000000a0: 4952 183d 7b9c b9be 22cb 07bf 07a1 79bf
000000b0: 0d59 f1bf a4d0 77be 599a 553f f25c 053f
000000c0: f68f a0be f202 d1bc d215 533f b134 853f
000000d0: b6dc 0fbf 985f d0bf 6230 563f bf7e 7dbf
000000e0: 70ed 063e 6558 0cbf 8aec fabe f205 bbbe
000000f0: fccb 07be ed7c acbd 691c 36bf 74a2 023f
00000100: 068a 483f 0b31 b3bf 27a5 0cbd 90ec 4f3b
00000110: 466c 01bd 7386 653e 6d7f 0bbf 1cad 84be
00000120: 9f9c cdbe 0b1e a23f 6433 7f3f 94a8 213f
00000130: 171a 103e 4969 1dbf 636a dabe 1142 79bf
00000140: a129 57bf 8aa2 aa3f f5a0 9d3f 6039 babf
00000150: b514 dbbe 4caa 86bf f2cb 90bf 7e62 b8bf
00000160: 6539 8b3e d06f d6be 6299 73be d9a7 b4bd
00000170: 0f0d 9b3f ada8 d53e 183b 25bf 29e4 54bf
00000180: 77c5 b43e e58c 173e d535 0dbf 0b78 d0be
00000190: b4aa dc3d c062 983b a3db 9dbe 3f3d 36be
000001a0: 813d 83bf f238 52be 7751 08bf 67a1 0bbf
000001b0: e495 1fbd ea6e d93d 96d8 4ebf 2624 823f
000001c0: 3eaa 91bf 4554 aa3f a702 b83e 3006 96bf
000001d0: 2536 34be 67b0 023d 9079 8fbe 4ae5 aabd
000001e0: 691b 903e 3a72 efbd 1b2a 33bf e13e 473f
000001f0: 28e4 1dbf 53ac 30bf 1842 35be 975a b0be
00000200: 47c8 f2be 7165 54c0 ddea debf 9cea 9dbe
00000210: 16db ebbe 02a3 14bd ee48 60bf f905 b8bf
00000220: 5dfd a03c 86dc 79bd f85b 6bbe 8b2f 42bd
00000230: 9b67 7b3f 452e 1e3f 7ee6 473e fe9a 18bd
00000240: 129d 22bf 61a2 abbe 6768 dc3d d57b 88be
00000250: 9856 68be 2dd6 37bf 4d6e 23bf 8b99 35bf
00000260: 6f22 80bf d86f 713f d202 3d3f 3e16 9cbf
00000270: 68f6 723e c959 c0bf d013 19be f9cb 92be
00000280: 5809 43be 0aef c2be 0c70 22bf 884c 1cbf
00000290: 439b e2bd 88d2 153c 657b 91bf 69ad 683f
000002a0: ae81 81bf 59f1 31be 6285 433f fbe0 dbbf
000002b0: 6241 293e d7d8 1a3b e55c 23bf 970f e53e
000002c0: 31ed 65bf 5b77 0dc0 d3ae 253d 8737 ccbf
000002d0: ad1a 5abe f22c 33be 6594 2d3f e36e 853e
000002e0: de2f 59bf 2f75 b1bf 51a6 b1c0 ae3c 47bf
000002f0: 67ad d5bf f2c1 a73f 2cd7 673f c238 133f
00000300: aece 7ebf d47c e0bd a236 ffbe eb4b c7be
00000310: 06ea adbf 9347 b13e 1843 e1bf 75c9 a63e
00000320: 766e 563d e9b7 ad3f a12c fbbe e9ca 27bf
00000330: d038 d2be 2867 fd3e 8443 4ebf b69d bf3e
00000340: 79ea 823e c25f b73d 487b acbb 0123 0fbe
00000350: 09dd b6be cdbf 4cbf 223a 65be 9088 2ebe
00000360: 2198 0dbf 7fc1 bdbe 889d 803e 8cb5 98bf
00000370: e10b 8bbe 4488 893f 23c8 823e b401 a43c
00000380: 87df 1cbf 9058 b33e c4ef 00bf 288a 4dbe
00000390: fec5 91be 324a 2bbf 854d c5be 68d3 b93f
000003a0: a763 05bf df49 c83f b5bb 223f ff77 a5bf
000003b0: 09bb 3cbe fc18 37bf 5fa3 75bf 0b05 e0be
000003c0: 3162 4ebe 3df5 1e3d 8c17 69be f25e 943a
000003d0: 9eae 443f 9619 9abf df6e 7c3f 9271 67bf
000003e0: 6eac 1f3c e835 f6bd b093 1fbf edcd 8ebd
000003f0: f7af 6b3e a93d acbf b2f0 d6be 5de5 85be
-0.005293981 0.3793229 -0.58198076 -0.5203875 -0.27234524 0.18961589 -1.4678675 0.50062025
-0.06275152 0.18710934 -0.21369691 -0.13899271 -0.29963458 -0.9562972 -0.29148576 0.02619376
0.6758648 0.5993162 -0.47937673 -0.30791873 0.20101385 0.06710341 -0.1455227 0.5291363
-0.76468736 -0.8727173 1.1102601 -0.9556441 -0.74099755 -0.1569425 -0.7758799 0.1018781
-0.6869156 -0.8237971 -1.3708763 -1.9115301 -0.97867763 0.14005545 0.06015117 0.075842865
0.03718785 -0.36252198 -0.5304433 -0.97511333 -1.8855301 -0.24200684 0.8343864 0.5209495
-0.31359833 -0.0255141 0.8245517 1.0406705 -0.56196153 -1.6279173 0.83667576 -0.99021524
0.13176513 -0.5482238 -0.4900859 -0.36527973 -0.13261408 -0.08422265 -0.711371 0.51029134
0.7833561 -1.3999342 -0.03433719 0.0031726696 -0.0315974 0.2241457 -0.5449131 -0.25913322
-0.40158555 1.2665418 0.9968779 0.63147855 0.14072452 -0.6148878 -0.42659292 -0.97366434
-0.84047896 1.3330853 1.2314745 -1.454876 -0.42789236 -1.052072 -1.1312239 -1.4405057
0.27192226 -0.4188218 -0.2378898 -0.08821077 1.211336 0.41730252 -0.64543295 -0.83160645
0.35306904 0.14799841 -0.55160266 -0.40716586 0.107747465 0.004650444 -0.30831632 -0.17796801
-1.0253145 -0.20529535 -0.53249305 -0.54543155 -0.038961306 0.10616858 -0.80799234 1.0167282
-1.1380079 1.3306967 0.35939524 -1.1720638 -0.1759878 0.03190651 -0.28022432 -0.08344515
0.28145912 -0.11691709 -0.6998612 0.7783032 -0.61676264 -0.69012946 -0.17700994 -0.34444115
-0.47418424 -3.3186915 -1.7415425 -0.30843055 -0.46065587 -0.03628827 -0.8761128 -1.4376823
0.019652063 -0.061001323 -0.22984302 -0.04740862 0.98204964 0.6178935 0.1952152 -0.037257187
-0.6352092 -0.33522323 0.10762101 -0.26656976 -0.22689283 -0.7181118 -0.6384018 -0.7093741
-1.0010508 0.94311285 0.7383243 -1.2194288 0.23726809 -1.50274 -0.14948964 -0.28671244
-0.19046533 -0.38072997 -0.6345222 -0.6105428 -0.1106477 0.009144433 -1.1365782 0.908896
-1.01177 -0.17377223 0.763754 -1.7178034 0.16528848 0.0023627782 -0.6381362 0.44738457
-0.8981505 -2.2104099 0.04044993 -1.5954446 -0.21299239 -0.17497614 0.6780456 0.26061162
-0.84838665 -1.3863887 -5.5515523 -0.77826965 -1.6693543 1.3106062 0.905627 0.5750848
-0.9953412 -0.10961309 -0.4984637 -0.38925108 -1.3587043 0.3462492 -1.75986 0.32575575
0.052351438 1.357175 -0.49057487 -0.6554399 -0.4105897 0.49492764 -0.8057177 0.3742501
0.25569513 0.08953811 -0.0052637197 -0.13978197 -0.3571551 -0.79980165 -0.22385457 -0.17044282
-0.55310255 -0.37061688 0.25120187 -1.1930404 -0.271575 1.074471 0.25543317 0.020020343
-0.61278576 0.35028505 -0.50365853 -0.20072234 -0.2847137 -0.6691009 -0.38535705 1.4517641
-0.5210518 1.5647544 0.6356767 -1.2927245 -0.18430723 -0.715225 -0.9595241 -0.43753847
-0.20154645 0.038808096 -0.22762889 0.00113198 0.76828945 -1.2039058 0.98606676 -0.9040767
0.0097457 -0.120220006 -0.6233473 -0.06972871 0.23016344 -1.3456317 -0.4198051 -0.26151553

fc.0.bias f4 [300]
00000000: 88b4 18bf 0c9b 88be 41ff f8be 3fa5 083e
00000010: 8f8f 9bbe 574a a5be 1893 0c3f f079 a7be
00000020: ef24 6bbf 3058 7dbd 741d 89be 9a02 0dbf
00000030: 88e1 1b3f c690 a6be 0f09 1d3f 7cf0 e03e
00000040: 3bc0 443e a359 ed3e da40 0d3f 5d11 0fbe
00000050: e57f a7be 6eda 8f3f 5212 103f e98a 1bbf
00000060: 8323 4ebe 82ee 75bf 8aea da3e 045b 8cbe
00000070: ee00 25bf 5b12 36bd 9970 8bbc a350 d83e
00000080: bfd3 97be 1d33 77bb 9ba4 58be 426c 30be
00000090: 74d7 d8be 8b4f 3bbf 595e 08bf c553 053f
000000a0: 6963 9dbe 5bcb 0a3d 2018 d13e 7b94 293f
000000b0: 49ba eabe edcd 443c 73b3 74bf a752 533f
000000c0: 9c00 10bf fb2c 2ebe fc1f edbd 08ec 93be
000000d0: 90e2 5e3f a623 f9be cf03 18bf 938a 64be
000000e0: 5883 38bd 2c75 b83e 6cd6 acbe 77f9 72bb
000000f0: 13bf 83be f74e 62be 788e 3c3f 9549 0cbf
00000100: 7661 f43e c7f6 dc3e 7efe c6bd 4354 053f
00000110: 0bfc 5ebe 6bc0 7a3a 0485 39bf ecc9 39be
00000120: fa5c febd 1eff 1dbe 167c 6c3d d817 213f
00000130: 1b24 31be 75dd 683e b307 b33e 77ea 43be
00000140: 8a04 a03c bc0c f1be 60b4 9cbd 1fc4 06be
00000150: d08e 5f3f fecd 0e3e e349 36be 94f8 15bf
00000160: f746 1b3f a559 8a3e 8163 09bc 5d3e 34bf
00000170: bdc7 003f 580e d63e 0642 563d 758a 2bbf
00000180: 38d8 4d3f 8e37 06bf d484 2b3f c5c6 ba3e
00000190: 941e 41bf c428 113e dce8 21bf 2cd1 e0bd
000001a0: c783 e5be 2398 9cbd c902 d93e e088 bb3b
000001b0: 6abc acbe 4b2d ed3e 1345 6bbd 35f1 abbe
000001c0: afa1 1dbf ac16 26bf 1edc 2c3f 8487 36bf
000001d0: 7363 9dbe 93a6 1c3d d3e3 5a3e 6be0 083f
000001e0: cbe3 bcbc 3a1d 06bf fbb9 553e 287b 9dbe
000001f0: f7d9 cebe 456d 653c d8c3 993e eb03 11bf
00000200: fb19 193f 7bb4 bbbe b14b 82be d32c 18bd
00000210: afe9 5bbe 9b5b 713e 171f 1ebf fa0f 663f
00000220: 7f74 0d3e 5465 04bf 377a 223d 38b5 00bf
00000230: e2a3 0fbf f4d3 38bd 51f3 573c fee6 4cbe
00000240: 36fe 1e3f 1f59 2b3f fa79 3f3b 50e9 bdbe
00000250: 85b5 b63d a66a 76be d28f 11bf 23be 9c3d
00000260: 48dd 183f eade 0f3f 9b4c 3abe 51c3 0a3f
00000270: 00bc 9cbe 359c efbb baa5 96be bd7d fbbe
00000280: 220d 1a3f d68b 173f 2a80 96bf aed1 d33e
00000290: 47fe 073c 1fa6 fdbe 1efc 09bf 904e 453f
000002a0: 8a3f 83bf a786 d2be 1cd4 363c 4efc 1cbf
000002b0: f499 8dbc 77b4 68bd 52f1 e23e 090d 16bf
000002c0: eff8 fa3e 439a d6be 8a47 3d3f f7b8 2dbf
000002d0: 6548 21bf daa1 0e3f 7796 80bf ae0f 493e
000002e0: 617b c8be e0ac 88be 0eb6 53be 4a57 30bf
000002f0: 6835 54bf 6d4d 85be 00a1 16bf 2ce5 2cbe
00000300: 797c b0bc 1656 10be 778b 39be eefe 94be
00000310: 65a2 e7be d6f8 fabe e703 3abf ec66 70be
00000320: 7e86 053e 6f66 90be ab97 0a3f 917e 8ebf
00000330: bde1 2cbe c1f3 4b3f 1ee1 583e 20b7 d1be
00000340: 4aec 103d 75ca 89be 10be a9be 56ab 4dbf
00000350: 0270 e73c c4bf fbbe b634 8f3e 2ac7 5f3d
00000360: 497a 6cbf 097c 733f a569 01be ce7b 733e
00000370: 1c7f 823f 570b 38bf ce4c 143f 761b 4fbe
00000380: 4989 d3bd 3897 fbbe bed5 0fbf 9efa 89be
00000390: f5e3 62bd 6ba9 fe3e 100d 6e3f 9f8e 12be
000003a0: 2e41 17be c5ac 86be 6798 17bf 54f0 25be
000003b0: 88e4 62be 98fd 90be 3ff4 95be fcbb b83e
000003c0: e8ec 02be fc54 033f 4e9c 29be e2ca cabd
000003d0: 1a75 c73e 09aa 31be 1bae 793d 8a44 26bb
000003e0: d6e8 033f b4ec 7fbf ec97 41bd 5ea0 073a
000003f0: e153 9abe 12c2 69bf adbe 11bd 2f8b 1dbf
-0.5965047 -0.2668079 -0.48632243 0.13344286 -0.30382964 -0.3228328 0.5491195 -0.32710218
-0.9185323 -0.06185168 -0.26780283 -0.55082095 0.6089101 -0.32532328 0.6134195 0.43933475
0.19213955 0.4635745 0.5517708 -0.13971467 -0.32714763 1.1238534 0.56277955 -0.60758835
-0.20130734 -0.9606706 0.42757064 -0.2741319 -0.64454544 -0.0444511 -0.017021464 0.4224902
-0.29653737 -0.0037719675 -0.21156542 -0.17228797 -0.42351878 -0.7316825 -0.53268963 0.5208095
-0.30739906 0.03388534 0.40838718 0.6624219 -0.4584525 0.012011987 -0.9558632 0.8254799
-0.5625093 -0.17009346 -0.11578366 -0.28891015 0.87064457 -0.4866001 -0.5938081 -0.22318487
-0.045047134 0.36026895 -0.3375734 -0.0037074962 -0.25731716 -0.22100435 0.7365489 -0.5479978
0.47730607 0.43157026 -0.09716509 0.520817 -0.21775834 0.00095654157 -0.7246859 -0.18143433
-0.124200776 -0.1542935 0.057735525 0.6292701 -0.1729893 0.22740729 0.34966812 -0.1913241
0.019533414 -0.47080028 -0.07651591 -0.13160752 0.8732729 0.13945767 -0.17801623 -0.58582425
0.6065516 0.27021518 -0.00838554 -0.7040766 0.50304776 0.41807818 0.05230906 -0.67008144
0.8040805 -0.5242852 0.66999555 0.36479774 -0.75437284 0.14175707 -0.6324594 -0.10977396
-0.448271 -0.07646205 0.42384937 0.005723104 -0.337375 0.46323618 -0.05743892 -0.33582464
-0.61574835 -0.64878345 0.6752337 -0.7130053 -0.30739936 0.038244795 0.2137597 0.53467435
-0.023057839 -0.52388346 0.20871727 -0.30758023 -0.4040067 0.014003103 0.3003223 -0.56646603
0.5980527 -0.36661133 -0.25448373 -0.037152123 -0.21475862 0.23570101 -0.6176619 0.8986813
0.13813971 -0.51717114 0.039667334 -0.5027652 -0.5610944 -0.04512401 0.01318057 -0.20009992
0.62106645 0.66932863 0.002921699 -0.37092066 0.08921341 -0.2406412 -0.5686008 0.07653453
0.5971265 0.56199515 -0.18193285 0.5420428 -0.30612183 -0.0073123225 -0.29423314 -0.49119368
0.6017629 0.5919775 -1.1757863 0.4137091 0.008300371 -0.49540803 -0.53900325 0.77073
-1.0253766 -0.41118357 0.011158969 -0.61322486 -0.017285325 -0.05681273 0.44324738 -0.5861364
0.49018046 -0.41914567 0.73937285 -0.6786036 -0.6300109 0.55715716 -1.0045918 0.19634888
-0.3915663 -0.26694393 -0.20674917 -0.6888319 -0.8289399 -0.26035634 -0.58839417 -0.16884297
-0.021543728 -0.14095339 -0.18119608 -0.29100746 -0.45241085 -0.49017972 -0.72662205 -0.23476762
0.13039586 -0.2820315 0.54137677 -1.1132375 -0.16882987 0.79668814 0.21179625 -0.40960026
0.035381593 -0.26912275 -0.3315282 -0.8033956 0.028251652 -0.49169743 0.27969903 0.054633297
-0.9237409 0.9511114 -0.12637956 0.23777696 1.0195041 -0.71892303 0.57929695 -0.2022532
-0.103289194 -0.49138808 -0.5618552 -0.26949018 -0.055393178 0.4973863 0.9298868 -0.14312218
-0.14770958 -0.26303688 -0.5921692 -0.16204959 -0.2215749 -0.28318477 -0.29287907 0.3608092
-0.12785685 0.5130155 -0.16563532 -0.09901978 0.3895653 -0.1735002 0.060957056 -0.0025370442
0.51527154 -0.99970555 -0.047264025 0.0005173738 -0.3014212 -0.9131175 -0.035582233 -0.615405

fc.1.weight f4 [300, 300]
00000000: ffe3 453d a161 683d 4b24 573d cac5 1e3d
00000010: 1243 263d 3d1b f4bb 8a85 37bd dc93 afbc
00000020: 095c d4bb 8895 ffbc 1fc4 f13c 1306 a63c
00000030: b3a0 183c ea7f 643c 72bf 4f3d ce4c ac3c
00000040: 8761 4fbd 81a8 2bbd af7f d03c 24e9 003c
00000050: 47a9 e63c 112e 6cbd 1b3e 5abd 5a0b 113d
00000060: df43 173d 19e8 55bd da87 b33c f8a7 38bd
00000070: 1517 333d 7969 943c bad4 693d e51e 69bd
00000080: fea7 63bd ece2 1f3d 6cf4 513d 60e3 103d
00000090: 8f47 1d3d 8126 47bd 5d2b 2b3d 4146 5fbd
000000a0: 5988 533c 85e7 1abd 14dc bbbc ae7e 273c
000000b0: e4f5 b9bc fcaa 15bc 4a24 60bd 22f9 5ebd
000000c0: 9535 b73c 2f32 c8bc a4df 0fbd ad9f babc
000000d0: 7b53 41bd 570b 3dbd 3381 0d3d 2c73 f03c
000000e0: 1b85 fc3b 522e 01bd 245b 9d3c 0bfc 293b
000000f0: fb01 29bd 70a7 4b3c ee53 573d 199b 68bd
00000100: 1128 6bbd 0765 f23b a413 323d b4e5 0fbd
00000110: 053c 503c 6c3e 263d 62e3 913c a6b5 4c3c
00000120: e5f1 6b3d df0f 1a3d 1601 05bd a186 a33b
00000130: 40af f13c 6a8e 503d cd48 6bbd 7f0e 003d
00000140: 2051 89bc a091 67bd d7f8 513c 6dba 00bd
00000150: c31f 063c 2089 19bd c7f5 31bd c186 a0bb
00000160: 97e1 9ebc 754f 0a3d dc1c a33b ad96 383d
00000170: 2c45 313c 5e16 98bc a839 203d 123e 4f3b
00000180: 799e 313c c91d 98bc 0f34 6139 87e0 35bc
00000190: 8b69 a0bb 8e6d 38bd e027 bab9 844a 44bd
000001a0: b37f 4bbc 790d 093d 3470 24bd cc66 1fbd
000001b0: 5bf9 66bc e9a7 81bc cb73 203c 0e0a 1d3c
000001c0: ced6 ef3c 87e8 22bd ca82 85bb 1c4f 043d
000001d0: 13a3 4c3d b300 8abb 6ad5 08bd b8f5 873c
000001e0: e8ab 063d 16be 13bd b63a 09bd c30c d13c
000001f0: 1c8e 84bb 895b 5fbd 355a 08bd 90cd bf3c
00000200: 5444 a0bc 2a3a 233d b6fb 3a3d bd9a 093c
00000210: 3499 95bb a102 96bc bd53 3fbb dd2d 2c3c
00000220: d695 34bd c612 62bc ddb4 44bd 7424 113d
00000230: ca99 16bd 041c 583d bfd7 73bc 9e79 07bd
00000240: d83c e33c 2529 0d3c fcc0 233d df72 c53c
00000250: 26d0 63bd b192 153d c021 32bc dbed d0bc
00000260: e22d 163d 5679 2c3d 14da 4fbd 8511 abbb
00000270: 7d33 423d 582c b73c ba3a 473d a815 a2bc
00000280: 3174 02bd c263 4b3d 7b2f c53c ec04 633d
00000290: 578e c5bc 72d6 17bd 5e79 ddbb d6aa 5ebd
000002a0: a47a b93c 1f78 2e3d c113 633c c7b8 babb
000002b0: cc7f ea3c 911b 16bd 535e 673d f11a 6bbd
000002c0: 9689 62bd 6686 5fbc b52f 413d 926c bd3b
000002d0: eba3 b53c 8646 2dbd d67b ac3c 3267 d3bb
000002e0: 5f93 bd3c 720f 273d b396 cd3c fbed a0bb
000002f0: 4bc6 68bb 3751 14bd 9212 abbc eaac 193d
00000300: 50a8 bdbc 7add 123d d17a bbbc 604e 5cbc
00000310: 460d a13a 1103 59bd 161f 17ba 5865 bebb
00000320: 3bf5 a9bb 11e6 3cbc 0470 3a3d 0e8c 2e3d
00000330: 793e 20bd fcbc db3c 2e7e 39bd 9f52 49bd
00000340: b493 903c fa6d 5e3a 2fa4 dcbc 4f0f 64bd
00000350: 1a1a b7bc 5ef8 9d3c b9d1 5abd 18bc 65bd
00000360: 7706 f03b ca56 2abd 842d 4fbd 1e3a b6bc
00000370: af4b 18bc 66d8 56bd a5d5 1dbd 2f17 783b
00000380: 18ff 5ebd 0cd4 04bc 8fb2 18bd b3e4 23bd
00000390: dae3 b93c ad04 36bd fb30 33bd 98dc 063d
000003a0: 6fdb 303c 285e 573d ced7 7cbc 0a73 e4bc
000003b0: c715 afbb 5125 9939 b369 343d ef79 6bbd
000003c0: b0b3 86bb b840 d13c 1c3a 02bd 3e55 f0bc
000003d0: a491 e43c 1d98 62bd cb24 603c e914 37bd
000003e0: d017 eb3c c633 4abd 0077 113d badc 5fbd
000003f0: 8bc7 46bd db49 5f3a 7958 3a3d d185 4abd
0.048313137 0.05673373 0.052524846 0.038762845 0.040591307 -0.007449536 -0.044805087 -0.02143281
-0.006480698 -0.031199232 0.029512463 0.020266568 0.009315657 0.013946513 0.050719686 0.021032717
-0.05063012 -0.041908745 0.02545151 0.007868085 0.02815689 -0.05766112 -0.053281885 0.035411216
0.03692996 -0.0522233 0.021915365 -0.045082062 0.043723185 0.0181167 0.057087637 -0.05691423
-0.05558013 0.03903477 0.05125849 0.03537309 0.03839832 -0.048620705 0.0417894 -0.05451036
0.012910926 -0.03781845 -0.02293209 0.010223074 -0.022700258 -0.009135004 -0.054722108 -0.05443681
0.022364417 -0.024437992 -0.03512539 -0.022781217 -0.047198754 -0.046153393 0.034547042 0.029351793
0.007706297 -0.031538315 0.019208498 0.0025937583 -0.041261654 0.012430057 0.052570276 -0.056788538
-0.057411257 0.0073972973 0.043475762 -0.03513117 0.012709622 0.040586874 0.01780862 0.01249448
0.057603735 0.037612792 -0.03247174 0.0049904143 0.029502511 0.050917067 -0.057442475 0.031263825
-0.016762316 -0.056535363 0.012815676 -0.03142779 0.0081862835 -0.03748429 -0.043447282 -0.0048988764
-0.019394679 0.033767182 0.0049778055 0.04506557 0.0108197145 -0.018565353 0.039117485 0.003162269
0.0108410055 -0.01856889 0.00021477065 -0.011100895 -0.004895394 -0.045026354 -0.00035506394 -0.047922626
-0.012420583 0.033460114 -0.040146068 -0.038916394 -0.014097537 -0.015827136 0.009793232 0.009584917
0.029277232 -0.039772537 -0.004074429 0.032302007 0.049960207 -0.004211509 -0.033406653 0.01659666
0.032878786 -0.036069952 -0.033503257 0.02551878 -0.004045261 -0.054530654 -0.033289153 0.02341345
-0.019563831 0.03985039 0.045650207 0.008398709 -0.0045653824 -0.0183118 -0.00291942 0.0105089815
-0.044088207 -0.013798421 -0.048024047 0.035435155 -0.03676776 0.052761093 -0.014882981 -0.033074968
0.027738973 0.008615767 0.039978966 0.024102626 -0.055618428 0.03651685 -0.010872304 -0.025504043
0.03666485 0.042107902 -0.050745085 -0.0052205944 0.047412384 0.022360012 0.04863999 -0.019785717
-0.03184909 0.049655683 0.024070492 0.055424616 -0.024115724 -0.037069745 -0.006758853 -0.05436214
0.022641487 0.042595025 0.01385969 -0.0056982967 0.028625391 -0.036647383 0.05648644 -0.05739874
-0.055306993 -0.013642883 0.047164638 0.005780765 0.022172889 -0.042303585 0.021055143 -0.006451511
0.023141561 0.040786214 0.025096273 -0.004911182 -0.0035518582 -0.036210265 -0.020882878 0.03751842
-0.023151547 0.035855748 -0.022885712 -0.01344642 0.0012287281 -0.05298144 -0.0005764825 -0.005810421
-0.0051867045 -0.0115294615 0.045516983 0.042614035 -0.03912208 0.026823513 -0.04528635 -0.04915106
0.017648555 0.0008485016 -0.026933758 -0.055678662 -0.022351313 0.01928347 -0.053422663 -0.056087583
0.0073249894 -0.041586675 -0.050580516 -0.02224451 -0.009295388 -0.052452467 -0.038533825 0.0037855615
-0.054442495 -0.008107197 -0.03727966 -0.040013026 0.022691656 -0.044438053 -0.043747883 0.03292522
0.010794505 0.05258003 -0.015432311 -0.027886886 -0.0053431722 0.00029210237 0.044046115 -0.05748933
-0.004110776 0.025543556 -0.0317937 -0.029337522 0.027901478 -0.055320848 0.013680647 -0.044697676
0.028697878 -0.04936578 0.035513878 -0.05465386 -0.048530143 0.000851778 0.04549453 -0.049444024

fc.1.bias f4 [300]
00000000: 53fe 37bd e271 9dbe bdde 90bd 25f7 ad3b
00000010: ec85 bcbc 9951 20bd 109b fd39 fff0 393f
00000020: 9da6 2bbd b7d4 2cbe acf4 43bd 1233 01bd
00000030: dc32 60bd 9c85 69bd 4c64 77bd 6464 103e
00000040: 3a14 a53c 7d8c 393f f729 67bd bec0 a6bd
00000050: c7ba 00bd a9a4 023f 1861 ef3e 7e41 e5bd
00000060: 8f94 c53c cded 24be d3f9 b73d 8859 36bd
00000070: 33be 323f 38ef 5ebd 8506 bebc 44aa 8bbd
00000080: bec2 b23d 8de9 313c 8f25 9abc a71d 29bb
00000090: c762 403f e231 323e 76f4 7bbd 17a1 babc
000000a0: 79cf 2c3f d2a6 3fbd ea92 4cbe c3ad b2bc
000000b0: 8ad7 a9bd 3fc4 25bd 075e a6bd d1f4 e6bd
000000c0: 8c63 45bd 54d4 67be 3dc2 813c 4b5f 1abd
000000d0: 137f 84bd 33e5 203d 5916 79bd d1ea 53bd
000000e0: 76c9 86bc 2f36 81bd 7fbf aa3e 730e 3abe
000000f0: f7fb 9cbd 8a6a 21bd 38f4 f5bc a74c e03e
00000100: 652a 2dbd 0485 2abd d368 bcbd 5a15 90bc
00000110: 49e7 8cbc b045 34bc 7c34 2e3e e6a8 8a3c
00000120: cb46 313c e603 6bbd 4ce6 29bd a39d 15be
00000130: 380f 11bd f10d b6bc e4ae aebd 1006 42be
00000140: c803 ae3c 2fb8 81bd 687a 253c dbbe 263f
00000150: 527e 0d3d 7ce0 aebd e168 b93a d294 873c
00000160: a40d 89bc 00c3 413f 3d51 21be 1dc0 ebbc
00000170: 24ec 11bc a8d3 f2bb 9ac1 fabc 1032 24be
00000180: 4bbf 90bd f043 3e3e 4872 1abd f7e0 4fbd
00000190: 2fef cabc 7ee1 ddbc 13ff a63d c721 023c
000001a0: f74a ecbc b226 93bd c15a 4ebd 230f 54bb
000001b0: da89 313b 5741 6ebd 61fd c3bc 8d6c 25bd
000001c0: e745 603c fce3 353c 8268 69bc e22e f83d
000001d0: 51e4 713f 64cb b83d 6b9b 37bd 665e a8bd
000001e0: 2b92 c33c 04a6 18be 4c94 4dbd 1b2d 91bd
000001f0: 8f82 063d 8c53 5abd b87e 1e3b d09e 96bd
00000200: cafe 9bbc 3e91 2d3f 2232 2ebb 471a 6bbd
00000210: 4f53 81be cde9 97bd 4d6b 5dbd 79e8 713a
00000220: cfac 54b9 52a1 8bbf a007 75bc 14bb 27bb
00000230: 59fe 2dbd 6ba6 d3bc f77f cb3d d7ac 91ba
00000240: dd07 e1bd 6138 9b3e 04c8 5ebc e00e bbbb
00000250: c12a b1bd de7c 67bd ff83 5abc 748a 093c
00000260: 8301 8c3e 3560 e8bd 6e6b 0cbd 9012 13bd
00000270: aed9 9d3e 2f2b 883e 2277 4fbb e7e1 c33e
00000280: 14ab 3bbc b60f ba3c e3bf a4bd 83c4 a13b
00000290: 2a9d b0bd 5622 37bd b42c 85bd 4e31 50bd
000002a0: 9328 62bd e81a 35be 6c10 3bbe 3e82 89bc
000002b0: 345c 0ebc 2f55 99bc ed20 0b3b 56cd 573e
000002c0: ac66 80be 7dc4 af3c 9908 5bbd c976 d4bc
000002d0: 7276 b2bc 5d9b 8abc 5193 1abd 4faa 893b
000002e0: bad9 a1bc 0987 b039 1acc 893b 07aa e1bd
000002f0: e3ea cfbd 3c3a 6dbf 75b1 383f 5331 2bbc
00000300: bdd0 7fbc 5833 4fbd 5f06 fabd 88b9 f63e
00000310: 5ea7 37bd b289 42bc 561d 493d 5e67 663b
00000320: 0199 2fbd d966 9abc cc6a d23c b885 463f
00000330: b05a 8fbc 9eea fabc 4e05 323d 1b8f 95bc
00000340: 812d ec3b 6c17 b83c c841 38bd 6a5a d63c
00000350: 56b3 9dbd 2864 e8bc 7c6b 853e 0e69 1ebd
00000360: 21a5 cbbc 6422 863c 3ec4 b7bd 4614 6cbd
00000370: 9495 dcbc 64c4 11bd 03c5 9bbd df92 51bd
00000380: ec29 d4bc 4e11 90bd 8728 263a 9265 42bb
00000390: 7adc 1bbd 915a 68bd d395 d63e f8c4 143c
000003a0: 084a d6bd 6c0a b3bd d255 883b 73ea a5bd
000003b0: 5a13 94bd 9304 3bbd 964c 7dbc 574f 5f3e
000003c0: 9646 30bd f4b3 87be 90d7 3b3f 2655 db3c
000003d0: 799d 93bd e922 17bd b97f a3bd 0918 e53a
000003e0: 88d1 fd3b e024 f9bd d11c 85bd 34dd ed3c
000003f0: 88f3 0a3f f255 d23c 9e97 14be 2fab 58bd
-0.044920277 -0.30750948 -0.07073734 0.005309003 -0.023013078 -0.039140318 0.0004837145 0.72633356
-0.04190694 -0.1687802 -0.04784076 -0.031542845 -0.054736003 -0.057012185 -0.060398385 0.14100796
0.020151246 0.72479993 -0.056436505 -0.081422314 -0.031428125 0.510325 0.46753764 -0.11194132
0.02411869 -0.16106339 0.08983197 -0.044518977 0.6982147 -0.054427356 -0.023196468 -0.06819585
0.087285504 0.0108589055 -0.018816737 -0.0025805028 0.7515072 0.17401841 -0.061512433 -0.022781892
0.6750408 -0.04678995 -0.19977918 -0.021811372 -0.08293064 -0.040470358 -0.08123403 -0.11277164
-0.04819064 -0.2263959 0.01583969 -0.037688535 -0.0646955 0.03928108 -0.060812328 -0.05173761
-0.016453486 -0.06309163 0.33349225 -0.18169574 -0.07665246 -0.039408244 -0.03002368 0.4380848
-0.04227676 -0.04163076 -0.09199681 -0.017588306 -0.01720013 -0.011002943 0.17012209 0.01692624
0.010820101 -0.057376765 -0.041479394 -0.14610915 -0.035414904 -0.022223445 -0.085294515 -0.18947625
0.021242037 -0.06333958 0.010099985 0.6513497 0.034544297 -0.08538911 0.0014145636 0.016550455
-0.016730137 0.7568817 -0.15753646 -0.02877813 -0.008906398 -0.0074104853 -0.030609895 -0.16034722
-0.07067736 0.18580604 -0.037706643 -0.050751653 -0.024772255 -0.027085062 0.0815412 0.007942623
-0.02884434 -0.07185115 -0.05037952 -0.0032357655 0.0027090223 -0.05816778 -0.023924531 -0.040386725
0.013688541 0.011101719 -0.014246108 0.12118317 0.9448901 0.09023169 -0.044825953 -0.0822113
0.02387341 -0.1490708 -0.050190255 -0.07088681 0.032839354 -0.053302333 0.0024184417 -0.0735451
-0.019042391 0.67799747 -0.0026580174 -0.057398107 -0.25258872 -0.07417641 -0.054057408 0.00092280615
-0.00020282272 -1.0908606 -0.014955431 -0.0025593685 -0.042478893 -0.02583619 0.09936517 -0.0011114132
-0.10987828 0.3031645 -0.013597492 -0.0057085603 -0.08650733 -0.056515567 -0.013337134 0.008394826
0.27344903 -0.11346475 -0.03428214 -0.035906374 0.3083014 0.26595446 -0.0031656702 0.38258287
-0.011454362 0.02271257 -0.08044412 0.004936756 -0.08623727 -0.04471048 -0.06502667 -0.05082827
-0.055214476 -0.17686045 -0.18267983 -0.016785737 -0.008688975 -0.018717377 0.0021229342 0.21074423
-0.25078332 0.021455998 -0.053474996 -0.025935547 -0.021784995 -0.016919786 -0.037738148 0.0042012106
-0.01975714 0.00033669945 0.004205239 -0.11018758 -0.10152223 -0.92666984 0.7214578 -0.0104487715
-0.015613732 -0.050586075 -0.122082464 0.48188424 -0.04483735 -0.011873649 0.049100243 0.0035156826
-0.042870525 -0.01884787 0.02568569 0.7754779 -0.017499298 -0.030629452 0.04346209 -0.018256715
0.007207573 0.022472106 -0.04498461 0.02616616 -0.07700221 -0.02836807 0.26058567 -0.038674407
-0.024859013 0.01637382 -0.08972977 -0.05763652 -0.026926793 -0.035587683 -0.076059364 -0.051165458
-0.025898896 -0.070345506 0.00063384365 -0.0029662591 -0.03805206 -0.056726996 0.41911182 0.009080164
-0.10463339 -0.08742222 0.004160621 -0.08101358 -0.072302535 -0.04565866 -0.015460154 0.2180761
-0.043036066 -0.2650448 0.733758 0.026774 -0.0720777 -0.036898527 -0.079833455 0.0017478477
0.0077459253 -0.121652365 -0.06499637 0.029036142 0.5427785 0.025675748 -0.14510962 -0.05289763

fc.2.weight f4 [1, 300]
00000000: 6d61 dcbc 73c7 a7bf e85b 073d 953d ac3d
00000010: d11e 28bd a815 a2bc 103f aabc a423 033f
00000020: f362 ae3c 1df0 6e40 6019 1a3c 1ce5 b03a
00000030: 4628 0039 71e4 9bbc 30c7 2fbd 2c1e 083f
00000040: 3e0e 0abd 57d4 0340 faac 053b f851 573b
00000050: fdc8 f8bc 9a19 2740 e6ed 25bf 983f 513c
00000060: 4191 aebc 0f30 9dbc 1ba7 17bf 7f21 4d3d
00000070: 31f7 de40 c0e1 dfbc 5070 f13b c5e0 803b
00000080: 9a7a 453d dda5 2a3b 50f5 9b3b aef9 e6bc
00000090: dec3 953e 3b08 3140 8335 503c 3492 5d3b
000000a0: 92cf 4f3f 832e 2fbd ed2c dabe 3ed0 553c
000000b0: 6df5 c1bc f4e4 53bb 88b4 5dbc 1777 083b
000000c0: d7db 05bd ddcf b33c 917d 43bd fcd7 3b3c
000000d0: ac37 9ebc 4c9a cbbc 0315 0b3c 1be2 d4bc
000000e0: 4b9e 39bd fd2c 2a3d bc37 76bf 5961 ebbc
000000f0: a280 753c cbbc 173c b4b2 1abc d091 8740
00000100: f538 46bc f776 e0bc bbf4 4d3c 2c50 a53a
00000110: 3245 cabb a0bd 293c cca1 fabf 2323 113d
00000120: cb8b 153b 5bc5 c33d b841 f0bc 2345 423e
00000130: d6bc 91bc f73b 873c 669e f2bb f45e f13c
00000140: db0a 47bc 6a7f 823c e98c 493c b2af 513f
00000150: ffd5 fa3f 2b78 dd3a 8bdf 88bc 40a3 d33b
00000160: ec4a 70bd 939f 893e 3645 f73c 5e1c 47c0
00000170: dd4a 8abc 6d3b 2f3d f905 8e3b 9b26 183d
00000180: d73e c63c 60c4 b93e 3d3f 843c ac1f 403c
00000190: f30b 973b ee7d bb3a 5dfa 9cbe d75e 57bb
000001a0: 4a25 ba3c 50f3 bb3c 5809 1b3b d8b0 583c
000001b0: a232 d237 ebaf 49bc 4c82 23ba 9ae9 5940
000001c0: db10 483c 3dd6 0c3c 1731 ec3b 6f5b 6340
000001d0: 3805 2940 7b40 0f3f 0f38 a8bc f7d2 a63c
000001e0: f41f d3ba d5a7 403c 8279 01bc 2cdb cf3e
000001f0: f92b ddb8 9175 1abc df4a 0f3c ed55 773c
00000200: fffc 3bbc 144b ce3f 54c6 b93a acfa fc3b
00000210: 5a02 c73b deeb 7abc 10d2 fcbb 453a 34bb
00000220: 63c7 b1bc a286 92c0 a411 20bc 1556 5240
00000230: dbb3 033d 40a8 d93c d111 4ac0 1cc1 07bd
00000240: 04aa 9a3c f628 d73e e636 6ebc 3efb a2b9
00000250: af4b b0bc 48fb af3c 5993 a2bc 59bc 1abd
00000260: 87de 2f40 a727 a43a cdbb 153d 62d1 12bd
00000270: 0be4 1840 dd59 653f 7180 d9bc 58c1 a4bf
00000280: 092b ecbc 8455 d23c 4c62 14bb 8708 06bc
00000290: 2e24 18bc 4bc3 7abc f069 f43b 5460 2e3c
000002a0: 39dd 8bbc 7125 2c3c ef57 33bc d3d8 1bbd
000002b0: 5b26 8c3c f8e0 a0ba ecb0 973b c519 a03d
000002c0: c328 c040 bbef a63a 0ba6 eabe f9e9 4dbc
000002d0: c182 b5bb 6908 ec3b 7d3e 2b3d cdd5 5c3b
000002e0: e9d0 bcbc 308e 4abd 32cc 453d ade2 3fc0
000002f0: bc73 6f3c a14a 76c0 e375 563f 1fbe c0bc
00000300: 5136 e53a ec18 b13c 4d43 00bd 03e2 91bf
00000310: 2cb3 6f3e 9c45 09bc 11d1 0f3f a8cc 243c
00000320: 950f 273a 4e13 6abc c200 c33c 79e8 dd3e
00000330: 6f66 4bbd 48e7 2dbd 1505 8bbb 6fa1 91bb
00000340: 7a74 c83c 1dd1 803f d688 c6bb 593f 9ebc
00000350: d8ef 35bd 33a8 683c 6999 3bc0 1552 b93a
00000360: 4155 db3c ac4b 623d 0777 87bc 059c 0cbc
00000370: 9d11 b5bc 23f5 f0bc 2cbc 85bc 393f 1fbc
00000380: 5292 9a3b ab1e dfbc f9d5 13bc 3b27 e23c
00000390: 5e1f 12bc 4442 a6bc f3b9 0e40 425c adbc
000003a0: ec8f c93c 8285 2fbc 7dbb efbb da83 bc3b
000003b0: 0c08 903b bade adbb a39e 51bc fa1f d83f
000003c0: af0e beba 3340 283d 90ef 483f 8811 92bf
000003d0: b276 94bc f1b3 693d 9d94 85bc c945 b63c
000003e0: ffaf d7ba d0a4 b939 4d59 0b3d 2f15 0ebc
000003f0: 6f8e edc0 1ba3 843c 9fbc bb3b 693d 3abd
-0.026901925 -1.3107742 0.033046633 0.08410183 -0.041045014 -0.019785717 -0.020782024 0.5122626
0.021287417 3.7334054 0.009405464 0.0013496014 0.00012222034 -0.019029828 -0.04291457 0.5317104
-0.03370499 2.0598352 0.0020397292 0.0032855254 -0.030369276 2.6109376 -0.6481613 0.01277151
-0.021309497 -0.019187955 -0.5923936 0.050080772 6.9676747 -0.027329326 0.007368125 0.0039330446
0.048212625 0.0026038804 0.004759468 -0.028195228 0.29250997 2.7661273 0.012708071 0.0033809068
0.811761 -0.042768966 -0.426124 0.013050137 -0.023676598 -0.0032332512 -0.013531812 0.0020822936
-0.03268036 0.021949703 -0.04772717 0.011465069 -0.019313656 -0.024853848 0.008488896 -0.025986722
-0.045316976 0.04154681 -0.96178794 -0.028732942 0.014984282 0.00926132 -0.00944202 4.2365494
-0.012098541 -0.027400477 0.012570555 0.0012612394 -0.0061727995 0.0103601515 -1.9580626 0.0354339
0.0022818919 0.09559127 -0.029328212 0.18971686 -0.01779024 0.016508086 -0.0074041365 0.029464222
-0.012148584 0.015929896 0.012301662 0.81908715 1.9596556 0.0016896775 -0.016708156 0.00645867
-0.0586652 0.26879558 0.03018437 -3.1111064 -0.0168814 0.042781282 0.004334208 0.037146192
0.024199886 0.36282635 0.016143436 0.011726301 0.0046095788 0.0014304498 -0.30659762 -0.0032862925
0.022722859 0.022943169 0.0023656692 0.013225757 2.5057529e-05 -0.0123100085 -0.0006237372 3.404883
0.01221105 0.008596 0.0072080004 3.5524557 2.6409435 0.55957764 -0.020534543 0.020364268
-0.0016107545 0.011758764 -0.007902505 0.40596902 -0.00010546292 -0.009427444 0.008745878 0.01509617
-0.011473893 1.6116662 0.0014173486 0.007720312 0.0060732784 -0.015315024 -0.007715471 -0.0027500552
-0.02170152 -4.5789347 -0.009769831 3.286504 0.032153945 0.026569486 -3.1573374 -0.033143148
0.018879898 0.42023438 -0.014539456 -0.00031086238 -0.021520464 0.021482125 -0.019845651 -0.03777728
2.747957 0.0012524024 0.036556054 -0.035844214 2.3889186 0.89590245 -0.026550503 -1.2871504
-0.028829115 0.025675543 -0.0022641597 -0.008180744 -0.00928597 -0.015305351 0.007458918 0.010643084
-0.01707326 0.010506974 -0.010946258 -0.038048577 0.017108133 -0.0012274077 0.004629245 0.07817415
6.004976 0.001273624 -0.45829806 -0.01256799 -0.0055392687 0.007203151 0.04180764 0.003369677
-0.023048835 -0.049452007 0.04829044 -2.9982102 0.014614996 -3.848305 0.8377363 -0.023528157
0.0017487501 0.021618329 -0.031314183 -1.1397098 0.23408192 -0.008378413 0.56178385 0.0100585595
0.00063728663 -0.014286829 0.023804072 0.43341425 -0.049658235 -0.042456895 -0.004242549 -0.004444293
0.024469603 1.0063816 -0.0060587926 -0.019317316 -0.044418186 0.014200258 -2.9312384 0.0014138842
0.02677405 0.055247948 -0.016536249 -0.00858212 -0.022103125 -0.029413765 -0.016325079 -0.009719663
0.00471715 -0.027236303 -0.009023183 0.027606597 -0.008918611 -0.02029527 2.2300994 -0.021162156
0.02460476 -0.010712983 -0.0073160515 0.0057530226 0.0043954905 -0.005306092 -0.01279417 1.6884758
-0.0014500226 0.04107685 0.78490543 -1.14116 -0.018123005 0.05705637 -0.016306216 0.022250073
-0.0016455649 0.00035408745 0.03402071 -0.008672043 -7.423637 0.016191056 0.0057292725 -0.04546872
