model/BloomCrimeTask11100-1_500.pth (torch, 13415 bytes, 5 tensors)

fc.0.weight f4 [50, 2]
00000000: fc26 01bf 8f8f 9d3e a961 febe 79f4 2abf
00000010: d670 8bbe ab2a 423e 395a 2cbf 8cce b63f
00000020: de83 80bd 9799 3f3e 5dd3 5abe 1b54 0ebe
00000030: c2ef 2cbf 90c5 efbe 9f3d 95be 4c94 d63c
00000040: 02ff 9f3f e68b 903f 8751 da3e 6576 85bf
00000050: 077e 86bf 5ade 0340 10a1 1abf 9e30 1c3f
00000060: 1e6b e9bd 353c 993d 031d 5a3f ffdc 72bf
00000070: ead3 9cbf ea53 b8bd 661f 8dbe 9e66 1c3f
00000080: 85aa eabe 86a8 a6be a5ae 2dbf 67a5 abbf
00000090: 2d1c 2abf 9d86 703f afe7 833f cecd 32bd
000000a0: 80d4 eb3e 8dd0 8fbf f855 d43e 792b 57bf
000000b0: 68cc 02bf 4ca4 babe d55b 973f fe77 89bd
000000c0: f68f a0be f202 d1bc c613 a5be 28a0 ee3f
000000d0: 37b0 e53f cdc7 b9bd bcfe b03f 9c43 373e
000000e0: 70ed 063e 6558 0cbf 8aec fabe f205 bbbe
000000f0: 09c4 c73f 3049 733f f1c3 42bf 0806 283f
00000100: c5bf c63e 43c8 b6bd f7cf 7ebe 7c1f 2e3f
00000110: 2f8c ba3e b99a 8a3e 6d7f 0bbf 1cad 84be
00000120: e6f4 543e b1db 813f 7fd7 bb3f 0af7 7f3f
00000130: e8bf 6d3f eec7 87bf fc76 a53e cc1d 4cbf
00000140: 98b6 9dbf 7002 803f 041e 8d3f 5122 a1bf
00000150: 0c2b 0abe 3a67 0fbf 5c4f eebd c7b9 a5be
00000160: 6539 8b3e d06f d6be 40c1 ad3e ecd8 963f
00000170: b942 9a3f 9269 0fbd 4529 33bf 76da eabe
00000180: 8403 9e3e a002 bc3d d535 0dbf 0b78 d0be
-0.5045011 0.3077359 -0.49683884 -0.66779286 -0.27234524 0.18961589 -0.6732517 1.4281783
-0.06275152 0.18710934 -0.21369691 -0.13899271 -0.6755334 -0.46830416 -0.29148576 0.02619376
1.2499697 1.1292694 0.42640325 -1.0426756 -1.050721 2.0604463 -0.6040201 0.61011684
-0.11397384 0.07482187 0.8520052 -0.94868463 -1.2252171 -0.0900038 -0.27563018 0.6109408
-0.4583322 -0.32550448 -0.6784461 -1.3409852 -0.6644924 0.93955404 1.0305079 -0.043653302
0.46060562 -1.123552 0.4147184 -0.8405071 -0.5109315 -0.36453474 1.18249 -0.0671234
-0.31359833 -0.0255141 -0.32241648 1.8642626 1.7944402 -0.09071312 1.3827739 0.17896885
0.13176513 -0.5482238 -0.4900859 -0.36527973 1.56067 0.9503355 -0.7608023 0.656342
0.38818184 -0.08924916 -0.2488402 0.6801679 0.36435077 0.2707117 -0.5449131 -0.25913322
0.20796546 1.014517 1.4675139 0.99986327 0.9287095 -1.0607889 0.3231734 -0.79732966
-1.2321348 1.0000744 1.1024785 -1.2588598 -0.13492984 -0.56016886 -0.1163623 -0.323683
0.27192226 -0.4188218 0.339365 1.1784949 1.2051612 -0.03501279 -0.6998485 -0.45869797
0.30862057 0.09180188 -0.55160266 -0.40716586

fc.0.bias f4 [50]
00000000: 11cc 713f 1e4f 823f a3db 9dbe dc7c 93be
00000010: 4d70 2cbf 123c 50bc 7751 08bf 67a1 0bbf
00000020: 645a 1ebe 81b7 133f a855 063e 63c3 273f
00000030: 8f50 dcbe 58ed f93e 46dc 853f 88a6 18bf
00000040: 2536 34be 4032 643f 7630 093f db8b b1bd
00000050: b923 1f3f 2543 dd3e 2aa6 b0be 88e5 c6bd
00000060: 81a4 2dbf ceba 47bd 863a 84be 9e90 b7be
00000070: 714e 7dbe 0c5e 14bf 6db1 25be 3206 2f3f
00000080: 16db ebbe 9518 cb3d c2d7 f13d e4de 94bd
00000090: 79e4 92bd 523a 32be c742 863e f599 e33e
000000a0: e646 953f 2757 9f3e 12ea 3f3f 4477 51bd
000000b0: 129d 22bf 6158 72bf e19c d0bd c233 96bb
000000c0: 58be cabe 9db7 0abf
0.94452006 1.0180395 -0.30831632 -0.28806198 -0.6735886 -0.012709634 -0.53249305 -0.54543155
-0.15464169 0.5770188 0.13118613 0.6553251 -0.4303021 0.4881389 1.0457847 -0.59629107
-0.1759878 0.89139175 0.5358957 -0.086692534 0.62163883 0.4321529 -0.34501773 -0.09711748
-0.6782914 -0.048762135 -0.258259 -0.35852522 -0.24736954 -0.57956004 -0.16180964 0.6836883
-0.46065587 0.09916798 0.11808731 -0.072690755 -0.07172484 -0.1740506 0.26222822 0.44453397
1.1662261 0.3112118 0.7496654 -0.05113913 -0.6352092 -0.94666106 -0.10186172 -0.0045838067
-0.39598346 -0.5418642

fc.1.weight f4 [50, 50]
00000000: 9f86 07be 6e73 f4bd c0fd eabc dad5 9e3d
00000010: 1d96 9c3d 27aa 0bbe a5aa b43d 93a3 e2bd
00000020: 81ec f4bc f6df 6abd 3e26 dfbc bb77 e3bc
00000030: 3ef3 01be 0e14 fabd 0349 b5bc 41b7 ef3a
00000040: 7392 83bd 1f35 5a3d a657 02be 045f 1cbc
00000050: 04b5 fe3d bb46 6cbd d2c4 023e 29c8 513d
00000060: b8b0 02be ad3f b73d efaf 85bc 124b 81bd
00000070: b69a e73d a50c eabd 71a1 783c 028f f2bc
00000080: 41d4 ce3d a2b2 213d 522b 8b3d 4f92 4c3d
00000090: 3f4c 0bbd d5a4 f3bc f3ad eebd 51ef 9c3d
000000a0: ecf5 e53d 362c c63d a54c ccbd 1eae ce3b
000000b0: b62b ccbd f06f 9fbd 01c5 a8bd baf5 453d
000000c0: 4b98 acbd bf34 4abb 96a2 5bbe 9e45 ebbe
000000d0: 17f0 dabd 8c60 503f 742d a8bd eeb8 ca3d
000000e0: 7139 50bd e94c f43d afda d83d 1d37 693f
000000f0: 1546 a33f b782 56be 125b 913c 516b 40be
00000100: 0b05 e63f d0d1 933c 028d e2bd 47fa c6bf
00000110: cc3d 96bd e720 27be 68fc 143f d92e e63e
00000120: 3840 513d 0acc e4bc 3fff fabd 39ad 06bf
00000130: 7606 813e ecef 4cbf 115a 42bd 1190 abbc
00000140: 5b09 503d e8e5 02be f6a0 903c a5b0 0e3e
00000150: 3263 053d d61b b7bd 6f8e d53d 4514 3cbd
00000160: be85 293f 7b5d b33d f779 6fbe 724e fa3e
00000170: 33c5 c9be b864 6d39 dd1b 953d 24f3 77bd
00000180: d036 6f3d 9880 efbd e459 683c eef7 c4bc
00000190: c53a 34bf d987 d4bf 5280 ef3d 1eaf b53f
000001a0: c2f3 abbd ca3b 56bd 9b88 0fbe d7bc 823d
000001b0: cf1f e53e 78d5 573f 7521 ed3f b18d 12bf
000001c0: 8561 993d db7c 303e d56f 9abf 3c73 41bd
000001d0: a9df 21bd e3e2 90c0 4207 01bf 845c 1f3f
000001e0: 3400 003f 5664 b93e 26eb 08be c28f 203f
000001f0: 2c89 a2bd e310 ebbe 9f20 9c3f 10dc 1fbd
00000200: a3cb 83bc 6df4 253d 4957 0e3f 1a6f 85bf
00000210: 701d eabd 26e1 5ebd 9924 213e f248 f03d
00000220: a046 8c3e e225 123f 6bdb 8e3f 8beb 823c
00000230: 8766 8bbf 5c40 6a3f 12aa 4ebf 8530 3fbb
00000240: fa46 02bd 58c2 da3c d36a 2e3f b79b d7bd
00000250: 85c3 923d 63c7 42bd 909c ad3d cf8b 193f
00000260: 6973 96bd 382f 013e 0b83 e33c 450c d7bd
00000270: 7ce4 c03c 7cb9 763d 3032 133e d78a 7fc0
00000280: 39e2 59bd d8b3 403e 9f2e 493d e65b fa3d
00000290: 5051 bcbe 25e2 c03d 343b 97bd fb47 2540
000002a0: 915e 053f 7823 313e eaaa 96c0 667b 9fbf
000002b0: 55b1 e3bd 30e0 893d 8a8f c83d 9b13 9f3d
000002c0: efae 42be 57e8 a6be 0343 873d 4ae6 8cbd
000002d0: 23e9 1cbe 8b45 e33e 2678 103e 4d53 043e
000002e0: 0cf7 27bd c7a1 623d de5f 143e d7f4 1e3e
000002f0: 1372 81c0 7486 ecbf e9c2 a13e 3184 5bc0
00000300: 7ec2 e33e a44d a23d 384b aebd 4c72 7ebf
00000310: eaaa 2b3e 5be3 9d3d 67e7 c3bd ac30 263d
00000320: 9548 6f3e 6ee8 c83e 2877 d0bc 853e 37c1
00000330: 75c7 cd3c 2075 763d 62d9 44bd 3c37 8d3d
00000340: 8014 45be 00b2 893e bae6 67c0 4333 973e
00000350: fd96 e8bd c52b 09bd 6e00 4bbf 40de 073e
00000360: 8e07 e83d cf06 053f 2ed4 a33e 9419 69be
00000370: 6529 0dbe f7b5 f03e 98f6 dabd f76a 89be
00000380: ade7 0bbe c728 0e40 a1fb 8bbe d1b8 4a3f
00000390: 2a54 cf3d c8a1 df3d 71e3 83bc dd28 8f3e
000003a0: 5fe0 7e3d 796b 013f ee43 763d c3c4 103e
000003b0: e6da 363e 3779 c2bc bd4f 9839 54eb fb3c
000003c0: 66b3 233f e953 79be 9955 253d 4884 a2bd
000003d0: 8fdd debd a0d3 8440 143c f6bd ceda 83bc
000003e0: afad ccbd 7bdb df3d 3e37 b93d 483c 2c3c
000003f0: b8be 88bd a417 053e 3ee2 6c3d 3bdf dbbd
-0.13234948 -0.11936079 -0.02868545 0.07755633 0.07645819 -0.13639127 0.0882161 -0.110663556
-0.02989793 -0.057342492 -0.027239915 -0.027767053 -0.12690446 -0.122108564 -0.022129541 0.0018288867
-0.06424417 0.053273316 -0.12728748 -0.009544138 0.1243687 -0.05768464 0.12770393 0.05121628
-0.12762725 0.08947692 -0.016319243 -0.06313147 0.11308806 -0.11428193 0.015175209 -0.029609207
0.10099078 0.039477 0.06795372 0.04994422 -0.03400826 -0.029741684 -0.11654272 0.076628335
0.112285465 0.09676401 -0.09975556 0.0063073775 -0.09969275 -0.07785022 -0.082407005 0.048330046
-0.08427485 -0.0030854193 -0.2144874 -0.4595155 -0.10690325 0.8139732 -0.082117945 0.09898554
-0.05083603 0.11928732 0.105885856 0.9109972 1.2755762 -0.20948301 0.017743621 -0.18790938
1.7970289 0.018044382 -0.11062051 -1.5545129 -0.073360056 -0.16321145 0.5819764 0.44957617
0.051086634 -0.027929325 -0.122557156 -0.52608067 0.25200242 -0.8005359 -0.047449175 -0.02094272
0.050790172 -0.12783015 0.017654877 0.13934572 0.032565303 -0.08940856 0.10427558 -0.045917768
0.662197 0.08758064 -0.2338637 0.48887974 -0.39408264 0.00022639602 0.07280705 -0.06053461
0.058401883 -0.11694449 0.014181588 -0.024044003 -0.70402175 -1.6603957 0.11694397 1.4194067
-0.083961025 -0.052303113 -0.14016955 0.063836746 0.4475083 0.843101 1.8525835 -0.57247454
0.074893035 0.17235129 -1.2065378 -0.047229037 -0.03951994 -4.527696 -0.504017 0.6225054
0.5000031 0.36209363 -0.13370952 0.62719357 -0.0793632 -0.4591132 1.2197455 -0.039028227
-0.016088312 0.040516306 0.55601937 -1.042453 -0.11431396 -0.054413937 0.15736617 0.11732663
0.27397633 0.57089055 1.1160711 0.015981456 -1.0890664 0.91504455 -0.80728257 -0.0029173207
-0.03180597 0.026703998 0.6813175 -0.10527747 0.07166199 -0.04755343 0.084771276 0.59978956
-0.073462315 0.12615669 0.027772447 -0.10500387 0.02354645 0.060235485 0.14374614 -3.992849
-0.05319426 0.18818605 0.049116727 0.122245595 -0.36780787 0.09418134 -0.07384339 2.5825183
0.5209742 0.17298687 -4.7083635 -1.2459533 -0.11117808 0.067322135 0.09793003 0.07767411
-0.19012044 -0.32599136 0.06604578 -0.06879862 -0.1532331 0.44388995 0.14108333 0.12922402
-0.041007087 0.055330064 0.14489695 0.15523086 -4.045175 -1.8478532 0.31594017 -3.4299433
0.44484323 0.07924965 -0.085104406 -0.99393153 0.16764417 0.0770938 -0.09565621 0.04057376
0.23367532 0.3923983 -0.025447443 -11.452764 0.025119523 0.060170293 -0.048058875 0.06895301
-0.19246101 0.26893616 -3.6234574 0.29531297 -0.11356924 -0.033489008 -0.7929753 0.13268375
0.11329566 0.51963514 0.31997818 -0.22763664 -0.13785322 0.47013828 -0.10691565 -0.2683942
-0.13662596 2.2212389 -0.27340415 0.7918826 0.10123475 0.10919529 -0.016099663 0.27960864
0.062225696 0.50554615 0.060123377 0.14137559 0.1785694 -0.02373944 0.0002905111 0.030751862
0.63945615 -0.24348415 0.040364835 -0.07935387 -0.10882103 4.150833 -0.12023178 -0.016095545
-0.09994065 0.109305345 0.0904374 0.010512419 -0.06677002 0.129973 0.05783295 -0.10735937

fc.1.bias f4 [50]
00000000: eb82 853d 0ef1 25be 2169 95be 8593 cd3b
00000010: 88fd 223e 43fa d1bb 0903 d0bc cbf6 68bd
00000020: 4867 ad3d b279 043e 6d8f 07be ef37 2bbe
00000030: 531c 7c3d a263 5abe d98d d4bc 795d 413d
00000040: aced c1be d495 42bd 5157 05bd f5d8 393d
00000050: 7015 143e 02eb d7bc 408e a13e 39ff 013d
00000060: d2b4 b9be ae56 103d b15c acbd 6647 743e
00000070: d14b 53bc b731 1cbe 5d2f 0cbe eb61 81bc
00000080: 3a82 9dbe 5c31 e3bd 0b47 2abe a43b c9bb
00000090: ccc0 863e 334b 12be 586d 36be d25a 7abd
000000a0: b7ee e5bd 4208 ec39 0b18 2abe b875 be3a
000000b0: 4e7a 1ebe 4330 15bd 1165 d03d e54f b7bd
000000c0: 3e4c 3bbe 4469 29be
0.06519111 -0.16205236 -0.2918177 0.006273689 0.15917027 -0.0064080073 -0.025392072 -0.056875985
0.08466965 0.12937048 -0.13238306 -0.16720556 0.06155045 -0.2132707 -0.025946544 0.047208283
-0.37876642 -0.04750617 -0.032553975 0.045372922 0.14461303 -0.026357178 0.3155384 0.03173754
-0.36270767 0.035238914 -0.08416117 0.23855361 -0.012896494 -0.1525334 -0.13689943 -0.015793761
-0.30763417 -0.11093399 -0.16628663 -0.006141143 0.26318967 -0.14286499 -0.17815149 -0.06112177
-0.11227172 0.0004501958 -0.16610734 0.0014530933 -0.15476343 -0.03642298 0.10175527 -0.089507855
-0.18290803 -0.16544062

fc.2.weight f4 [1, 50]
00000000: 6edb 8f3d adb6 283f a4bc 2e40 898c 49c0
00000010: efc9 aabf 0b05 10bc 9833 91bc 0908 d73d
00000020: 194e d23d 3362 c43d a781 4dbd 2eb3 23c1
00000030: 865e b7bd 6195 723f 6d64 d9bd dad4 e7bd
00000040: 2fbf 8bc1 380b debd d8a9 19bd 0e56 b6bd
00000050: 87a4 b6bf 9f40 ed3d 62e1 c23f 1022 f03d
00000060: 34eb 3b3f 95fa 94bc 918b c2c0 cb7f a5bf
00000070: 12b4 e8bd e627 683f d0b6 37c1 bfc1 1cc0
00000080: 4c81 943f b000 363f b76d 93bd 4e12 bebd
00000090: 9252 a7bf 756e e3c0 25f7 923f 1c9f a83d
000000a0: 9639 423f 53d8 f6bd 31a9 7ec0 cf6b e0bd
000000b0: 1992 793f 49cf ccbb ce89 66bc cfbc 34bd
000000c0: 32b2 883f d8b1 693f
0.07024275 0.6590374 2.7302637 -3.1492026 -1.3342875 -0.008790265 -0.017724797 0.104995795
0.10268802 0.095890425 -0.050172474 -10.231245 -0.08953576 0.94759184 -0.10614858 -0.11319895
-17.468351 -0.108419836 -0.03751549 -0.089031324 -1.426896 0.11584591 1.5225031 0.11725247
0.73405766 -0.018185893 -6.079537 -1.2929624 -0.11362471 0.9068588 -11.482132 -2.4493253
1.1601958 0.710948 -0.07198661 -0.09280835 -1.3072073 -7.1072335 1.1481673 0.08233473
0.7586912 -0.12052979 -3.9790766 -0.10958063 0.9748855 -0.0062502963 -0.014070941 -0.044125374
1.0679381 0.91286993
