model/BloomCrimeTask11100-1_502.pth (torch, 13415 bytes, 5 tensors)

fc.0.weight f4 [50, 2]
000000 ed fd ac be 36 de 61 3f 43 ac cc be b5 85 0f bf
       -0.3378748 0.8822969 -0.39975175 -0.56063396
000010 d6 70 8b be ab 2a 42 3e bd c6 27 bf f5 01 bf 3f
       -0.27234524 0.18961589 -0.65537626 1.4922472
000020 de 83 80 bd 97 99 3f 3e 5d d3 5a be 1b 54 0e be
       -0.06275152 0.18710934 -0.21369691 -0.13899271
000030 c2 ef 2c bf 90 c5 ef be 9f 3d 95 be 4c 94 d6 3c
       -0.6755334 -0.46830416 -0.29148576 0.02619376
000040 5d 75 f1 3e f8 9b 73 3f c1 1a 71 be cc 7c 68 bf
       0.47159854 0.95159864 -0.23545362 -0.90815425
000050 f0 ff 7c bf 0f 6f cd 3f c3 94 97 be 70 ed 8b 3f
       -0.9882803 1.6049517 -0.29605684 1.0931835
000060 1e 6b e9 bd 35 3c 99 3d 55 0e 31 3f 05 2c 69 bf
       -0.11397384 0.07482187 0.69162494 -0.91082793
000070 7e 65 83 bf 82 9b d7 bf 9a a7 91 be 28 08 19 3f
       -1.0265348 -1.6844332 -0.28448182 0.5977807
000080 85 aa ea be 86 a8 a6 be 80 d6 03 bf a3 3c 2e bf
       -0.4583322 -0.32550448 -0.51499176 -0.68061274
000090 64 19 75 be 51 d0 9e 3f fa 98 05 3e ef 2f 51 3e
       -0.23935467 1.2407323 0.13046637 0.20428441
0000a0 4c c7 3e 3f 81 95 9c bf 3c b7 c1 3e 4e bf 52 bf
       0.7452285 -1.2233125 0.3783511 -0.8232316
0000b0 68 cc 02 bf 4c a4 ba be 68 29 76 3e 10 5c e2 3e
       -0.5109315 -0.36453474 0.24039233 0.44210863
0000c0 f6 8f a0 be f2 02 d1 bc 5c e8 a1 bd 73 62 02 40
       -0.31359833 -0.0255141 -0.07905647 2.0372589
0000d0 c8 d0 b8 3f a5 c9 96 3f 6c 1f a3 3f 35 d3 9c be
       1.4438715 1.1780287 1.2743964 -0.30629888
0000e0 70 ed 06 3e 65 58 0c bf 8a ec fa be f2 05 bb be
       0.13176513 -0.5482238 -0.4900859 -0.36527973
0000f0 58 49 24 3f 5d 27 34 3f 2e 59 b5 be e0 f0 81 3f
       0.64174414 0.70372564 -0.354196 1.0151634
000100 c5 bf c6 3e 43 c8 b6 bd d0 6f 51 3d fc b5 5c 3f
       0.38818184 -0.08924916 0.051132023 0.86215186
000110 b1 d2 0f 3e a4 63 6b 3f 6d 7f 0b bf 1c ad 84 be
       0.14045216 0.91948915 -0.5449131 -0.25913322
000120 97 33 a4 3e 51 b7 93 3f 50 13 3c 3f 4e 90 8b 3f
       0.3207061 1.1540319 0.7346697 1.0903413
000130 2d 7b 0c 3f 00 37 71 bf f5 1d a7 3e 82 03 59 bf
       0.5487545 -0.9422455 0.32640043 -0.8477098
000140 c3 5f 68 bf 02 04 c7 3f cc dc 38 3f 39 11 9c bf
       -0.9077112 1.5548098 0.7221191 -1.2192756
000150 4d db 83 be 35 2d 1b bf 5c 4f ee bd c7 b9 a5 be
       -0.2575325 -0.60615855 -0.1163623 -0.323683
000160 65 39 8b 3e d0 6f d6 be 05 24 fa 3d 97 79 ad 3f
       0.27192226 -0.4188218 0.122139014 1.3552731
000170 22 c4 19 be 63 38 14 3e 45 29 33 bf 76 da ea be
       -0.15016225 0.14474635 -0.6998485 -0.45869797
000180 86 4b 9e 3e dd 3f bb 3d d5 35 0d bf 0b 78 d0 be
       0.30916995 0.0914304 -0.55160266 -0.40716586

fc.0.bias f4 [50]
000000 79 93 fd 3e e6 07 59 3f a3 db 9d be 1b df ae be
       0.49526575 0.8477768 -0.30831632 -0.3415459
000010 4d 70 2c bf 12 3c 50 bc 77 51 08 bf 67 a1 0b bf
       -0.6735886 -0.012709634 -0.53249305 -0.54543155
000020 a8 0a a6 bd 03 29 69 3f c6 02 69 3e 9c d1 8f 3e
       -0.08107501 0.91078204 0.22754964 0.28089607
000030 8f 50 dc be 45 30 19 3f 9f c8 bf 3f 36 05 1c bf
       -0.4303021 0.5983928 1.49831 -0.6094545
000040 25 36 34 be 18 5f 06 3c fb a3 43 3e 24 0e d4 bc
       -0.1759878 0.008201383 0.19105522 -0.025885649
000050 38 04 03 3f e0 ab db 3e 2a a6 b0 be 5b e8 0a 3e
       0.5117831 0.42904568 -0.34501773 0.13565199
000060 81 a4 2d bf 58 1f e5 be ee 0c 59 bf 62 36 e8 bd
       -0.6782914 -0.44750476 -0.84785354 -0.11338498
000070 71 4e 7d be 0c 5e 14 bf aa 2e 93 bc 41 02 a3 3e
       -0.24736954 -0.57956004 -0.017966587 0.31837657
000080 16 db eb be 96 a3 9a bc 26 ba 91 3e e4 de 94 bd
       -0.46065587 -0.018876832 0.28462332 -0.072690755
000090 4a 03 95 bd 09 dc 77 bd f8 8f cf 3e 0a 92 f7 3e
       -0.07276018 -0.060512576 0.40539527 0.48353606
0000a0 59 31 41 3f d0 e8 04 3f 5d 98 40 3f 44 77 51 bd
       0.75465924 0.51917744 0.7523249 -0.05113913
0000b0 12 9d 22 bf 58 e9 4e bf 7b 49 3f 3e c2 33 96 bb
       -0.6352092 -0.80824804 0.18680374 -0.0045838067
0000c0 29 80 ca be 9d b7 0a bf
       -0.39550903 -0.5418642

fc.1.weight f4 [50, 50]
000000 9f 86 07 be 6e 73 f4 bd c0 fd ea bc da d5 9e 3d
       -0.13234948 -0.11936079 -0.02868545 0.07755633
000010 1d 96 9c 3d 27 aa 0b be a5 aa b4 3d 93 a3 e2 bd
       0.07645819 -0.13639127 0.0882161 -0.110663556
000020 81 ec f4 bc f6 df 6a bd 3e 26 df bc bb 77 e3 bc
       -0.02989793 -0.057342492 -0.027239915 -0.027767053
000030 3e f3 01 be 0e 14 fa bd 03 49 b5 bc 41 b7 ef 3a
       -0.12690446 -0.122108564 -0.022129541 0.0018288867
000040 73 92 83 bd 1f 35 5a 3d a6 57 02 be 04 5f 1c bc
       -0.06424417 0.053273316 -0.12728748 -0.009544138
000050 04 b5 fe 3d bb 46 6c bd d2 c4 02 3e 29 c8 51 3d
       0.1243687 -0.05768464 0.12770393 0.05121628
000060 b8 b0 02 be ad 3f b7 3d ef af 85 bc 12 4b 81 bd
       -0.12762725 0.08947692 -0.016319243 -0.06313147
000070 b6 9a e7 3d a5 0c ea bd 71 a1 78 3c 02 8f f2 bc
       0.11308806 -0.11428193 0.015175209 -0.029609207
000080 41 d4 ce 3d a2 b2 21 3d 52 2b 8b 3d 4f 92 4c 3d
       0.10099078 0.039477 0.06795372 0.04994422
000090 3f 4c 0b bd d5 a4 f3 bc f3 ad ee bd 51 ef 9c 3d
       -0.03400826 -0.029741684 -0.11654272 0.076628335
0000a0 ec f5 e5 3d 36 2c c6 3d a5 4c cc bd 1e ae ce 3b
       0.112285465 0.09676401 -0.09975556 0.0063073775
0000b0 b6 2b cc bd f0 6f 9f bd 01 c5 a8 bd ba f5 45 3d
       -0.09969275 -0.07785022 -0.082407005 0.048330046
0000c0 4b 98 ac bd bf 34 4a bb 33 5f 6e bd 41 d3 87 be
       -0.08427485 -0.0030854193 -0.058196258 -0.2652836
0000d0 17 f0 da bd 23 80 bc 3e 74 2d a8 bd ee b8 ca 3d
       -0.10690325 0.3681651 -0.082117945 0.09898554
0000e0 71 39 50 bd e9 4c f4 3d 3a 78 dd 3d 5a f8 12 3f
       -0.05083603 0.11928732 0.10813947 0.57410204
0000f0 f4 de 8b 3f 5b fa 53 bd 12 5b 91 3c 94 06 36 be
       1.0927415 -0.05175243 0.017743621 -0.17775947
000100 85 c5 f7 3f b8 9d ea 3b 02 8d e2 bd 77 07 c8 bd
       1.9357153 0.007159915 -0.11062051 -0.09767049
000110 f9 03 cb 3d e9 fb 15 be 79 82 14 3f 04 43 03 3f
       0.09912867 -0.14646877 0.58011585 0.5127413
000120 38 40 51 3d 8a 21 87 bc 3f ff fa bd 9c f5 8e be
       0.051086634 -0.016495485 -0.122557156 -0.2792176
000130 dc 04 92 3f ae 09 8d bf 11 5a 42 bd 11 90 ab bc
       1.1407733 -1.1018579 -0.047449175 -0.02094272
000140 65 da 0a 3c 17 22 4b 3d f6 a0 90 3c c8 86 5b 3e
       0.008474921 0.049593057 0.017654877 0.21438134
000150 d2 68 9c 3d d6 1b b7 bd da 0e 16 3e 34 32 10 bd
       0.076371804 -0.08940856 0.14654103 -0.035204127
000160 13 11 c6 3e 9d c9 12 3e 02 72 2a bd 67 8e 8c 3e
       0.38684902 0.14334722 -0.041612633 0.27452394
000170 f4 9b 9b be b8 64 6d 39 dd 1b 95 3d 88 56 f1 be
       -0.3039242 0.00022639602 0.07280705 -0.4713633
000180 d6 f7 c4 3d 98 80 ef bd 73 fa 4e 3c ee f7 c4 bc
       0.096175835 -0.11694449 0.012632954 -0.024044003
000190 79 e4 21 be 74 80 c7 be 52 80 ef 3d 36 ea 2b 3f
       -0.15809812 -0.3896519 0.11694397 0.6715425
0001a0 c2 f3 ab bd ca 3b 56 bd 9b 88 0f be d7 bc 82 3d
       -0.083961025 -0.052303113 -0.14016955 0.063836746
0001b0 16 11 ec 3b a9 90 ed 3e f3 51 8c 3f 02 73 34 3d
       0.0072041852 0.4639943 1.0962509 0.044054992
0001c0 85 61 99 3d 58 4d 8c bd 4b 89 f6 3f 0d 08 6f bd
       0.074893035 -0.0685069 1.9260648 -0.058357287
0001d0 a9 df 21 bd b2 18 95 3c 58 6a e3 3d 1a bf e6 ba
       -0.03951994 0.018200252 0.11104268 -0.001760456
0001e0 88 7d ec 3e 82 b4 93 3e 26 eb 08 be 52 7e 12 3b
       0.46189523 0.28848654 -0.13370952 0.0022353125
0001f0 2c 89 a2 bd 0c 45 c3 be 4a 3c b1 3f 94 cb 8e bf
       -0.0793632 -0.38138616 1.3846524 -1.1155877
000200 a3 cb 83 bc 6d f4 25 3d 81 ce 09 3d 18 b5 2f be
       -0.016088312 0.040516306 0.033644203 -0.17158926
000210 70 1d ea bd 85 2c 55 3e 41 23 64 3b f2 48 f0 3d
       -0.11431396 0.20817764 0.0034811052 0.11732663
000220 08 64 2e 3d 0f d7 ee 3d 5f 31 a2 3e 5d b7 7d 3d
       0.042575866 0.11662113 0.31678292 0.061942447
000230 bf d3 44 be b3 cc 37 3e 2a 3d 73 be 85 30 3f bb
       -0.192214 0.1794918 -0.23753801 -0.0029173207
000240 fa 46 02 bd b6 2b a1 be 44 03 a2 3d b7 9b d7 bd
       -0.03180597 -0.3147866 0.07910779 -0.10527747
000250 26 25 90 3d 63 c7 42 bd 62 dc e7 3d d7 5f b4 3f
       0.070383355 -0.04755343 0.113213316 1.4091748
000260 69 73 96 bd a3 7f 3d 3e 0b 83 e3 3c 45 0c d7 bd
       -0.073462315 0.18505721 0.027772447 -0.10500387
000270 7c e4 c0 3c 7c b9 76 3d ec 30 55 3e 97 24 fe bf
       0.02354645 0.060235485 0.20819443 -1.9854916
000280 d9 d1 c7 bc 6f 3e 5e 3e 9f 2e 49 3d 22 56 2d 3e
       -0.024392055 0.21703504 0.049116727 0.16927388
000290 5f b1 dd c0 25 e2 c0 3d 34 3b 97 bd 76 cd b6 3a
       -6.9279017 0.09418134 -0.07384339 0.001394673
0002a0 e6 35 0e 3f 85 51 58 3d 63 3d c4 c0 1e 6b 96 bf
       0.5555099 0.052812118 -6.1324935 -1.175144
0002b0 55 b1 e3 bd e1 b1 e8 3d 8a 8f c8 3d eb 84 4d 3e
       -0.11117808 0.11362053 0.09793003 0.20070235
0002c0 b7 7c 4c be 26 05 7f 3d 03 43 87 3d 4a e6 8c bd
       -0.1996945 0.06226077 0.06604578 -0.06879862
0002d0 10 83 6f bb 82 be eb 3e 26 78 10 3e 09 61 34 3e
       -0.0036546625 0.46043783 0.14108333 0.17615141
0002e0 ba f8 12 3d c7 a1 62 3d 4f 1a 6e 3e dd 3d 70 3e
       0.035881735 0.055330064 0.23252223 0.23461099
0002f0 ad 6c 08 c0 40 1c 9f bf 7a f8 ba 3e 87 bb d5 bf
       -2.131633 -1.2430496 0.36517698 -1.6697854
000300 8f 99 a6 3f a4 4d a2 3d 38 4b ae bd 0f fe e3 be
       1.3015612 0.07924965 -0.085104406 -0.4452977
000310 82 03 1f 3e 5b e3 9d 3d 08 84 c0 bd ac 30 26 3d
       0.15528682 0.0770938 -0.09400183 0.04057376
000320 23 0e 6d 3e 24 51 2b 3f 28 77 d0 bc 6a 0a a8 c0
       0.23149924 0.66920686 -0.025447443 -5.2512712
000330 75 c7 cd 3c 20 75 76 3d 62 d9 44 bd 3c 37 8d 3d
       0.025119523 0.060170293 -0.048058875 0.06895301
000340 0d 59 9c be 55 0d 4c 3f 4b ba 3a c0 06 5a 34 3e
       -0.3053669 0.79707843 -2.9176204 0.17612466
000350 fd 96 e8 bd 1e e1 e8 3d 9c 17 72 bf 40 de 07 3e
       -0.11356924 0.11371063 -0.94567275 0.13268375
000360 8e 07 e8 3d 68 2d d2 bd bf fd 32 3d 60 85 8a bd
       0.11329566 -0.10262567 0.043699022 -0.067637205
000370 63 bc b9 3c a2 fe 15 3f 98 f6 da bd f5 78 a9 bd
       0.022672838 0.58591664 -0.10691565 -0.08275024
000380 ad e7 0b be d4 93 a2 3f 14 da d3 bf c1 6e 63 3f
       -0.13662596 1.2701364 -1.6550927 0.8884087
000390 2a 54 cf 3d c8 a1 df 3d 40 e8 94 bd 33 b1 66 3e
       0.10123475 0.10919529 -0.07270861 0.22528534
0003a0 5f e0 7e 3d d1 27 1f 3e a7 42 ac 3d c3 c4 10 3e
       0.062225696 0.15542533 0.084111504 0.14137559
0003b0 32 78 9a bc f9 29 ce bd 57 ef 66 3e 72 6e 0b 3e
       -0.018856142 -0.100665994 0.22552238 0.1361635
0003c0 f5 1c 1e 3f 90 e6 37 bd 3d ed 2f 3e 48 84 a2 bd
       0.61762935 -0.044897616 0.17180343 -0.07935387
0003d0 8f dd de bd 73 7d 87 40 ea b5 2c 3e ce da 83 bc
       -0.10882103 4.2340636 0.1686627 -0.016095545
0003e0 8e a9 cc bd 7b db df 3d 3e 37 b9 3d 48 3c 2c 3c
       -0.099932775 0.109305345 0.0904374 0.010512419
0003f0 b8 be 88 bd a4 17 05 3e 3e e2 6c 3d 3b df db bd
       -0.06677002 0.129973 0.05783295 -0.10735937

fc.1.bias f4 [50]
000000 eb 82 85 3d 34 ac d7 bd 75 32 94 bd 9f 73 1f 3e
       0.06519111 -0.10530892 -0.072361864 0.1557145
000010 26 b1 7b 3e 43 fa d1 bb 73 71 7d bd 6f 54 5f bd
       0.24579296 -0.0064080073 -0.06187577 -0.05452388
000020 c8 b7 6a 3d 13 5c 00 3e 6d 8f 07 be b1 2b 0d 3d
       0.057304174 0.12535124 -0.13238306 0.034465495
000030 01 04 94 3d a8 f9 17 be df 94 61 bd 87 b6 33 3d
       0.07227326 -0.1484133 -0.055073615 0.043875244
000040 be ff 70 3d d4 95 42 bd 51 57 05 bd f5 d8 39 3d
       0.058837645 -0.04750617 -0.032553975 0.045372922
000050 01 ce 6f 3e 01 eb d7 bc fc 45 14 3e 17 8a 0b 3d
       0.23418428 -0.026357176 0.14479822 0.03406724
000060 ed 7d 94 be ae 56 10 3d 58 6c 1c be e6 05 09 3f
       -0.29002324 0.035238914 -0.15275705 0.53524625
000070 1c 7e 53 bc c3 37 ba bd 61 01 14 be 48 12 72 3d
       -0.012908485 -0.09092667 -0.14453651 0.059099466
000080 b1 31 8b be a0 30 5c bd 0b 47 2a be a4 3b c9 bb
       -0.2718635 -0.05375731 -0.16628663 -0.006141143
000090 47 06 0e 3e 2d 2e 8d 3e c8 65 13 be ff 53 8a bd
       0.13869582 0.27574292 -0.14394295 -0.06754302
0000a0 ca 93 44 bd 42 08 ec 39 fc e4 0f 3e fd c3 05 3d
       -0.047992505 0.0004501958 0.14052194 0.032657612
0000b0 67 a1 ed bd 27 2f 15 bd 11 65 d0 3d e5 4f b7 bd
       -0.11603051 -0.03642192 0.10175527 -0.089507855
0000c0 1c a7 1a be 9f d0 07 be
       -0.1510281 -0.13263176

fc.2.weight f4 [1, 50]
000000 6e db 8f 3d dc d4 18 3f 33 74 50 3f b6 61 ff bf
       0.07024275 0.596998 0.81427306 -1.9951694
000010 6f 24 cc bf 0b 05 10 bc fd 50 4a bd f5 0e d7 3d
       -1.5948619 -0.008790265 -0.049393643 0.105009
000020 5f af cd 3d c9 5d c4 3d a7 81 4d bd 66 8d 09 c1
       0.10043215 0.095882006 -0.050172474 -8.597021
000030 60 43 e5 bd f5 2b 5e 3f 6c 2a d3 bd 71 1e ab bd
       -0.111944914 0.86785823 -0.10310826 -0.083554156
000040 ed 2a 12 c1 38 0b de bd d8 a9 19 bd 0e 56 b6 bd
       -9.13548 -0.108419836 -0.03751549 -0.089031324
000050 2c 13 02 c0 25 99 ee 3d ee 43 95 3f 6d 3d f0 3d
       -2.0324202 0.11650304 1.1661355 0.11730466
000060 cf 2c 2e 3f 95 fa 94 bc c2 16 29 c1 28 08 a6 bf
       0.6803712 -0.018185893 -10.568056 -1.2971239
000070 12 b4 e8 bd 24 0d 59 3f b9 f5 d7 bc a1 3a 23 c0
       -0.11362471 0.84785676 -0.026362287 -2.5504534
000080 88 f5 64 3f df 3c 27 3f b7 6d 93 bd 4e 12 be bd
       0.8943715 0.65327257 -0.07198661 -0.09280835
000090 ba 82 16 c0 b7 b3 12 c0 7b 8b 80 3f 1d 0a a9 3d
       -2.351729 -2.292219 1.0042566 0.08253882
0000a0 a0 2c 39 3f 53 d8 f6 bd f6 b3 c8 bf df 42 94 38
       0.7233372 -0.12052979 -1.567992 7.069646e-05
0000b0 b0 48 4c 3f 14 cf cc bb ce 89 66 bc cf bc 34 bd
       0.7979841 -0.0062502716 -0.014070941 -0.044125374
0000c0 b6 6c 43 3f b5 93 5a 3f
       0.76337755 0.85381633
