model/CardWikiTask10100-1_300.pth (torch, 45093 bytes, 5 tensors)

fc.0.weight f4 [100, 4]
00000000: 913b 303d 67bf adbe 56d5 bfbe 81e1 a3be
00000010: 7a91 8dbe b4a8 503d 9c60 fc3e 5aa0 c03e
00000020: 82bc 783e db48 fb3d ab1d 07be 3df9 66be
00000030: b33a 513e a83c d63c 1f76 04bf 5094 d2be
00000040: ab8a 2c3e 738b c73e d30d c3be 7b8f cfbd
00000050: e54c 213e b64e 4a3e b6bf b6be 4e4d 4bbe
00000060: e1cd 97bd 803b 143e f308 d33c 89b8 90bd
00000070: 8359 a33e d8be 49bc ce6d 4a3e 7465 04be
00000080: e8b8 d13e a141 a3bd 64b0 70be d2c5 b2bd
00000090: f714 ce3d f1ba 18bd f441 a63e 3321 c9be
000000a0: 592d 9f3e eab8 c63e 2dab 35be 3361 d63e
000000b0: b864 d23e 4179 0a3e 6306 ce3d 3fc3 dfbe
000000c0: 06d3 8fbd 0162 a13e c72d 093f 3793 92bd
000000d0: 64d4 44be 3453 a237 3c87 bb3d cad7 41be
000000e0: 2dd7 783d bb6c f03d b01a 08be 75b6 693e
000000f0: c43f 133e 97df 4ebd e187 d4ba 7ad9 c93e
00000100: dc89 8cbe aa2d 8e3e dae8 10bd 76d1 23bd
00000110: ba5a 9fbe fc97 5f3e 4ad5 983e 3f88 b0be
00000120: 63be 963e 639b f5be b62e 6cbc 53ec f3be
00000130: 4f76 a1be abb8 4ebd 5184 c43e ea3e 353e
00000140: ace5 d9be 62b2 113e 4be4 383d 4512 b6bc
00000150: d3cb 9d3e 5b95 b3be 571e cdbe f1b7 35bc
00000160: 59ff 6a3e 4b76 4fbe 0d9c 683e 2670 0cbf
00000170: 06db 5ebe e80e b6be 5316 fa3d 4960 b5be
00000180: 40ae ccbd 06a7 f4be c0a8 d83e 300e 12bd
00000190: 9da7 c93e ca66 0cbe 1562 4c3e 129f 6d3e
000001a0: 545a 88be 14a8 8e3e e6b4 dc3e a822 db3e
000001b0: 7013 e63e 1c80 bbbe a65c 8fbe 340c adbe
000001c0: c516 d2be c1b2 cf3e 9f4a 8b3e 992e a93e
000001d0: fd13 afbe d3a6 363d 5b1d cc3e 2724 cf3d
000001e0: d00b bf3d 1106 4c3e dbad b4be 12b7 a2be
000001f0: 4902 9c3e 750b 003e 5da0 c2be b518 313c
00000200: 74dc fbbe 2f83 763d 8ead 8a3e dcd9 8c3e
00000210: 78bc babd cdf8 cd3e 9385 e53e 0bb6 ac3e
00000220: 1f83 113e 7f6c e2be 76b2 d33e d885 c83e
00000230: 22ca bd3e c060 5b3c 275c 6ebd 2d3d cdbd
00000240: ae58 4dbe ee1a f63e 20bf 44bf 68b7 eebd
00000250: e7f2 4dbe d82d ab3e 7227 dfbe ad1a 80bc
00000260: 78b5 6abe 023b 8c3e 9b54 09bf a1f2 413d
00000270: 406f 69bd 58bb f23d 8cd8 90bf d92a 45bb
00000280: 558d b6be f2b4 c03e 51c9 27be 5178 49bd
00000290: 775b 963e dd02 1ebe c1f0 8ebd 11cb 073e
000002a0: 4e6c a2be 1bad 89bd 10e0 c2be 85a4 b1be
000002b0: a648 253e f27c 0a3e c76d b0be bb8f 623e
000002c0: de9d 473e 1c0b 6abc 0b1c 8dbd fb5f a4be
000002d0: 5d2a aabe e405 5f3e ea8c 32be 828f f1be
000002e0: 71f3 81bb 74e7 c03e 2f28 b0be 9762 2abe
000002f0: fd05 c33d 3bbc bb3e b581 c63e 0a44 a53d
00000300: 841f d63e f2d5 ea3c e498 cc3e ef4d 9abe
00000310: e1bd 773e 6819 79bd 5796 643d 5202 b73e
00000320: cbed a83e ec34 533e d70e ef3e 4f3c 9a3d
00000330: b28d e8be 34e8 9f3e e068 a5bc a0d4 d33c
00000340: 941c 2d3e d135 a3be 747f a5bd f438 cfb9
00000350: dd04 d3be d35a 0b3e 213d 973e df66 993e
00000360: b792 8c3e cb0a 2c3e b5ce 02bf 9249 6e3d
00000370: 6a2e 03bd 3072 4dbe dfd6 e93e 4217 1abe
00000380: 7017 73bd f3ed d43e 0d5e d13d 1c1d ac3e
00000390: fbb2 e0be 18ba 8b3d 6d43 9b3e e7d4 433e
000003a0: 2c93 993e f035 1cbe e13e d13e 3334 793e
000003b0: 2ff1 6f3e a850 0c3e 930c dabc dc7a 1f3d
000003c0: 4382 fcbe 872a f13e 7d4c fdbe f387 e7be
000003d0: 6b83 e83d 0ebd 5b3e 3a8c b93d fa5c e1be
000003e0: 7ba2 2abe 0809 9a3c 9909 dabe 3a31 3cbe
000003f0: 95a5 6cbe 8217 cf3d f3c6 ad3e d617 aa3d
0.043025557 -0.3393509 -0.3746745 -0.32007983 -0.27650052 0.050942138 0.49292457 0.3762234
0.2429066 0.122697555 -0.13194911 -0.22556014 0.20432548 0.02615197 -0.5174274 -0.41128778
0.16849773 0.3897358 -0.38096485 -0.101347886 0.15751989 0.19756588 -0.3569314 -0.19853708
-0.07412315 0.14475822 0.025761103 -0.07066447 0.3190423 -0.012313567 0.1976845 -0.12929326
0.40961385 -0.07971502 -0.23504788 -0.087291375 0.100625925 -0.037287656 0.32472193 -0.39283141
0.31089285 0.38812953 -0.1774108 0.41871032 0.41092467 0.13522817 0.10059812 -0.43703648
-0.070226714 0.31520084 0.53585476 -0.07156985 -0.19221646 1.935065e-05 0.09156653 -0.18929973
0.060752083 0.11739489 -0.1329143 0.22823508 0.14379793 -0.0505062 -0.0016214811 0.39423734
-0.27448928 0.27769214 -0.035378315 -0.03999468 -0.31123906 0.21835321 0.29850227 -0.34478948
0.2944213 -0.47970113 -0.014415434 -0.4764124 -0.31535575 -0.05046908 0.383822 0.17699781
-0.42558038 0.14228204 0.045139592 -0.022225508 0.30819568 -0.35074887 -0.4006221 -0.011091218
0.2294897 -0.20259969 0.22715779 -0.54858625 -0.21763238 -0.35558248 0.12211289 -0.35425022
-0.09994173 -0.4778368 0.42316246 -0.03565806 0.3938569 -0.13711086 0.1995929 0.23205212
-0.26631415 0.27862608 0.43106765 0.42799878 0.44936705 -0.36621177 -0.28000373 -0.33798373
-0.41032997 0.40566066 0.2720537 0.33043364 -0.34194937 0.04459269 0.39866146 0.101143174
0.09328425 0.19924189 -0.3528889 -0.31780297 0.30470493 0.1250437 -0.38012972 0.010809113
-0.4919163 0.0601837 0.27085537 0.27509964 -0.09117979 0.40228882 0.44828472 0.33732638
0.14210175 -0.442234 0.41347092 0.39164615 0.37068278 0.013389766 -0.058193352 -0.10021434
-0.2005336 0.4806742 -0.76854134 -0.11656076 -0.20112191 0.33433414 -0.43584782 -0.01563772
-0.22920787 0.2738877 -0.5364472 0.04735053 -0.056990862 0.11852139 -1.1316085 -0.0030085354
-0.35654703 0.3763805 -0.1638539 -0.04918701 0.29366657 -0.1543078 -0.06979514 0.13261057
-0.31723255 -0.067224704 -0.3806157 -0.3469583 0.16140994 0.13524225 -0.34458753 0.22125141
0.19493815 -0.014284875 -0.068901144 -0.32104477 -0.33235446 0.21779591 -0.17436567 -0.471798
-0.003965788 0.37676585 -0.34405658 -0.16639172 0.095226265 0.36667046 0.38770834 0.08069618
0.4182092 0.02866647 0.39960396 -0.30137584 0.24193527 -0.060815245 0.055807438 0.35743958
0.32993922 0.20625657 0.4669101 0.07531034 -0.45420605 0.31231844 -0.02019161 0.025858223
0.16905433 -0.31876996 -0.080809504 -0.0003952455 -0.41214648 0.13608865 0.29538825 0.29961297
0.27455685 0.16800992 -0.5109666 0.05817563 -0.032026686 -0.2006309 0.45671746 -0.15047935
-0.059348524 0.4158779 0.10223017 0.3361596 -0.4388655 0.06822604 0.3032488 0.19124185
0.29995096 -0.1525495 0.40868285 0.24336319 0.23431848 0.13702643 -0.026617324 0.038935527
-0.49318132 0.47102758 -0.49472418 -0.4522091 0.11353191 0.21458837 0.09059949 -0.44016248
-0.16663544 0.018803135 -0.42585447 -0.18378153 -0.2311004 0.10111906 0.3394085 0.083053276

fc.0.bias f4 [100]
00000000: 3453 d6be 2195 1fbe 1ef6 843e 135c a33e
00000010: cf81 ac3e 8838 5b3e 99db e03c 0f24 6cbe
00000020: 3874 243e c01b 923e c3cf 37bb 4fdb 91bc
00000030: 0805 a8be 6800 46be f3e8 af3e 0884 e23e
00000040: b2ca 75be 8b87 9cbe ad08 ecbe 74a7 22be
00000050: 8149 8e3e baec c4bd 7182 3b3e ba36 ee3d
00000060: b828 13be 5845 c0bd 0a84 cc3e bb98 c7be
00000070: ff42 c43e 6e60 4e3e 6011 e53e 8f26 e1bd
00000080: 4d89 b2be b045 9abe 3e91 efbe ec04 df3d
00000090: fac7 15be 2d59 3a3e d4ec 623e 8077 4a3d
000000a0: b6ab a83e c106 a3be ac6f f7bd 297c 95be
000000b0: d28e 4a3e f953 64bd 2c59 62be c335 03bf
000000c0: e3bf 113e 278e ccbe 0ab6 66be 8c40 cebe
000000d0: 0952 ce3e 84e2 ed3e 9259 16be 14b4 9cbe
000000e0: 980c 4abe f400 9cbe 282c cd3e 8b0f 4fbe
000000f0: 64c9 a4be 8f9b 4dbe 2c99 84be 8906 fabe
00000100: 0bf7 083e 6324 f4be 76e7 83be 851d 093e
00000110: 62d9 f7bd e02e ae3e c74b 84be 4ab2 273e
00000120: ead7 5cbe 748f 02be 76a7 9a3e adaf 25be
00000130: 2cff 033e 53e1 973e fe8b 96be 0f31 4ebe
00000140: f437 de3e b02f 343e 0a07 c53d f5d2 a83e
00000150: f46e 71be b88a db3d 0d28 cb3c 10df 703e
00000160: 8009 96be 912c 15be 902a cb3e 32c0 6abe
00000170: 590c 593e 861e 8c3d dcae a6be c83f e23e
00000180: d380 77be 807a 03be 437f 903d da8b a8be
-0.41860354 -0.15584232 0.25969023 0.31906185 0.33692786 0.21408284 0.027448462 -0.2306063
0.16059959 0.28536797 -0.002804742 -0.01780477 -0.3281634 -0.19336092 0.34357414 0.44241357
-0.24003103 -0.3057216 -0.4610037 -0.15884191 0.27790454 -0.096154645 0.18311478 0.11631532
-0.14371002 -0.09388226 0.39944488 -0.38983712 0.38332364 0.20153973 0.4473982 -0.109936826
-0.34870377 -0.30131292 -0.46790498 0.10889611 -0.14627066 0.1819808 0.22160655 0.04943037
0.32943505 -0.3184109 -0.120818466 -0.2919629 0.19781044 -0.055744145 -0.22104329 -0.5125391
0.14233355 -0.39952204 -0.2253038 -0.4028362 0.40296963 0.4646188 -0.14682606 -0.3060614
-0.19731367 -0.30469477 0.4007275 -0.20220773 -0.321849 -0.20078872 -0.2589811 -0.4883311
0.1337549 -0.4768401 -0.25762528 0.13390167 -0.12102009 0.34020138 -0.25839064 0.16376606
-0.2156674 -0.12750036 0.30205888 -0.16180296 0.12890309 0.29664096 -0.2940368 -0.20135902
0.43402064 0.17596316 0.09620483 0.32973447 -0.23577482 0.10719818 0.024799371 0.23522592
-0.29304123 -0.14567782 0.3968091 -0.22924879 0.21196117 0.068417594 -0.32555282 0.44189286
-0.24170236 -0.12839699 0.07055523 -0.32919198

fc.1.weight f4 [100, 100]
00000000: a63a 2c3d 2072 8dbd 874a a23d c9b7 1f3d
00000010: c1b4 b8bc 9659 f4bd acf8 0f3d 098b 693d
00000020: 7ac2 353d 4cc0 503c b4fe 1a3d 372b c7bd
00000030: 6d75 a13c 8879 1f3d 9447 303d 9f87 29bd
00000040: 882f c23d 8f00 01bd 1b60 80bd 0c58 6ebd
00000050: 8d94 d03b 23ee 403d c8fb 7abd a26b a9bd
00000060: 9a8c 29bd 1167 79bd c116 09be 8c5b 883d
00000070: e5f2 95bc a40e 38bd 1927 d33a 9c98 9fbd
00000080: 237a 50bd 1b41 1cbd 9a81 bdbd 41ef f7bd
00000090: 1961 7a3c e47a e2bd 560c 4e3d 63b5 83bd
000000a0: 6586 3d3d 4ec5 cabd d8be 2fbd 5675 2d3d
000000b0: bf92 c6bd cfe8 6e3d b57f 8a3d 40fe f2bb
000000c0: 9e58 bb3c 2180 d2bb 6652 853d e242 933d
000000d0: 4457 2fbd 4a7b fbbd 27f7 66bd 474e a93d
000000e0: 7e5e 633d e65f 9d3d fc7c 0ebc b724 4a3d
000000f0: b06d bebd 5987 953c f52c 983d ff75 c43c
00000100: d29e b9bd 8db8 31bd f3b2 c7bd c8fa b43d
00000110: 898a 66bb a5f3 05bd c0a6 90bc 3776 e1bd
00000120: f041 9f3b 940e ea3c b3db f9bd 5490 273d
00000130: 0a56 9ebb 642e 63bd 60ce afbd e9ab 73bd
00000140: d734 06be ba45 593d 9eda adbc b1e7 c5bd
00000150: d225 12bc 0f10 a03d 9a2a c9bc f0d3 e33c
00000160: acb2 0b3d c981 72bd f297 74bd 122c 773d
00000170: 6108 e6bd 4f18 dbbc a12d 483d cfe0 acbd
00000180: fd4b f93c 80b8 98bc b96d a13d ecd6 56bc
00000190: 3148 8e3d 4b40 ffbc bb73 bdbd dd01 33bd
000001a0: 7222 9dbd a4c1 8e3d d0fd bebd 76db 823d
000001b0: 5e75 a63d 3359 ae3c f5ba 4dbd 22be 193d
000001c0: ad6b 10bc 69a9 993d 149b 89bc c61b 8cbd
000001d0: 84e2 00bd 461a 9e3b 54e0 383d ad04 0b3d
000001e0: 4764 0dbd 23e2 a6bb 4056 3a3d 80b1 d13c
000001f0: 77ac 25bd 563d c53d d3a8 3cbd b079 ba3c
00000200: ba53 7f3d 52bc ab3c e003 c43d b5ef 073c
00000210: 9a7d 14bb 4fb5 36bc f50c ad3d 33c2 9bbb
00000220: 8fd6 bdbd f56a 3abd 18e6 babd ab7d a3bd
00000230: 4c73 4e3d ac24 c23c a477 b8bc 51ea a1bc
00000240: d73d 5dbd 9325 2c3d 2339 73bd e7b7 aabd
00000250: e7a2 0f3c 075a 333d d77b 14bd 5887 aa3d
00000260: 8f3f 553d 966f 92bd 64f2 9a3d f530 943d
00000270: bb76 a2bd 32be 02bd 1dc2 c33d 3a1d 0d3d
00000280: 80d5 ba3b 82bc b53d 64da fcbc aa31 2a3d
00000290: addf 04bd 3533 c63d 4555 953d 2d3b 5dbc
000002a0: 1a84 783d 5db4 7a3d e285 c83c fe18 aaba
000002b0: 3339 d7bc 8dd3 93bd 1ac8 a13c 9957 813d
000002c0: dffd 93bd dd9c 463c b1ba a0bd b4a8 b5bb
000002d0: 60d7 0fbd 1bf2 4abd 9a21 863d 0d32 2abd
000002e0: a376 90bd c7e6 c2bc d681 79bd d5b2 ccbd
000002f0: 53ef 443d ffe8 ba3c 20f0 203d 4e75 993d
00000300: 8c48 913d 9d2a 99bd 9271 9ebd 8e07 60bd
00000310: ad43 8cbd 1bb4 81bd 9a2f 2f3d bbb8 a8ba
00000320: 80f7 2abd a961 dabc 655a cfbc 3cec 12bc
00000330: f389 e9bd 3657 1bbb 9f5f 61bc 2769 ebbc
00000340: 6a53 1dbd 487e 193d 40a7 1f3c f76b 74bd
00000350: acc8 3c3c f346 393d a893 983c 64d7 adbd
00000360: fb21 973d 9af9 e4ba 8723 803d 3643 983d
00000370: e229 c5bd a7d9 b43c 9042 1abd 93e3 00bd
00000380: adeb c23d 1acb 853d 089c 563d 90c4 b53d
00000390: e4e2 cfb9 dabc 92bd b896 b5bc 4fa9 823d
000003a0: 123e b13b 53d7 363b 4bc2 86bd 9c02 eaba
000003b0: e753 9bbd 1b51 83bd 5b9f abbd 0307 acbd
000003c0: 7a5b efbc dd79 7ebd 0d0e 0fbd 276e 253c
000003d0: 617f babd 271c 3ebc 3024 5cbd c86c 82bd
000003e0: d256 8cba 4c96 c03d 0efa 75bd cadc c0bd
000003f0: a3c9 f9bc 1389 283d c38b 93bb 85a1 c13d
0.04204812 -0.06906533 0.07924371 0.03899363 -0.022547128 -0.1193115 0.03514926 0.05701736
0.04437492 0.01274116 0.03784056 -0.097250395 0.019709313 0.03893426 0.043037012 -0.041389104
0.09481722 -0.031494673 -0.06268331 -0.058189437 0.006365365 0.047102105 -0.061275274 -0.082724825
-0.041393854 -0.060889307 -0.13387586 0.06658086 -0.018304298 -0.044935837 0.0016109674 -0.0779278
-0.05089773 -0.038148027 -0.09253235 -0.12106181 0.015281939 -0.11058596 0.050304733 -0.06431081
0.046270747 -0.09900914 -0.042906612 0.04234823 -0.09695958 0.058327492 0.067626394 -0.007415563
0.022869404 -0.0064239656 0.06509857 0.07190491 -0.042807832 -0.12279375 -0.056388047 0.08266883
0.055510037 0.07684307 -0.008696791 0.04935142 -0.09298265 0.018253015 0.0743045 0.023982046
-0.09063496 -0.043388892 -0.09750929 0.08836895 -0.0035177788 -0.03270306 -0.017657638 -0.11008876
0.0048601553 0.028571405 -0.122001074 0.040909126 -0.004832034 -0.055464163 -0.08584285 -0.05949012
-0.13106094 0.053045012 -0.021222409 -0.09663332 -0.00892015 0.07815563 -0.024556447 0.02781102
0.03410594 -0.059205804 -0.05971522 0.060344763 -0.11232067 -0.02674499 0.04887164 -0.08441316
0.030431742 -0.018642664 0.07882256 -0.013112765 0.06947363 -0.031158587 -0.092505895 -0.04370295
-0.076725855 0.06970528 -0.09325755 0.06389515 0.08127855 0.021282768 -0.050227124 0.03753484
-0.008814734 0.075030155 -0.01679758 -0.06841235 -0.031466022 0.0048249094 0.04513581 0.033940006
-0.03451946 -0.0050928756 0.04549241 0.025597334 -0.04044768 0.096308395 -0.04605944 0.022763103
0.062335707 0.020963822 0.095710516 0.008296897 -0.0022657872 -0.011151626 0.08449737 -0.004753375
-0.092694394 -0.04551216 -0.09125918 -0.07982954 0.050402924 0.023699127 -0.022517987 -0.019765051
-0.054014053 0.04202802 -0.05938066 -0.08335858 0.008766866 0.04378703 -0.036250915 0.08326596
0.052062567 -0.071501896 0.075657636 0.072359 -0.07932802 -0.031919666 0.095585085 0.0344517
0.0057017207 0.08873846 -0.030865856 0.04155127 -0.032439876 0.09677736 0.072916545 -0.013502878
0.060672857 0.061207164 0.024477903 -0.0012977419 -0.026272392 -0.072180845 0.019748736 0.06315536
-0.072261564 0.01212236 -0.078481086 -0.0055437926 -0.035117507 -0.049547296 0.06549378 -0.04155164
-0.07053878 -0.023791684 -0.060914837 -0.09995047 0.0480798 0.02281618 0.0392915 0.07493077
0.07093915 -0.07478831 -0.077365056 -0.054694705 -0.06848846 -0.063331805 0.042770006 -0.0012872437
-0.04173994 -0.026657896 -0.025311658 -0.0089674555 -0.11403265 -0.0023703105 -0.013755708 -0.028736664
-0.038409628 0.037473947 0.009744465 -0.059673276 0.011522453 0.045233678 0.018625095 -0.08488348
0.07379528 -0.0017469407 0.06256776 0.074346945 -0.09627129 0.022076441 -0.037661135 -0.03146703
0.09517608 0.06532879 0.052394897 0.08875382 -0.00039651163 -0.07164927 -0.022166595 0.06379949
0.0054090107 0.002789934 -0.06580027 -0.0017853561 -0.075843625 -0.06411954 -0.08380004 -0.08399775
-0.029218424 -0.062127937 -0.03492551 0.010097063 -0.09106327 -0.011603392 -0.05374545 -0.063684046
-0.0010707027 0.09403667 -0.060052924 -0.09417112 -0.030491656 0.04114635 -0.004502745 0.094546355

fc.1.bias f4 [100]
00000000: 4efc 3d3d 6cb0 47bd 19a5 d43c 1dd1 10be
00000010: ea2c 41bd 7228 163d 24e2 3b3d be0b 1fbd
00000020: ce9a 7c3d ccc7 3a3d 8737 6bbd 0413 73bd
00000030: 78f0 883d 605e 853d bab4 093d 27b9 bebd
00000040: 0631 8b3c 4aaf 833d 4b84 afbd be1a d03c
00000050: 29a1 583d f0dc 1bbc 396c 5c3d 292d 8dbd
00000060: 7051 783d b55c 85ba dba9 63bc bb12 373d
00000070: ad78 f73c 85a5 183d 4493 e8bc 8f14 cb3c
00000080: 422b 8bbd 1b0f 903c d057 583d 7db5 cdbc
00000090: 276b 07be 8963 fbbc 8966 bdbd 49ce d13c
000000a0: 168d 22bd 5004 0e3d 0bb4 bebd fe94 c13b
000000b0: 621b 75bd 3d64 2cbc 030b 6a3d 532f 94bd
000000c0: b009 e8bc a9e1 cabd 03e5 3bbc 9cce 093d
000000d0: 874a 75bd cacc a03d 1a6d a7bb 0aaa e53c
000000e0: f6ed 87bc fd39 34bd 17d3 7dbd 55d9 03bd
000000f0: d138 873c a9ff 92bb ced5 bdbd 1502 3bbc
00000100: 9e00 843c 678c c13a d923 a5bd fc76 e0bd
00000110: 4a3b 4b3d bd1c 3bbd ae3e e2bc 7b72 adbc
00000120: 598f 393d a962 a2bc 67a4 673d 4dbd 943d
00000130: 5a3e 993d a267 9d3a 800e 9abd 5fef b5bd
00000140: a11f a2bc dfa8 91bd d380 b2bd de2c 9bbc
00000150: 4d63 8ebc ab4f 82bd fa47 65bd 0f95 86bd
00000160: 27e9 aa3c 087d ebbc e793 8ebc 65f5 803d
00000170: 4520 c1bb d6c3 f83b 3bed 663b 2f0d a3bd
00000180: 4d2e 1ebc 07d6 773b c93b 183d 90e9 c1bc
0.046383195 -0.048752233 0.025957631 -0.1414227 -0.047161974 0.036659665 0.04586996 -0.038829558
0.06167107 0.045600697 -0.057426002 -0.059344307 0.06686491 0.06512141 0.03361962 -0.09312659
0.01699115 0.06429918 -0.08570155 0.025403377 0.05288807 -0.009513125 0.053814147 -0.06893379
0.06062454 -0.0010174724 -0.013895477 0.044695597 0.03020891 0.037267227 -0.028390534 0.024790077
-0.0679536 0.017585328 0.05281812 -0.025110954 -0.13224469 -0.03068711 -0.09248073 0.02561106
-0.03968533 0.03467208 -0.09311684 0.005907654 -0.059840567 -0.010521946 0.057139408 -0.07235589
-0.028324932 -0.099063225 -0.011468175 0.033644304 -0.059885528 0.078515604 -0.0051094415 0.028035183
-0.01659296 -0.044000614 -0.06196889 -0.032189686 0.016506584 -0.0044860435 -0.09269296 -0.011414071
0.016113576 0.0014766575 -0.08063478 -0.109601945 0.04961709 -0.045681704 -0.027617779 -0.021172753
0.045302723 -0.019822435 0.05655327 0.07262669 0.07482596 0.0012009034 -0.07522297 -0.08883547
-0.019790472 -0.07112288 -0.087159775 -0.018942293 -0.017381335 -0.06362852 -0.055976845 -0.065713994
0.020863129 -0.028746143 -0.01740451 0.06296805 -0.0058937394 0.007591705 0.0035236615 -0.07961499
-0.009654594 0.003781678 0.03716639 -0.023670942

fc.2.weight f4 [1, 100]
00000000: 5b4a bbbd 86bd c8bd e314 2a3c 85f4 323d
00000010: b127 93bd 1f56 333d b9bd 7b3a 2656 803d
00000020: 9821 85bc c377 b2bd 0220 843c b5fa 96bd
00000030: ef5b 873c e973 ab3c dff5 2bbd d9ec 98bc
00000040: 6663 c83c 3be8 b33d 9a3d 89bb af81 95bc
00000050: dcc5 633d 2555 62bd e4e1 99bd ed88 543c
00000060: 4f96 b4bb abc1 a43d dab5 473c 9982 22bc
00000070: 3b16 8fbc d56a a3bc 2631 143d 88b6 c13b
00000080: 00a3 50bc 9d02 2a3d ad80 f6bb a2ee 21bd
00000090: bee0 f5bc def5 94bc 1242 53bd 281e 653d
000000a0: ddd2 2a3d 7277 72bd 6d4c dbbb b57e 18bd
000000b0: 45d5 3bbd 49ab a5bd 585e 9cb8 1717 e2bc
000000c0: 6543 e33c 2fd1 15bd 7183 c1bc 8993 c7bc
000000d0: ab70 a3bd 0c52 8cbd b1a1 c63c 2f5a a9bd
000000e0: 09c4 9d3c 68fd c33d e7ec 51bd 7ee0 11bb
000000f0: dd02 36bb 6e1e 93bd 6406 94bd 2015 aabd
00000100: efde dcbc b3c3 c0bd 8f87 e63c 4c6b b73c
00000110: 0561 a93c 2053 65bc bdad 6bbd 67fb 283b
00000120: 64ed 0039 7d16 06ba f758 8e3d f44c edbb
00000130: a7a2 403d 5e39 abbc 4f4a a13d 1a4a 62bc
00000140: bab9 4f3d 83a9 3abd 67c1 4f3c dbe3 3dbd
00000150: ec13 b5bc 6c11 8f3d df9b d2bb fc00 bebd
00000160: 8a3a b23d d3d5 b93d 20e2 efbc f08b 8ebc
00000170: c434 553d 2bfb 593d 1fce 4d3d db7e c63d
00000180: bd9e d9bc c573 0a3d f897 afbd 96f2 c2bc
-0.091450416 -0.09801774 0.010380956 0.043690223 -0.07185305 0.043783303 0.0009603161 0.062664315
-0.01625137 -0.08714249 0.016128544 -0.07372037 0.01652333 0.020929294 -0.041982528 -0.018667625
0.02446146 0.08784529 -0.0041882517 -0.018250315 0.055608615 -0.05525698 -0.07513788 0.012972099
-0.0055110822 0.08044752 0.012189353 -0.009918832 -0.017466655 -0.019948402 0.036179684 0.005911652
-0.012734175 0.0415064 -0.0075226636 -0.03953422 -0.030014392 -0.018183645 -0.05157668 0.055936962
0.041705 -0.059195943 -0.0066924603 -0.037230212 -0.045857687 -0.08089311 -7.4562326e-05 -0.0275989
0.027742097 -0.036576446 -0.023622246 -0.024362342 -0.07980474 -0.06851587 0.024247022 -0.08269154
0.019258516 0.09569818 -0.05125132 -0.0022259052 -0.0027772703 -0.071835384 -0.072277814 -0.083048105
-0.026961772 -0.09412327 0.028140811 0.02239003 0.020676145 -0.013996869 -0.057538737 0.0025784613
0.00012295466 -0.00051150454 0.069505624 -0.0072418395 0.047030117 -0.020901378 0.07875501 -0.0138116125
0.050714232 -0.045571815 0.012680388 -0.046359878 -0.022104226 0.06985745 -0.0064272727 -0.092775315
0.08702572 0.09073987 -0.02928263 -0.017400712 0.052052274 0.053218048 0.0502454 0.096921645
-0.02656495 0.033801813 -0.085739076 -0.023797315
