model/CardWikiTask11110-1_502.pth (torch, 8959 bytes, 3 tensors)

fc.0.weight f4 [300, 4]
00000000: 531d 69bc 3b45 853e d507 ddbe fea9 c4be
00000010: 7ada 42be 841a 053e d590 33bb 19ac c83e
00000020: 52b1 48bd 634f 093e 6960 24be d1ac c4bd
00000030: b891 f4be 528b a9be e80e 53be 00bb 973c
00000040: 8425 8f3e e0c2 813e 83c2 a7be 13a5 1cbe
00000050: fa2e 393e 7731 d13e 3af3 cbbd 17b6 bb3e
00000060: 5abd 90bd 3b1b 1f3d 9787 e13e 8fa2 f3be
00000070: 283f a3be 2f29 febd fce6 50be 0894 de3e
00000080: 1aef a5be c0b0 6bbe 1ada b2be 76c2 efbe
00000090: 773e 8cbe 80ff e03e ea6a 583e 9d35 7f3e
000000a0: 406a d73c 3a3f 83be c03e ad3d 9e06 efbe
000000b0: 7098 cfbe c7c6 80be 39e1 a83e d6a7 943e
000000c0: eff5 60be 254b b7bc 6e3c a73e 4d0f fc3e
000000d0: a49f 213e 8704 6e3d 4eec b23e cf46 88be
000000e0: f8d0 be3d 6c7a c6be 186e b1be d23e 84be
000000f0: df65 7d3e d395 473e 4fa0 fdbd 250a 0c3e
00000100: 3e44 8c3e fdd9 8ebd 7d8d c53c 3768 df3d
00000110: 64c3 963e 1c8b f03e 3d5c cfbe 490f 46be
00000120: d674 3d3e c0dd cb3e 8ec4 d93e 9bc5 d93e
00000130: 1230 973d ec88 e8be cfd4 c43c 1c0e 97be
00000140: 0f9f f2be c33a e33e b9b2 be3e 8022 ffbe
00000150: a585 8f3d 4ebe d2bd 40eb cabd 9fd2 7abe
00000160: 42cd 343e 1b09 9fbe 86c7 223e a3ae 773e
00000170: 7d7e b43e b702 283e 374a e7be 233b c0be
00000180: 1c1f 493e 098d 083e 16bf 3cbf 4100 0ebe
00000190: 1fe9 ee3e b0e1 ad3e b706 68be c547 fbbd
000001a0: 78dd f3be 803e 13bc 78c8 c0be a277 c5be
000001b0: b7c8 e4bc 10fa 8c3d 894c 4dbe f45d 943e
000001c0: e89a 9ebe fd37 e23e ad37 b03e 5149 debe
000001d0: 88db febd 80d2 b83c 1867 953d d0dd f23d
000001e0: 7712 453e 7ee2 053d 7455 81be 5074 753e
000001f0: 4342 e1be b2ef 90be b2d3 f6bd f508 82be
00000200: 5c1d 33be bad2 d1be 00d2 d9bd f8e2 da3d
00000210: 6ef9 0abb f2b2 b03b d2f4 163f 3265 8e3b
00000220: 6529 233c a893 57bd 56f7 d03d 1fbe 9d3e
00000230: 64d7 f03e 535f 9b3e 10e8 f13e e3fe 55bd
00000240: 12be e5be 38d4 6bbe d90e a93e 7bda 223b
00000250: e201 80be 23f9 c5be 20a5 f0be 269a dabe
00000260: 1068 d4bd 8fff 8d3e 1cf2 853e 11b6 f3be
00000270: 2eb0 9f3e 8a52 c8be f07b d8bd 1c9a 4fbe
00000280: f03c c5bd 100e c9bd bab8 e5be 440a ddbe
00000290: 85f4 9bbd 9d84 173b f184 61be 2411 3c3e
000002a0: b63f fdbe 0cc4 59bd f0ce d53e 097e 6abe
000002b0: f5f2 d63e 2cc5 4b3e 83de 18bf c101 a73e
000002c0: f053 6cbd 708f 64be 14b6 cc3e 54df cebe
000002d0: b0c2 5b3d c064 d6bd 16d0 b63e 08ec 0e3e
000002e0: 2416 af3e e542 3f3e 6ef0 19be 39c7 9bbd
000002f0: bdeb d6be 7eb3 893e 022b cc3e ce61 ad3e
00000300: 0925 c1be 84ec 6dba 8b5f b3be 7882 9bbe
00000310: 1cc1 90bd 982b 453e 5e1c 6bbf 5fa4 ad3c
00000320: 9a68 c33c a225 a33e 3c81 bdbe 6644 b1be
00000330: 0e50 97be 8add b33e 84a5 42be 8abd d83e
00000340: ef6a 353e 8b59 873d 6520 47bc 6dc8 c3bd
00000350: 407a 803d 30d3 e9bd 003e 66bb c0a7 823d
00000360: fe57 e5be b1af 86be 746d c53e 1142 cebe
00000370: a9f2 27bd e8dd fd3e 6ca0 2e3e e21c 823c
00000380: 2663 d9be 3747 7c3e 8ef8 b0be 1788 12be
00000390: ccc8 2bbe 38a4 97bd 8036 b33b 9626 d33e
000003a0: 389d 843d 9c27 e33e 8859 a03e 941d a4be
000003b0: ddb7 673e 8f18 b7be fca1 51be 59ab 113e
000003c0: 967d 4a3d 8e03 ed3e acf2 61bf 9bac 313d
000003d0: 8cb0 633e 5d60 05bf 6fd5 a53e 9208 e6be
000003e0: 86a9 093c 3cc6 b7bd ad76 83be d589 793d
000003f0: f2b0 d33e e8aa 15be 56fc 97be 845b 3dbe
-0.014228183 0.2602938 -0.43170038 -0.38410944 -0.19028655 0.12998396 -0.002739956 0.391938
-0.04899723 0.1340919 -0.16052403 -0.096032746 -0.47767425 -0.33114105 -0.20611155 0.018521786
0.2795831 0.2534399 -0.32765588 -0.15297346 0.18084326 0.4085805 -0.09958501 0.3666236
-0.07067366 0.03884433 0.4404876 -0.4758496 -0.31884122 -0.12410199 -0.20400614 0.43472314
-0.32408983 -0.23016644 -0.34932023 -0.4682805 -0.27391407 0.4394493 0.21134534 0.24922796
0.026295781 -0.25634176 0.08459234 -0.46684736 -0.40545988 -0.25151655 0.3298433 0.290343
-0.21968816 -0.022374699 0.32663292 0.49230424 0.15783554 0.058109786 0.3494591 -0.26616523
0.093172014 -0.38765275 -0.34654307 -0.25829178 0.24745892 0.19490747 -0.12384092 0.13675745
0.27395815 -0.06975172 0.024115318 0.10908549 0.29445946 0.46981132 -0.4050006 -0.19341768
0.185016 0.3981762 0.42532772 0.42533574 0.073822156 -0.45416963 0.024027256 -0.29502952
-0.47386977 0.4438077 0.3724573 -0.4983101 0.070079125 -0.10290204 -0.099081516 -0.24494408
0.17656425 -0.31061634 0.15896425 0.24187712 0.35252753 0.16407286 -0.4517381 -0.37545118
0.19640774 0.1333505 -0.73729074 -0.13867284 0.46662232 0.33961248 -0.22658812 -0.12269548
-0.47629905 -0.008987069 -0.37652946 -0.38567835 -0.02792774 0.06883633 -0.20048727 0.2897793
-0.3097756 0.4418334 0.34417477 -0.4341531 -0.12444216 0.022561312 0.07295054 0.118587136
0.19245325 0.032686703 -0.25260508 0.23970151 -0.43995866 -0.28307873 -0.120520964 -0.2539746
-0.17491668 -0.40981084 -0.106357574 0.10687822 -0.00212058 0.0053924257 0.58967316 0.0043455595
0.0099586 -0.05263105 0.102034256 0.30809113 0.4703933 0.30346164 0.47247362 -0.052245032
-0.44871575 -0.23030174 0.3301914 0.0024849463 -0.25001436 -0.3866664 -0.4700098 -0.4269573
-0.10371411 0.27734038 0.26161277 -0.47599843 0.31189102 -0.39125472 -0.10570514 -0.20273632
-0.096307635 -0.09817135 -0.44867498 -0.43171895 -0.07614998 0.0023119815 -0.2202337 0.18365914
-0.4946267 -0.05316548 0.41759443 -0.22899641 0.41982237 0.19899434 -0.59714526 0.32618526
-0.057697237 -0.22320342 0.39982665 -0.4040476 0.053652465 -0.10468435 0.35705632 0.13957226
0.3419658 0.18677862 -0.15033123 -0.07606358 -0.4197673 0.26894754 0.39876562 0.33863682
-0.37723568 -0.0009076076 -0.3503383 -0.30372977 -0.07068083 0.19254911 -0.9184016 0.021196542
0.023853589 0.3186465 -0.3701266 -0.34622496 -0.29553264 0.35129958 -0.19008452 0.42332107
0.17716573 0.06608876 -0.01215372 -0.095597126 0.06273317 -0.11417234 -0.003513217 0.06379652
-0.44793695 -0.26305917 0.3856007 -0.4028478 -0.041002903 0.49583364 0.17053384 0.015882913
-0.42458457 0.24636541 -0.34564632 -0.14309727 -0.16775817 -0.07404369 0.0054691434 0.41240376
0.064752996 0.44366157 0.31318307 -0.32053816 0.22628732 -0.35760924 -0.20471948 0.1422552
0.049436174 0.46291775 -0.8826091 0.0433775 0.22235316 -0.52100164 0.323894 -0.44928414
0.008402234 -0.08973357 -0.2567648 0.060922462 0.41345936 -0.14615977 -0.29684705 -0.18491942

fc.0.bias f4 [300]
00000000: 1b8f 4f3e 89cc e53e fe42 ed3e 06fa e8be
00000010: 23a7 b9be 4cf3 57be 2a5d aabe dd25 f53e
00000020: 80e0 34bd a112 a8be a8d5 63be 1279 86be
00000030: 57b7 4f3e eae0 e3be f8b1 eebe 48ed 00bf
00000040: 75da 583e e478 6f3e a058 a6be 2717 ee3d
00000050: 2ac2 bb3e a9d3 693d 346a efbd a367 a53c
00000060: 1984 f5bc 399a 803e b0d3 adbe 7f11 803e
00000070: d4c0 8b3e 9a1a 9bbe 40bd d03e 595e fe3e
00000080: 58d8 49be c69e 50bd db21 783e 3bc7 cdbe
00000090: 81db 503e 971a e33d 0bc8 a13e 045d debe
000000a0: 50ae d4be 6be1 643e be1c 1e3e c7d9 ebbe
000000b0: c6c2 8ebe 083c eabe 114d a7be f2b7 66be
000000c0: a9b5 ca3e 8277 a0bd 01ad 923e b806 f23e
000000d0: 1cd8 683e 822c e5be f2cd 823e 1f2f 413e
000000e0: 5d16 c73e f486 fcbe fdff 9c3e 4616 d13e
000000f0: 5ae6 c3be ca7c 8b3c 24b7 d93e de30 babe
00000100: b414 323e da05 613e e10d ff3d 4c1f fe3e
00000110: f21f cd3e c303 db3e 99a4 99bd bd18 d63e
00000120: d491 eebe 2625 8abe 65ad 7cbd b910 25be
00000130: 00de eb3e e792 773e 9073 a23e b77f ad3e
00000140: a03b bfbe cd32 78bd 3a75 a03d 4df7 033e
00000150: 0bf0 823e fc60 63be 7b3b 1cbe 2989 d53e
00000160: 14c9 07be 04d4 b1be 9141 af3e 93b2 ac3e
00000170: ea90 2bbe d8b7 ccbd bd10 bdbe 1ce9 e0be
00000180: f9a8 3f3e 7acc 19be 7829 cc3e 825f d0be
00000190: f2e8 9abd 344f 743b 4b9d 843e 3822 cd3e
000001a0: dab8 a93e 03b3 513e 3c01 6bbe 62d2 b6be
000001b0: 5805 e5be 402e cb3c ef4e f33e 0746 b7bd
000001c0: f765 13bd 9d71 bbbe dad1 1a3e 88f9 983e
000001d0: fc64 fcbe a6f4 93be b72e ba3e 513d f33d
000001e0: 57ef 44bd 016c b53d e0b0 9bbd 5eef b2be
000001f0: f5c2 ecbe 5be6 a73e be9b 88bd 99e9 38be
00000200: 84f5 10be 7051 90be 58a5 17be 0cc1 dbbe
00000210: 0d3b bf3e 327a 6b3e 361b 81be 9cc0 2ebe
00000220: 1eba 643e 3308 48be 4263 0a3e df60 f53d
00000230: 7826 a1be 66dd fe3d 8b27 f33c 9f74 df3e
00000240: 62a7 3cbe 7c9e 03be f2dc db3e 79a9 d6be
00000250: 8f5b 0c3d cf1e f63e c27e 42be f5e5 f13e
00000260: 8cf5 e13e dfa8 ed3e 256a 47bd e040 e73e
00000270: 9c16 5fbe ac4e 3cbe e49c 403e 3cc6 ac3d
00000280: b4ba 8c3e 57b9 f23e d240 a0be 4bf4 893e
00000290: a709 293e 7dd9 823e 49a2 713e c2ff 57be
000002a0: 661c c4be 9388 cb3e f6fa 91be 09ec a23e
000002b0: 72e0 f3be 2e8e f6bd 2667 8dbc bc5f 113d
000002c0: 6f77 513d 4454 1f3e a008 64bd 01f6 f73d
000002d0: 0cda fa3e 8a66 a9be be9f e0bc d549 54be
000002e0: 76fd e73e fd0a da3e 3b97 7bbc d479 31be
000002f0: d2b6 9bbe 8e99 b63e 2f07 00bd ed2b e53e
00000300: e496 8e3e 9481 df3e 4856 c93e 8293 a9be
00000310: 7f28 193e 81a4 40be 0019 803e a022 38bd
00000320: ffde 053d fc6f b2be 34cb e4be 1c93 373e
00000330: 20f8 e93d bad1 103d 964e ad3e 403e 4bbe
00000340: 2a42 233e b6fe 8cbe 82ca d23d 4ce4 e0bd
00000350: ad5c b23e ac7e dd3e 2332 da3e 35d0 a13c
00000360: 10ea 973e 88c7 ffbe 0a2b 96be bf35 b53d
00000370: 5520 92ba 4e1a bdbe 2f6c 67be f575 70be
00000380: 96a2 fdbe 3ae1 383d 4f0e ae3e c38c 563e
00000390: 18c0 74be 6e13 ebbe f088 cebe 80f4 173c
000003a0: 693d b03e 9aff 4abe 164d 8bbe 9a90 88be
000003b0: f04a 31bd 921c f3be e2e7 e1be 4780 fb3e
000003c0: 24d1 60be f42e 43bd 59de 26be 06db e5be
000003d0: 876d bcbd d08e 473e c8e6 4fbe bb6a babc
000003e0: 8e6a 93bc 68d9 febe 2810 c23e 349d cf3e
000003f0: 1a34 ae3e 57d4 c7bd 30aa 703e 26da efbe
0.20269434 0.4488261 0.46340173 -0.45503253 -0.36260328 -0.21088904 -0.33274204 0.4788045
-0.044159412 -0.32826713 -0.22249472 -0.26264244 0.20284782 -0.44507533 -0.46620154 -0.5036206
0.21177085 0.2338596 -0.3248949 0.1162551 0.36671573 0.05708662 -0.116901785 0.02019102
-0.029970216 0.25117663 -0.33950567 0.25013348 0.27295554 -0.30293733 0.40769386 0.49681357
-0.19711435 -0.05093267 0.24231665 -0.40191063 0.20396234 0.11089056 0.31597933 -0.4343034
-0.4153924 0.22351615 0.15440652 -0.46064588 -0.27882975 -0.45748925 -0.32675985 -0.22531107
0.3959172 -0.07835294 0.28647617 0.4727075 0.22738689 -0.4476052 0.2554775 0.18865632
0.3888425 -0.4932171 0.30664054 0.40837306 -0.38261682 0.017027277 0.42522538 -0.36365408
0.1739071 0.21974888 0.12453819 0.49633253 0.40063435 0.42776307 -0.07502098 0.4181575
-0.46595633 -0.26981467 -0.0616888 -0.1611966 0.4606781 0.24177133 0.31728792 0.338865
-0.37350178 -0.060595322 0.07834859 0.12887307 0.25573763 -0.22204965 -0.15257065 0.41706207
-0.13260299 -0.34732068 0.3422971 0.3372999 -0.16754499 -0.09996003 -0.36926833 -0.43927848
0.18716802 -0.15019408 0.39875388 -0.40697867 -0.07563962 0.0037278654 0.25901255 0.4006517
0.33148843 0.20478444 -0.2294969 -0.35707384 -0.4473064 0.024802327 0.4752116 -0.089489035
-0.035985913 -0.36610118 0.15119115 0.29877877 -0.49295795 -0.2889759 0.36363766 0.118769296
-0.048079815 0.08858491 -0.076020956 -0.34948248 -0.4624249 0.32792935 -0.066703305 -0.1805786
-0.14156157 -0.28187132 -0.14809167 -0.4292072 0.3734974 0.22995833 -0.25216073 -0.17065662
0.22336623 -0.19534378 0.13514426 0.11981367 -0.31474662 0.12444572 0.029681941 0.43643662
-0.18423226 -0.12853426 0.42942005 -0.41926172 0.034267005 0.4807038 -0.18993667 0.47245756
0.4413265 0.464179 -0.04868521 0.45166683 -0.21785969 -0.18389386 0.18809849 0.08436248
0.27486193 0.47407028 -0.31299454 0.26944193 0.16507588 0.25556555 0.23597063 -0.21093658
-0.38302916 0.39752635 -0.2851178 0.31820706 -0.47632176 -0.120388374 -0.0172611 0.03549169
0.05113929 0.15559489 -0.055672288 0.121074684 0.48994482 -0.33086044 -0.027419921 -0.2073129
0.45310563 0.42586508 -0.01535588 -0.1733163 -0.30412918 0.35664028 -0.03125685 0.44760075
0.27849495 0.43653548 0.3932364 -0.33120352 0.14956854 -0.18812753 0.25019073 -0.044954896
0.03268337 -0.34851062 -0.44686282 0.17927212 0.11424279 0.03535626 0.3384902 -0.19847965
0.15943208 -0.2753808 0.102925315 -0.10981044 0.3483633 0.43260705 0.42616376 0.019752601
0.29670763 -0.49956918 -0.2932971 0.08848142 -0.0011148552 -0.3693413 -0.22599863 -0.23482497
-0.49538106 0.045136668 0.33995292 0.20952134 -0.23901403 -0.4591326 -0.4033885 0.009274602
0.34421852 -0.19824067 -0.2720725 -0.26672822 -0.043284357 -0.47482735 -0.44122225 0.49121305
-0.21954781 -0.0476522 -0.16295756 -0.44893664 -0.09200578 0.19488072 -0.2030288 -0.022755971
-0.017995145 -0.49775243 0.3790295 0.40549624 0.34024125 -0.097572975 0.23502421 -0.46846122

fc.1.weight f4 [1, 300]
00000000: b917 633d 24cd 2fbd 50e3 ac3c b726 b2bc
00000010: 0d8e 11be 8224 cdbb b2d2 10bc 853b 0e3d
00000020: dab9 33bc f723 453d 6fd8 573c 3654 fbbb
00000030: 8ccc 04bd 6dda 03bd 7bf9 89bc d120 74be
00000040: 2ed6 36bc 215b 823b 5f95 1ebb d2d1 86bc
00000050: e780 1e3d f724 9a3c 8e6b c1bb 76e7 1cbc
00000060: 34ec da3d 8b95 523d 5c88 58bd 0348 0dbc
00000070: 8ed2 bfbb 043e abbc bb11 513d e9ff 2fbb
00000080: 6180 483d 7eff 303e 3654 b0bb 5800 08bd
00000090: fc80 cabb 48be 5e3c 64e2 b73c 1ea0 06bb
000000a0: b054 613d a687 0dbd 7631 d43c d120 db3d
000000b0: 0d7b 24bc e8be 3b3d f62f 4bbe 2924 33bd
000000c0: 88d5 a2bc d751 dd3e bc32 a3bc a41c 8b3c
000000d0: f497 643d 36a8 a03c 3b9e a63c ee5a 803c
000000e0: 01a5 ccbc 8eb4 46bd c98b 33bd 89b3 48bd
000000f0: cb33 b53e ab41 0abd 65b0 b4bc cf50 67bd
00000100: 8608 943c a079 fcbc d430 19bc f59c 44bd
00000110: a6e9 0cbd cd4e b23c 8808 8dbd c319 fabc
00000120: 574c 313d 478f f2bc a35d e6bd 81b4 8abb
00000130: 636f b53c 36c4 02bd 58fa 983b 5e46 bb3c
00000140: 1756 89bb 99f5 2b3c 77f5 4cbe 0753 ed3c
00000150: cfbf b33c 8aaa 9abb b58c 30bd d49a d83c
00000160: a668 2e3d 6573 25bc 6f24 a63c 6dda a13c
00000170: 9fbe ae3c 6a55 83bb c537 6d3d 6b33 153b
00000180: 41e5 36bd e4ba abbd c1c1 143d c260 a7bc
00000190: e7af cabc b4da 233d da81 123d 4973 10bc
000001a0: 29b0 8c3b cb06 03bc cf9c 5b3c bd78 063b
000001b0: 9b1a 0fbd b041 2f3c d10c 11bb 48fa 993c
000001c0: bd60 0fbd d574 ed3c eda5 19bd ad54 17bc
000001d0: fd25 003d 8170 d9bc b241 60bd 9510 373c
000001e0: d201 5ebc 0f91 46bd 5743 27bd 62bb 5a3d
000001f0: 8513 033d 5da0 0a3d 7023 a03c aade 123d
00000200: 0162 a13c d6c4 fa3c 05fa 5cbc 4e7f f0bb
00000210: 43b5 213d dfd3 e6bc 47e0 19bd 4f5e 37bd
00000220: ffd1 143d 764b 903e ed7b da3c df7c 3c3c
00000230: 483d 233d b590 3fbd eee5 2bbd 0ec2 5ebd
00000240: fa27 1b3d 04f3 08ba 2118 e2bc 7664 2aba
00000250: e8c9 91bc 7443 12bd 8469 b83d d561 5e3b
00000260: 0b72 38bd 4b70 1ebd fd32 ba3c a1a6 343d
00000270: ca02 9a3b 4070 d3bc abe1 ca3c 740b e03a
00000280: 6668 4bbd 2c19 09bd d50a 4f3c 1268 343c
00000290: 7be2 6ebc 7937 c33c 7fe3 06bd 5893 a33e
000002a0: fb76 e03c 21e1 ff3b 336b d23c f9c3 a33c
000002b0: 3a8c 0bbd 6267 94bb dfee a4bc 57cc eb3c
000002c0: 1d33 663d e940 8cbc 0b32 53bd 78d7 dbbc
000002d0: 2bfd 83bd f7a4 123d 2790 fabc 545a 6dbc
000002e0: c82e 58bc cd0c 28bd 2d33 01bd 5c1f f13c
000002f0: 3577 22bd 3fc5 f83c 1f70 4d3d 1ea7 ea38
00000300: 84b4 883c 4881 0abd ee53 0a3d 2468 3c3d
00000310: 92ba 863d b07d 863d a578 6abd 59ba cfbb
00000320: 4799 41bc 997d 1fbd f228 e63c 26c5 ebbc
00000330: d397 89bc 61f4 6cbd 87ca a23c cfa4 95bd
00000340: c1bc 8b3c 261b d23c 7e0e 3d3d 1999 163c
00000350: 1c14 a3bc c09b dcbc 8a94 bd3c fba7 3f3c
00000360: 98f4 243d b31c b23c 9881 3e3d e5f6 2fbd
00000370: 7af9 243d 274d d3bc da1e c4bb d816 523c
00000380: 6164 31bc 2149 3e3c 4795 533d df00 17bd
00000390: fe07 a63c e80f 3ebd 9686 143c 2fd1 423d
000003a0: b9e5 0b3d ff3c 453d 8903 003d e685 9cbb
000003b0: b2fa 763c 7aa1 c5bc 5dbb 483d 042d d23c
000003c0: 8859 d6bc dfc0 073d 475d 8c3a 2a6d ea3c
000003d0: d790 f1bb 3b4a 33bd 7360 3d3b 1e00 c1bc
000003e0: a073 21bd 94a0 f3bc d4cd 46bc 15f0 403d
000003f0: 36bb 283d 7933 67bd c3cd f3b9 6c81 88bc
0.055442546 -0.042920247 0.021104485 -0.021746976 -0.14214344 -0.0062604556 -0.008839296 0.03472473
-0.010969603 0.048130002 0.01317416 -0.007669951 -0.032421634 -0.03219073 -0.016842594 -0.23840643
-0.011159463 0.0039781486 -0.0024197919 -0.016457472 0.03869715 0.018816454 -0.005902714 -0.009576669
0.106895834 0.051412147 -0.052864417 -0.008623126 -0.0058539575 -0.020903595 0.0510423 -0.0026855415
0.048950557 0.17284963 -0.0053811325 -0.033203453 -0.006179927 0.013595171 0.022446819 -0.0020542215
0.055012405 -0.034553193 0.025902491 0.106996186 -0.010039103 0.04583636 -0.19842514 -0.043735657
-0.01987721 0.432265 -0.019921653 0.01698143 0.055808976 0.01961146 0.020339122 0.015668359
-0.024981024 -0.048512034 -0.04383448 -0.048999343 0.35391077 -0.033754032 -0.022056768 -0.05647355
0.01807047 -0.030819714 -0.00935002 -0.04800125 -0.034402512 0.02176609 -0.06886393 -0.030529862
0.043285694 -0.029609336 -0.112483285 -0.0042329435 0.02214784 -0.031925403 0.004668515 0.022860702
-0.004191171 0.010495567 -0.20015512 0.028970255 0.021942047 -0.004720037 -0.04310294 0.026441015
0.04258027 -0.010098313 0.020281045 0.019757474 0.02133113 -0.004007985 0.057914514 0.0022766243
-0.044652227 -0.08385256 0.03631759 -0.02043188 -0.02474208 0.040003493 0.035768367 -0.008816549
0.004293461 -0.007997225 0.013404085 0.0020518743 -0.034937482 0.010696813 -0.0022132883 0.018796101
-0.035004366 0.028986374 -0.037511755 -0.009236497 0.03128623 -0.026542904 -0.054750152 0.011173387
-0.013550239 -0.048478182 -0.040835705 0.05340136 0.032001037 0.03384434 0.019548148 0.03585688
0.019700052 0.030611437 -0.013487344 -0.0073393947 0.039479505 -0.0281772 -0.037567403 -0.044767674
0.03633308 0.28182572 0.02667042 0.011504381 0.039853364 -0.046768863 -0.041967325 -0.054384284
0.03787992 -0.00052242004 -0.027599396 -0.0006499955 -0.017796472 -0.03570886 0.090045005 0.0033932824
-0.045030635 -0.03868131 0.022729391 0.044104222 0.0047000395 -0.02581036 0.02476581 0.0017093257
-0.04966011 -0.03347127 0.01263686 0.01101114 -0.014580364 0.023830162 -0.0329318 0.31948352
0.027400484 0.00780882 0.025685882 0.019990908 -0.034069277 -0.0045289258 -0.020133434 0.02878396
0.05620109 -0.017120795 -0.051561397 -0.026836142 -0.06444772 0.035801854 -0.030586315 -0.014486868
-0.013194747 -0.041027833 -0.031542946 0.029433899 -0.039664466 0.030367492 0.050155755 0.000111891175
0.016687639 -0.0338147 0.033771448 0.045997754 0.06578554 0.06566942 -0.05724396 -0.006339353
-0.011816329 -0.03893814 0.028095696 -0.028780531 -0.016796028 -0.057850245 0.019871963 -0.07306825
0.017057778 0.025647711 0.0461564 0.009191775 -0.01990705 -0.026929736 0.023142118 0.0116977645
0.040272325 0.0217422 0.04651031 -0.042960066 0.040276982 -0.025793625 -0.005985123 0.012822829
-0.010827155 0.011614115 0.051656034 -0.036866065 0.020267483 -0.046401888 0.009065291 0.047562774
0.034154627 0.048153874 0.03125337 -0.004776704 0.015074419 -0.02412485 0.04900681 0.02565623
-0.026165739 0.03314292 0.0010708951 0.028616507 -0.0073720026 -0.043771964 0.00288966 -0.023559626
-0.03941691 -0.029739656 -0.012134034 0.04710396 0.041194163 -0.056445573 -0.00046501876 -0.016663276
