model/CardWikiTask11100-1_306.pth (torch, 13823 bytes, 3 tensors)

fc.0.weight f4 [500, 4]
000000 9a 8d 5c 3b c4 0d 89 3e fe ca d6 be da 47 c0 be
       0.0033653737 0.26768315 -0.41951746 -0.37554818
000010 90 6a 3f be 1a 17 0a 3e 4c 78 86 bc 7e 47 ca 3e
       -0.18692994 0.13485375 -0.016414784 0.3950767
000020 f6 c5 62 bd 47 4c 03 3e 01 a4 17 be ee 67 cc bd
       -0.05536457 0.12822066 -0.14808656 -0.099807605
000030 6c 8b d9 be 1d db a4 be cc 1a 51 be ba d2 32 3d
       -0.42489183 -0.3219842 -0.20420378 0.043657996
000040 a6 d7 42 3e 9b 2d 98 3e 8a 1d ab be f4 9e 5f be
       0.19027576 0.29722294 -0.33420974 -0.2183798
000050 11 19 33 3e 73 47 d3 3e c6 71 c8 bd c6 6b bf 3e
       0.17490031 0.4126545 -0.097873256 0.37386912
000060 14 08 a1 bd 52 ff 5b 3d 3c 60 e3 3e b2 7b f1 be
       -0.07862869 0.05371029 0.44409359 -0.47164685
000070 d2 80 9d be 04 40 03 be ac e4 4c be 80 af dc 3e
       -0.30762345 -0.12817389 -0.20009106 0.43102646
000080 1a ef a5 be c0 b0 6b be 1a da b2 be 76 c2 ef be
       -0.32408983 -0.23016644 -0.34932023 -0.4682805
000090 4b 95 92 be e0 67 dc 3e c1 a2 5d 3e 91 ae 76 3e
       -0.28629526 0.43048 0.21644117 0.2409003
0000a0 40 6a d7 3c 3a 3f 83 be c0 3e ad 3d 9e 06 ef be
       0.026295781 -0.25634176 0.08459234 -0.46684736
0000b0 5d 41 b7 be 6f 76 85 be 87 84 9f 3e 7c 9b 92 3e
       -0.35792056 -0.2606692 0.31155798 0.2863425
0000c0 6a 57 71 be 42 04 20 bd 30 a9 9f 3e 6f 23 f5 3e
       -0.23568502 -0.03906656 0.31183767 0.47878596
0000d0 49 83 51 3e ec fd 8a 3d b6 73 a8 3e a5 2b 97 be
       0.20460238 0.06786713 0.3290078 -0.29525486
0000e0 a5 f3 af 3d bb 50 d5 be 32 5d bc be 73 a5 90 be
       0.085913934 -0.41663155 -0.36789852 -0.28251228
0000f0 cc 6b 5f 3e e6 6c 4a 3e a9 77 95 be 66 4e 19 3e
       0.21818465 0.19768104 -0.29192856 0.14971313
000100 3d a0 8e 3e a5 c4 6e bd d0 f5 73 3c a4 be f0 3d
       0.27856627 -0.058293004 0.014890149 0.11755112
000110 21 56 9b 3e e0 b0 f4 3e b8 88 c2 be 9b af 3b be
       0.3033915 0.47791195 -0.37994933 -0.18328707
000120 30 ae 4d 3e fc 85 d3 3e 90 9b da 3e e7 08 e0 3e
       0.20085979 0.4131316 0.4269681 0.43756792
000130 78 ca cb 3d f8 9c de be 90 66 3c 3d ac 27 a0 be
       0.09950727 -0.43479133 0.04599625 -0.31280267
000140 17 26 f1 be 7d 96 e7 3e 62 9e bc 3e 39 69 03 bf
       -0.47099373 0.45232 0.36839586 -0.5133243
000150 08 aa bf 3d c8 80 ac bd b8 82 a8 bd 1c 5f 6a be
       0.09358603 -0.084230006 -0.082280576 -0.22887844
000160 29 45 4a 3e ab 1d 94 be 54 dd 37 3e d4 79 86 3e
       0.19752945 -0.28928885 0.17955524 0.26264822
000170 5d 33 bd 3e ff 5e 0b 3e 28 31 03 bf a5 a5 8b be
       0.3695325 0.13610457 -0.5124688 -0.27274814
000180 d7 42 83 3e 6b ac eb 3d fd c2 cd be e4 3f 8f be
       0.25636932 0.115074955 -0.40187827 -0.27978432
000190 30 68 ed 3e 5d 8f ab 3e 20 ff 58 be 93 9e ff bd
       0.4636855 0.33507815 -0.21191072 -0.124814175
0001a0 36 25 e6 be d8 05 d0 bb 0b 32 cc be 03 4b c2 be
       -0.44950265 -0.006348353 -0.3988193 -0.37947854
0001b0 9f 21 93 bd 5e 1b 4e 3d 72 ab 23 be ed 20 93 3e
       -0.07184147 0.050319068 -0.1598337 0.28736058
0001c0 d8 aa 9c be 67 6a ef 3e e2 85 a1 3e f1 63 d2 be
       -0.30599093 0.46760866 0.31547457 -0.41091874
0001d0 a3 93 f5 bd de 8b b3 3c 99 a6 85 3d e9 43 ed 3d
       -0.1199105 0.02191728 0.065259166 0.115852185
0001e0 5a 36 52 3e 75 00 05 3d 97 25 88 be 07 ff 69 3e
       0.20528546 0.03247114 -0.2659118 0.22851191
0001f0 cc c7 02 bf 5a 99 9c be fa 19 0c be 7a 41 85 be
       -0.51086116 -0.30585748 -0.13681784 -0.26026517
000200 5c 1d 33 be ba d2 d1 be 00 d2 d9 bd f8 e2 da 3d
       -0.17491668 -0.40981084 -0.106357574 0.10687822
000210 e4 dd aa be ba 90 0e bc e0 7e b6 3e 75 90 38 bd
       -0.33372414 -0.008701498 0.35643673 -0.04505964
000220 c4 7c da 3c d8 cf 1a bd 16 0a bf 3d 99 f2 a2 3e
       0.026670821 -0.03779587 0.093280956 0.31825712
000230 bf 08 ef 3e 57 6a a1 3e de bd f5 3e 17 aa 14 bd
       0.4668636 0.31526443 0.4799642 -0.036295023
000240 8a 9b ed be 6a c8 6c be 04 a2 ab 3e 2c 05 df 39
       -0.4640773 -0.23123327 0.33522046 0.00042537728
000250 dc 7c 7e be 02 2d c4 be 00 94 ef be ec 10 d8 be
       -0.24852318 -0.38315588 -0.46792603 -0.4220041
000260 89 59 f8 bd 86 cb 7e 3e 42 a3 7c 3e b0 4d 02 bf
       -0.121264525 0.24882326 0.24671653 -0.5089979
000270 2e b0 9f 3e 8a 52 c8 be f0 7b d8 bd 1c 9a 4f be
       0.31189102 -0.39125472 -0.10570514 -0.20273632
000280 f0 3c c5 bd 10 0e c9 bd ba b8 e5 be 44 0a dd be
       -0.096307635 -0.09817135 -0.44867498 -0.43171895
000290 97 49 bc bd 4b a0 c8 3a b6 2f 41 be b1 7c 46 3e
       -0.09193724 0.001530656 -0.18865857 0.19383503
0002a0 f9 70 e6 be 6e f6 b9 bc 08 d0 e2 3e 04 80 43 be
       -0.45008066 -0.022700515 0.4429934 -0.19091803
0002b0 32 66 e3 3e 47 89 36 3e fd 92 e4 be de 99 a1 3e
       0.44413906 0.17825805 -0.44643393 0.31562704
0002c0 11 ad 81 bd a5 45 64 be 96 a6 c8 3e 92 97 d5 be
       -0.06331838 -0.22292192 0.39189595 -0.417172
0002d0 07 d1 40 3d 64 c9 da bd ac 90 b9 3e d6 e2 0e 3e
       0.047074344 -0.106829435 0.36243188 0.13953719
0002e0 38 3f 78 3e 84 13 32 3e 89 e7 04 be 65 b9 e0 bd
       0.24242866 0.17390257 -0.12978949 -0.10972861
0002f0 70 76 cc be fd 04 8a 3e f9 8d c8 3e de ae af 3e
       -0.3993411 0.2695693 0.39170817 0.343131
000300 ac 93 b4 be 60 ae b6 3c 90 76 b4 be 88 ec 8c be
       -0.35268915 0.022299945 -0.35246706 -0.2752421
000310 0b 68 15 bd 1c 1e 5c 3e 85 4a 82 bf 64 11 84 3b
       -0.036476176 0.21495861 -1.0178992 0.0040303934
000320 a0 4f ac 3c 04 06 a5 3e fa 83 c1 be 44 bf af be
       0.021034062 0.32231152 -0.37796003 -0.34325612
000330 a9 dd 91 be 67 77 b3 3e ef e3 3e be 00 20 d7 3e
       -0.28489426 0.35052034 -0.18641637 0.42016602
000340 99 ee 31 3e b0 1a 75 3d 56 ed da 3a 05 68 cf bd
       0.17376174 0.059839904 0.0016702812 -0.10127262
000350 40 7a 80 3d 30 d3 e9 bd 00 3e 66 bb c0 a7 82 3d
       0.06273317 -0.11417234 -0.003513217 0.06379652
000360 98 3e c8 be 7a 2d 86 be d8 b7 ce 3e 86 c1 cf be
       -0.39110255 -0.2620657 0.40374637 -0.40577334
000370 a0 19 f7 bc ec b4 fd 3e a1 49 32 3e cb ce 53 3c
       -0.030163586 0.49552095 0.174109 0.012927721
000380 39 87 e1 be 1b 00 7b 3e 80 0c b4 be 95 d0 11 be
       -0.4404848 0.24511759 -0.35165787 -0.14239724
000390 83 cf 34 be 17 49 a2 bd ce cd 05 3c 25 78 d1 3e
       -0.17657284 -0.07924097 0.008166743 0.40911976
0003a0 3f 97 a6 3d 33 68 e5 3e a9 8a 8f 3e c2 f7 ab be
       0.08134317 0.4480606 0.28035477 -0.33587462
0003b0 98 7c 5e 3e d3 71 be be fe 21 5b be 32 9a 0a 3e
       0.21727216 -0.37196216 -0.21399686 0.13535383
0003c0 68 fb 21 3e 3c d8 be 3e 28 7d 1f be 6a bb 11 3a
       0.1581856 0.3727435 -0.15575087 0.0005559238
0003d0 58 6e 80 3e b6 e6 f7 be e6 78 be 3e 2d 4f cd be
       0.25084186 -0.48418206 0.37201613 -0.4009947
0003e0 00 d0 e1 3b e0 18 ae bd 0a d4 86 be d8 57 87 3d
       0.0068912506 -0.08500838 -0.26333648 0.06608552
0003f0 4f c5 ca 3e 48 01 2d be 54 9f 99 be cc bb 5a be
       0.3960366 -0.1689502 -0.3000437 -0.21360701

fc.0.bias f4 [500]
000000 c2 13 8d 3e a4 9f b7 3d cf 3e 95 3d 94 27 89 3e
       0.27554137 0.08965996 0.072873704 0.26788008
000010 ec 61 9e 3e f6 c3 53 be 3b a5 5a bd 98 80 5f 3e
       0.30934083 -0.20680222 -0.053380232 0.21826398
000020 b0 1a 78 be 73 5e ef 3e 1c 5c af be 26 50 6a 3e
       -0.2422893 0.46751747 -0.3424996 0.22882137
000030 ec 5c c1 be bc ae 23 3e 8b 6c a5 3e fb 3d 6b 3d
       -0.37766206 0.15984625 0.32309374 0.057432156
000040 67 e9 39 bd f9 05 a2 3e 89 ab b8 be e4 b6 ac be
       -0.045388605 0.31645182 -0.3606837 -0.33733284
000050 78 35 d6 be a0 94 9d be 20 bb 8b 3c 26 90 8b be
       -0.41837668 -0.30777454 0.017057002 -0.27258414
000060 60 1c f3 3d cc e0 83 3c e6 8b d6 3e 9f 50 79 be
       0.118706465 0.016098402 0.4190361 -0.24347161
000070 2f d1 ff bd 38 a6 a8 3e fc b2 06 be 51 57 ed 3e
       -0.124910705 0.32939315 -0.13154215 0.4635568
000080 30 5b 4b be a4 7e 0f 3c 19 40 ef bd da 49 6d 3e
       -0.19859004 0.008758221 -0.116821475 0.23172703
000090 92 4a 44 3e c6 53 88 be 1d 99 9c 3e 70 22 02 bd
       0.19169071 -0.26626414 0.30585566 -0.031771123
0000a0 2c 79 01 be e4 14 2d bc 3e 11 b7 3e fc 02 fa 3e
       -0.1264388 -0.010564063 0.35755342 0.48830402
0000b0 3a b7 72 3e 47 51 b0 3d b2 47 a5 3e cb a0 57 be
       0.23702708 0.086092524 0.32281262 -0.21057431
0000c0 50 c9 85 be 17 75 f5 bd 78 b0 a5 be 33 ff 5b 3e
       -0.26130152 -0.11985224 -0.32361197 0.2148407
0000d0 08 bf 36 3d 3c 2c 2f be f0 ea 4f bd ed 93 1f bc
       0.044615775 -0.17106718 -0.050761163 -0.009739858
0000e0 9f 98 da 3e fc 3c e2 3e 22 bf c3 be 92 da 2a 3e
       0.42694566 0.44187152 -0.3823176 0.1668494
0000f0 e6 fc 43 3e 11 6c 41 3e 80 9a 8b bd a5 9e d5 3d
       0.19139442 0.1888888 -0.06816578 0.1043065
000100 f2 14 0a 3e 9a cf f8 3e 86 5b f5 be b8 b1 3d be
       0.13484553 0.48595887 -0.4792139 -0.18524826
000110 c0 3c ac be 09 07 7e be fb 73 d2 3d fe b9 8f 3e
       -0.336401 -0.24807371 0.10276028 0.28071588
000120 3e 97 c1 be 63 8e a5 3e c4 c8 d8 3e 50 5e 7c be
       -0.378107 0.32335195 0.42340672 -0.24645352
000130 5b 8d bc 3d b6 6c 83 be e1 68 de 3d f8 5f 6d be
       0.09206649 -0.25668877 0.10859848 -0.2318114
000140 bc 73 47 be d0 e3 ab be 7a 7a d5 be e3 a3 cb 3e
       -0.19477743 -0.33572245 -0.41695005 0.39773473
000150 b8 f0 86 bd 9a 50 c2 bc 0c ba 7f be 1e 7d b2 3e
       -0.06588882 -0.023720074 -0.24973315 0.34861082
000160 b2 7a 93 be 1d 1a 33 be 5c d6 c7 be cb fa d9 be
       -0.28804547 -0.1749043 -0.3903073 -0.42574152
000170 b8 02 e3 3e 9e ae c5 be a0 33 90 bd 99 02 17 be
       0.44338012 -0.38609785 -0.07041097 -0.14747085
000180 f9 ef 3b 3e 1e 04 09 3e 4e 3f c4 be 3e 64 e5 3e
       0.18353261 0.13380477 -0.38329548 0.4480304
000190 e6 d2 f0 be ce 8a 3f 3d 27 65 dd bd 9a 9f 1e be
       -0.47035903 0.046763234 -0.10810309 -0.1549057
0001a0 bc 29 ab 3e ab ce d5 3e aa 86 77 3d 70 d8 1b be
       0.33430278 0.41759238 0.06043116 -0.15219283
0001b0 b3 63 ba 3e 3f bd 98 3e 46 56 99 3d 1c 6c 22 be
       0.3640419 0.29831883 0.074871585 -0.15861553
0001c0 a2 d2 95 3c f5 c0 e3 3e 22 ee 47 3d 70 cb c9 bd
       0.018288914 0.44483152 0.048811086 -0.09853256
0001d0 66 be d8 be a2 7f 80 be 0f b0 be 3e 86 af b2 bc
       -0.42332762 -0.25097376 0.37243697 -0.021812212
0001e0 b5 00 c0 bc 3d 10 46 3e e8 6d a8 be ea 96 88 3d
       -0.023437837 0.19342132 -0.32896352 0.066694096
0001f0 92 4b 0c be 9a 3c 85 3e a6 73 d0 3e e9 ff 9f 3e
       -0.13700703 0.26022798 0.40713233 0.3124993
000200 83 05 bd 3e a6 c9 e4 be c0 c4 35 be 44 0a 82 3d
       0.36918268 -0.44685096 -0.17750835 0.06349614
000210 5a 36 db be f7 cd eb 3d a6 cd a7 be e0 b4 5d 3e
       -0.42814904 0.11513894 -0.32774085 0.2165103
000220 e9 e1 cd 3e b6 fe da be 03 0d d4 3e 93 f6 6c 3e
       0.40211418 -0.42772454 0.41416177 0.23140936
000230 a0 f0 a8 be f3 e8 f1 3e 9b ad e4 be 9c 56 b7 be
       -0.32996082 0.4724804 -0.446637 -0.35808265
000240 3d 90 77 be 21 ae 77 bc 88 e2 aa 3d 3a 1d 00 be
       -0.24176116 -0.015117199 0.08343989 -0.12511149
000250 5f ba fa be 06 df 6e bd a0 62 c4 3e 94 c8 c2 3e
       -0.48970315 -0.05831816 0.38356495 0.38043654
000260 b6 db 83 3e f9 74 95 3d a8 83 fd 3d c1 cb bd be
       0.25753564 0.072977014 0.12378627 -0.37069514
000270 35 60 4b 3e c6 c7 fe be d2 08 4b be a2 52 12 be
       0.19860919 -0.4976179 -0.19827583 -0.14289334
000280 09 3d bb 3e 9e 24 6f bc 84 38 69 be 40 2a b1 3d
       0.36570004 -0.014596133 -0.22775465 0.08650637
000290 6a 6e e0 be 86 4e 10 be b6 91 05 3e 37 d9 d6 bd
       -0.4383424 -0.14092454 0.13043866 -0.10490649
0002a0 4f dd 77 bd 61 31 9c 3e fc 76 c2 be 7b c4 93 be
       -0.06051379 0.30506423 -0.37981403 -0.2886084
0002b0 5b 84 f7 3e f4 d5 cb 3d 1b 1f ad bd b0 aa 84 3e
       0.48343167 0.09952918 -0.084531985 0.25911474
0002c0 4b 03 9a 3e 75 d3 98 bd e8 44 55 be 62 33 a7 bd
       0.30080637 -0.07462207 -0.20827067 -0.08164097
0002d0 ea 77 3a 3e 95 fe 80 bd 3e ef 93 3e fb b8 c6 be
       0.18209806 -0.06298558 0.28893465 -0.38813004
0002e0 14 34 7b be ab 60 c1 3e 97 29 83 3d 0d 8a a4 3d
       -0.24531585 0.37769064 0.06404417 0.080341436
0002f0 6d 05 28 3e ed 73 19 be 9c 0a 53 be b8 f5 04 3e
       0.1640832 -0.14985628 -0.20609516 0.1298436
000300 24 b2 07 be 46 bc 57 be ff 38 91 3d c1 e8 cc 3d
       -0.13251549 -0.21067914 0.07090949 0.10005332
000310 d0 ea 38 bd b0 21 ad be a7 ae 7e bd 0e 15 91 be
       -0.04514581 -0.33814764 -0.06217828 -0.28336376
000320 ff 8c 83 3e c8 25 b4 be e6 c4 cb 3e d0 e1 42 3e
       0.2569351 -0.35185075 0.3979866 0.19031453
000330 a5 40 e2 be 98 0a b7 3e ec 2a fd be 94 26 0a bd
       -0.44189945 0.3575027 -0.4944681 -0.033728197
000340 de d5 9f be 00 3b dc be 8e c4 42 3d 3e a4 6d be
       -0.31217855 -0.43013763 0.04755073 -0.23207185
000350 8e 52 b8 3e 7e 3e c9 be 6e f1 da 3e 0a bc 99 3e
       0.36000484 -0.3930549 0.4276232 0.30026275
000360 d3 3f df 3e 2b 5f 15 be 9e ea 9c be 5e a8 aa be
       0.43603382 -0.14587085 -0.3064775 -0.3333158
000370 3a 56 ce 3e 39 1a 7f be b5 3a 86 bd 30 02 9d bd
       0.4030016 -0.24912347 -0.06554166 -0.07666433
000380 2e f9 9b 3d 30 57 d5 be 6c d7 cc 3e 9c 6c bd be
       0.07615887 -0.4166808 0.40008104 -0.36996925
000390 f2 06 fb 3e 68 56 48 be 71 c6 4b be 58 c0 8c bd
       0.49028736 -0.19564211 -0.19899918 -0.06872624
0003a0 e5 71 1f 3e 2b a1 e0 bd 1a 80 ff be 71 25 b3 3e
       0.15570791 -0.1096824 -0.4990242 0.34989503
0003b0 90 79 f6 3e c0 34 7f 3e be 60 f9 3e 59 49 20 3e
       0.4813962 0.24922466 0.4870662 0.1565298
0003c0 c4 18 6c bd 1e e7 cb be 40 01 e3 be 61 e9 b5 be
       -0.057640806 -0.39824766 -0.4433689 -0.35529616
0003d0 6f 2a 00 be 75 b5 9c 3e 34 3e 53 be d2 6e b3 bc
       -0.12516187 0.3060719 -0.20629197 -0.02190343
0003e0 a5 26 df 3c 80 57 a7 be 40 c2 5d bc c9 ef f3 3e
       0.027240107 -0.32683945 -0.013535082 0.4764388
0003f0 89 4c c9 3e 06 5c b7 3e df 49 66 bd 3c c5 98 3c
       0.39316204 0.35812396 -0.056222793 0.018648736

fc.1.weight f4 [1, 500]
000000 36 50 e5 3c d8 76 d4 3c 48 6d b7 bc 62 c1 bc 3c
       0.02799235 0.025935575 -0.022390977 0.02304143
000010 ee 05 6b bc 2d 5f cb bc a9 0b 7e 3b 7d 99 0f 3d
       -0.0143446755 -0.024825657 0.0038764274 0.035058487
000020 19 9c f2 bc 4d 83 c0 3c 4e d4 a7 bb 8e 09 e9 3b
       -0.029615449 0.02350011 -0.0051217442 0.0071117347
000030 84 ba 09 3d dc 32 4b 3c 25 a6 fd bc 5e df 04 bc
       0.03362514 0.012402263 -0.030963013 -0.0081098955
000040 97 85 3f 3c 9e 43 08 bd 5f a1 c6 3b f9 b8 c4 bc
       0.011689565 -0.03326761 0.0060617174 -0.024013983
000050 1c 83 0a 3b a2 0f 83 3c 41 01 22 bd c6 23 87 bd
       0.0021135276 0.015998665 -0.039551977 -0.0659862
000060 70 97 1e 3d 3a ff 18 bd 2d 2b eb 3c 5c 4f 6d bd
       0.03871864 -0.037352778 0.028707111 -0.05793701
000070 41 64 02 bc 2e 7d 0d 3c 0d 02 0b 3d e6 92 97 bc
       -0.007958473 0.008635802 0.033937503 -0.018502664
000080 01 35 c5 3b e0 a8 a0 3c 1a a0 09 3d 91 17 06 bd
       0.0060182814 0.019611776 0.03359995 -0.03273732
000090 1d ea 8a bc a5 73 55 3c 3b bd d3 ba 57 3a f7 bc
       -0.016957337 0.01302806 -0.0016154418 -0.030179186
0000a0 28 2c 1a bd cc 90 c8 bc 39 84 25 bd 47 40 81 bc
       -0.037639767 -0.024483107 -0.0404093 -0.01577772
0000b0 5e ad 9d bc b4 d6 2c bd fa 4a ce 3b a2 be 90 3c
       -0.019247707 -0.042196944 0.006295559 0.017669026
0000c0 94 bb ac bc cd 22 03 3f ce 85 10 ba 67 88 ad 3c
       -0.021085538 0.51224977 -0.00055131025 0.021183206
0000d0 04 c9 cd bc a3 25 0b 3b 64 fa 2a 3d 35 4c 03 3d
       -0.025120266 0.002123215 0.041742697 0.0320551
0000e0 03 0a 2d bd ce f8 e4 bb ee ba ca ba 9e 7b 8d bc
       -0.042245876 -0.0069876676 -0.0015467086 -0.01727086
0000f0 28 a7 d8 bc 8b c5 8b bc ba 6e f3 3c e4 0a 21 bc
       -0.026446894 -0.01706197 0.029715884 -0.009829257
000100 df 1a 19 bd 1c e4 4b 3c d7 dd e0 bc 6d 83 2e 3c
       -0.037379142 0.012444522 -0.027449531 0.010651452
000110 f9 e9 d9 3c 31 b2 a9 bc 77 22 c3 3c 50 10 d3 39
       0.026600825 -0.020714851 0.023820145 0.0004025721
000120 bb 6f c9 3c f4 e4 0f 3d 81 07 4a 3c bc 1d b1 3a
       0.02458941 0.035130456 0.012330891 0.001351289
000130 29 27 18 bd e4 dd 91 3c 66 de d5 3c fe 11 85 bc
       -0.03714672 0.017806001 0.026107024 -0.01624393
000140 cc e2 35 bd 17 6e 17 3d 1f fd 2b bc 72 0b 45 3c
       -0.044405743 0.036970224 -0.0104973605 0.012026655
000150 41 78 45 bc 5d 05 d5 3c ae e4 1f 3d 70 21 e5 3c
       -0.012052597 0.026003534 0.039036445 0.027970046
000160 bd f4 10 bd bf 99 dc 3e e8 c1 b2 3c de 73 01 ba
       -0.03538965 0.4308605 0.021820977 -0.0004938225
000170 cb d1 10 bd b5 4f 9d bc 77 16 32 bd af a2 f7 3c
       -0.035356324 -0.019203046 -0.043478455 0.03022894
000180 fc 0e 37 3d 76 21 d0 3c d9 1d 6a 3c bb 49 55 3c
       0.044692025 0.02540658 0.014289343 0.013018067
000190 bd 77 45 3c bf c4 ce bc 88 38 ca 3d 8e a1 8b bd
       0.012052474 -0.0252403 0.09874064 -0.068179235
0001a0 8e ab a4 bb e2 1f 30 3b f5 33 22 3c 7a 5f 80 3e
       -0.0050253337 0.0026874472 0.009900083 0.25072843
0001b0 53 5d 8d 3a 3a 2a b2 bc b7 e4 22 bd 6e e0 15 bc
       0.0010785259 -0.02174865 -0.0397689 -0.0091477465
0001c0 12 97 27 bd dd 88 6c 3c 4b bc ca bc c2 eb fe bc
       -0.040915556 0.014436928 -0.024747988 -0.031118277
0001d0 11 09 18 bc 87 db 09 bd e3 01 16 3d 26 0f 04 3d
       -0.009279505 -0.033656623 0.036622893 0.03224101
0001e0 5f eb 8b bd 57 22 13 3c 56 6b bb 3c 2e 84 91 3d
       -0.06832003 0.008980355 0.02287833 0.071052894
0001f0 d9 90 85 bb 45 03 33 bd fd 57 09 3d 29 36 1d bd
       -0.004076105 -0.04370429 0.033531178 -0.03838173
000200 3b 5f 1f bc 3c ce 35 3b 52 50 71 bc fd 06 f4 bc
       -0.009727295 0.0027741333 -0.0147286225 -0.029788489
000210 f7 53 f8 bc a0 e1 43 bc 6d 64 a6 bb cb c8 18 3d
       -0.030313475 -0.011955649 -0.0050778897 0.037300866
000220 63 1b 43 bc e1 94 0d 3d 26 60 90 3b 7e f4 bf bc
       -0.011908385 0.03456581 0.004405993 -0.023432013
000230 d2 40 2e bc 8d e5 87 bb 7f a8 fc b9 56 08 a7 bc
       -0.010635572 -0.0041472376 -0.00048190725 -0.020389717
000240 e4 22 21 3d 44 2b 83 3d f4 59 e3 3b 1b 7e d9 3c
       0.039339915 0.06404737 0.0069382135 0.02654939
000250 45 c9 07 3c d2 64 db 3b 78 b0 9f 3c 73 7c bd 3c
       0.0082877325 0.0066953683 0.019493327 0.023130631
000260 ca f0 5b 3d 87 41 25 bd 91 5c 72 3c 27 f8 42 bd
       0.05369643 -0.040345695 0.014792577 -0.047599938
000270 a1 16 05 bc 05 3f 8d bc 63 96 51 3d 44 a3 b0 3c
       -0.008123071 -0.017241964 0.05116881 0.021562226
000280 71 2c 1b bd cc 05 cc 3c 23 9f fc 3c 76 3b 16 be
       -0.03788418 0.024905108 0.030837601 -0.1467112
000290 61 d3 4d 3d ee dd c8 3c 9c da 1f 3b e8 f9 16 3d
       0.050250415 0.024519887 0.0024391776 0.036859423
0002a0 0c 3f a0 bb 78 b8 47 3c 5d 6d 37 3c 00 de 81 3c
       -0.0048903283 0.012189977 0.011195508 0.015852928
0002b0 1e 6a 7c 3c 5b 96 82 3c 56 f9 f5 bc f1 b8 6d 3c
       0.01540616 0.015940836 -0.03002612 0.0145094255
0002c0 f0 68 cf 3c 22 3a 51 bc 7a c2 85 bb 86 44 04 3d
       0.025318593 -0.012770208 -0.0040820213 0.03229191
0002d0 8f 6e 7d bd 20 e3 a2 bc 5e 95 94 bc 7b 40 7f 3e
       -0.061873015 -0.019883692 -0.01813763 0.24926941
0002e0 a7 2c 31 bd ea 35 b6 37 f9 59 2c bd 10 84 12 3f
       -0.043255474 2.1721196e-05 -0.042077992 0.5723276
0002f0 13 ee 97 3c 3a a6 8b 3d 48 ea 4d 3d 50 98 dd 39
       0.01854614 0.068188146 0.050272256 0.00042265886
000300 b0 c7 ba bc d8 0c 0e 3c ca a2 aa 3c e6 41 77 bb
       -0.022800297 0.008670054 0.020829577 -0.0037728488
000310 60 b4 1c 3d 9d df e7 bc 82 98 01 3d e3 07 d0 3c
       0.038257957 -0.02830487 0.031639583 0.025394386
000320 a7 13 c6 3c ee 1c 93 39 22 58 86 3c 11 d2 0c bd
       0.024179293 0.0002805958 0.016399447 -0.034380022
000330 81 41 4a bd ff 66 8a ba b3 aa b7 bb 37 98 1c 3d
       -0.049378876 -0.001055926 -0.0056050657 0.0382311
000340 ce 02 05 3d 64 68 f8 3c 9f cb a3 bc 13 61 29 bd
       0.032473378 0.030323215 -0.019994555 -0.041352343
000350 4f 2b 29 bd b5 96 84 3c 1a c1 21 bd 96 a3 2f bd
       -0.041301068 0.016185144 -0.039490797 -0.042880617
000360 af ca 93 bc 5f 12 15 bd 81 60 90 bc b6 bf 0e bc
       -0.018040983 -0.036394473 -0.017624142 -0.0087127
000370 f5 86 c2 bc e2 7d 0d 3d 52 61 c0 bb 00 c3 25 3d
       -0.023745993 0.03454388 -0.0058709765 0.04046917
000380 69 07 3b bc 1c ed b5 bb 4a 16 9a bb ed f0 02 bd
       -0.011415341 -0.0055519473 -0.004702364 -0.031968046
000390 60 fe 13 bd 81 ac fd 3c ff 2a 12 be 73 98 32 bd
       -0.036131263 0.030966045 -0.14274214 -0.04360242
0003a0 0b 86 29 3d 79 b2 c8 bb f2 25 f5 bc 56 6e f4 bc
       0.0413876 -0.006124791 -0.02992532 -0.029837769
0003b0 b2 19 03 bd 98 93 f8 bc 8c 15 0b 3d 8e 31 47 3d
       -0.032006927 -0.030343816 0.033956096 0.048631243
0003c0 50 cb fd ba 56 1e 1c bd 7f 13 e8 ba 33 f4 50 bc
       -0.001936296 -0.038114868 -0.0017706006 -0.012753534
0003d0 96 4d b3 3c ab fe 0a bd 04 cc 1c bc 9d 93 6c bc
       0.021887582 -0.033934277 -0.0095701255 -0.014439491
0003e0 d3 34 3b 3d 2e 4e c6 3c 19 82 20 3c 65 51 dc ba
       0.045704674 0.0242072 0.009796643 -0.0016808925
0003f0 42 91 a7 bb 55 30 14 3a 20 30 87 bc da 1e 8d 3c
       -0.0051137516 0.0005652954 -0.01650244 0.017226625
