model/CardWikiTask11110-1_601.pth (torch, 8959 bytes, 3 tensors)

fc.0.weight f4 [300, 4]
000000 92 62 b6 bc c0 60 78 3e 31 8f e0 be 17 8a d2 be
       -0.022263799 0.24255657 -0.43859246 -0.4112098
000010 e9 09 46 be 1a b9 01 3e 8e 25 5b bb 42 71 c6 3e
       -0.19339718 0.12668267 -0.0033439132 0.38758284
000020 2c f1 63 bd 0e 35 02 3e 57 ae 2d be 55 91 d0 bd
       -0.05564992 0.12715551 -0.16961037 -0.1018397
000030 b8 91 f4 be 52 8b a9 be e8 0e 53 be 00 bb 97 3c
       -0.47767425 -0.33114105 -0.20611155 0.018521786
000040 e0 a0 9c 3e 1a 68 62 3e 4c 16 33 bf e2 e6 e6 bd
       0.30591488 0.22110024 -0.699559 -0.11274506
000050 b1 a8 23 3e e1 d0 c6 3e 18 6d df bd cd 0a b0 3e
       0.1598232 0.38831237 -0.1090948 0.3438324
000060 e4 9f 8c bd 6c 4b 0a 3d 44 af df 3e 4d 66 f6 be
       -0.06866434 0.033763334 0.43688405 -0.48124924
000070 33 6e a5 be 9d 84 03 be 0a b3 58 be 2a 82 dc 3e
       -0.32310638 -0.12843557 -0.21162048 0.43068057
000080 1a ef a5 be c0 b0 6b be 1a da b2 be 76 c2 ef be
       -0.32408983 -0.23016644 -0.34932023 -0.4682805
000090 5e 8b 80 be 7d f6 e2 3e 99 13 52 3e 34 aa 82 3e
       -0.2510633 0.4432868 0.20515288 0.2552048
0000a0 40 6a d7 3c 3a 3f 83 be c0 3e ad 3d 9e 06 ef be
       0.026295781 -0.25634176 0.08459234 -0.46684736
0000b0 78 d9 d1 be 67 dd 85 be b0 7c a3 3e 4f 16 8e 3e
       -0.40986228 -0.2614548 0.31931067 0.27751395
0000c0 6a e7 64 be b0 55 da bc 33 a7 a5 3e c4 0f f9 3e
       -0.22353902 -0.026652187 0.32354125 0.4864484
0000d0 f3 5a 21 3e 1e 0e 6d 3d 82 cf b2 3e 56 56 88 be
       0.1575735 0.05787479 0.3492394 -0.2662837
0000e0 f8 d0 be 3d 6c 7a c6 be 18 6e b1 be d2 3e 84 be
       0.093172014 -0.38765275 -0.34654307 -0.25829178
0000f0 43 95 83 3e 1a 3c 52 3e b8 6f 94 be 35 d3 15 3e
       0.25699815 0.2053074 -0.28991485 0.1463135
000100 4c b2 84 3e 49 d1 a9 bd 0c d5 47 3c 92 cd c0 3d
       0.2591728 -0.08291871 0.01219679 0.094142094
000110 8c ac 82 3e ab 4c dd 3e 60 62 da be 77 94 66 be
       0.25522268 0.43222556 -0.4265318 -0.22517572
000120 30 16 0b 3e c2 f2 b2 3e 45 7d b7 3e ed 5b bd 3e
       0.13582683 0.34950835 0.3583776 0.36984196
000130 df d1 2a 3d cc ba ee be 13 22 96 3b 95 48 a3 be
       0.041704055 -0.4662689 0.0045816987 -0.31891313
000140 70 02 f5 be d9 23 e0 3e 46 d1 ba 3e 56 4c 00 bf
       -0.47853422 0.4377735 0.36487788 -0.5011648
000150 6d 86 54 3d 68 c6 e9 bd b9 89 bb bd 14 38 7a be
       0.05188601 -0.11414796 -0.09157128 -0.24435455
000160 84 e5 25 3e f6 77 a4 be ea 56 08 3e 37 85 7a 3e
       0.16200835 -0.32122773 0.13314405 0.2446488
000170 aa d7 a8 3e 7e 0c 0e 3e 5e 8a e1 be 83 ac cb be
       0.3297704 0.13871953 -0.44050878 -0.39780053
000180 c6 b4 bb 3d 64 60 0b 3e 95 cf d4 bf e9 f7 6f bd
       0.09165339 0.13610989 -1.6625849 -0.058586035
000190 94 4e ed 3e 0d 65 ac 3e 5b 49 6d be 55 27 ff bd
       0.46349013 0.33670846 -0.23172514 -0.12458674
0001a0 78 dd f3 be 80 3e 13 bc 78 c8 c0 be a2 77 c5 be
       -0.47629905 -0.008987069 -0.37652946 -0.38567835
0001b0 6c 66 33 bd 84 d7 58 3d f7 a6 58 be 91 01 8b 3e
       -0.04379885 0.052939907 -0.21157442 0.27149633
0001c0 5a ca aa be e5 40 d5 3e c0 7e a3 3e 94 cb e9 be
       -0.33357507 0.41651073 0.3193264 -0.4566313
0001d0 88 db fe bd 80 d2 b8 3c 18 67 95 3d d0 dd f2 3d
       -0.12444216 0.022561312 0.07295054 0.118587136
0001e0 43 0b 42 3e 0e 78 f4 3c 43 27 84 be f6 28 73 3e
       0.18949609 0.029842403 -0.25811204 0.23746094
0001f0 e0 65 f7 be 97 72 a4 be 97 f8 2f be 06 31 98 be
       -0.48319912 -0.32118675 -0.17184673 -0.29724902
000200 5c 1d 33 be ba d2 d1 be 00 d2 d9 bd f8 e2 da 3d
       -0.17491668 -0.40981084 -0.106357574 0.10687822
000210 bb 2f 7b 3c d0 c0 db 3b f4 9a 1f 3f 3d 17 f5 3a
       0.015331204 0.0067063347 0.62345815 0.0018698942
000220 a7 e1 88 bc 8b a2 a2 bd 34 21 92 3d 45 ac 8d 3e
       -0.016709162 -0.07941159 0.07135239 0.27670494
000230 99 fb f5 3e a5 a8 93 3e a2 30 f8 3e d1 de 3a bd
       0.48043516 0.28839603 0.48474604 -0.04562265
000240 8f ca ed be 44 a9 87 be d4 48 95 3e de e9 f8 bc
       -0.46443602 -0.26496327 0.29157126 -0.030384954
000250 e2 01 80 be 23 f9 c5 be 20 a5 f0 be 26 9a da be
       -0.25001436 -0.3866664 -0.4700098 -0.4269573
000260 52 a7 db bd b9 63 8b 3e c5 5c 80 3e cd 7e f3 be
       -0.10725273 0.2722452 0.25070778 -0.4755768
000270 2e b0 9f 3e 8a 52 c8 be f0 7b d8 bd 1c 9a 4f be
       0.31189102 -0.39125472 -0.10570514 -0.20273632
000280 f0 3c c5 bd 10 0e c9 bd ba b8 e5 be 44 0a dd be
       -0.096307635 -0.09817135 -0.44867498 -0.43171895
000290 f0 3b a4 bd 29 c3 e8 ba ef 03 62 be b0 ad 36 3e
       -0.08019245 -0.0017758358 -0.22071813 0.17839694
0002a0 9f 91 ec be 2f dd 09 bd 69 73 de 3e 94 32 48 be
       -0.4620485 -0.033658203 0.43447426 -0.19550544
0002b0 8a b8 d0 3e e3 8f 4f 3e 93 fa 38 bf 74 f4 9d 3e
       0.40765792 0.20269732 -0.72257346 0.30850565
0002c0 f0 53 6c bd 70 8f 64 be 14 b6 cc 3e 54 df ce be
       -0.057697237 -0.22320342 0.39982665 -0.4040476
0002d0 b0 c2 5b 3d c0 64 d6 bd 16 d0 b6 3e 08 ec 0e 3e
       0.053652465 -0.10468435 0.35705632 0.13957226
0002e0 91 52 b5 3e 19 32 2f 3e cb dc 5e be ba 0d b1 bd
       0.35414556 0.17108954 -0.21763913 -0.08645196
0002f0 43 ad db be 66 2d 8b 3e 67 2a c7 3e 9e f6 ab 3e
       -0.42905626 0.27183074 0.38899538 0.3358659
000300 c5 39 cd be 70 f4 a5 bc 8d 53 c3 be b0 7d a5 be
       -0.40083137 -0.020258158 -0.38149682 -0.32322454
000310 f6 5e 5d bd 8b 73 37 3e 09 42 f1 bf 91 55 9d 3c
       -0.05404564 0.1791517 -1.8848277 0.01920584
000320 b7 cc a7 3c 86 1c a1 3e c9 8d b9 be 0a 76 b1 be
       0.020483358 0.31467074 -0.36240986 -0.3466037
000330 63 6a 9b be a9 6b af 3e 41 10 4e be 8f 73 d4 3e
       -0.30354604 0.34261826 -0.20123388 0.41494414
000340 f8 97 32 3e 82 f3 81 3d 3e 52 90 bc 31 3c c7 bd
       0.17440784 0.063452736 -0.017617341 -0.097282775
000350 40 7a 80 3d 30 d3 e9 bd 00 3e 66 bb c0 a7 82 3d
       0.06273317 -0.11417234 -0.003513217 0.06379652
000360 04 b7 f1 be ad 85 a3 be d8 af af 3e d4 3b dd be
       -0.47209942 -0.31937924 0.34313846 -0.43209708
000370 13 3d 4c bd 17 f9 f8 3e 52 d1 21 3e 3a bf f6 3b
       -0.049862932 0.4862754 0.15802506 0.00753012
000380 06 0e db be 91 ed 76 3e 43 f9 b0 be 2d 1a 17 be
       -0.42784137 0.24114062 -0.34565172 -0.14756079
000390 cc c8 2b be 38 a4 97 bd 80 36 b3 3b 96 26 d3 3e
       -0.16775817 -0.07404369 0.0054691434 0.41240376
0003a0 54 28 7c 3d 11 6e e1 3e 4b fd 9f 3e cc 05 a6 be
       0.061561897 0.44029287 0.31247935 -0.32426298
0003b0 a6 2a 64 3e 2c 6e b8 be df 2a 51 be 10 6f 0d 3e
       0.22281894 -0.36021554 -0.2042651 0.13811898
0003c0 04 9e f0 3c 01 f6 ef 3e ea 1f ea bf 2f 25 e1 3c
       0.029372223 0.46867374 -1.8290989 0.02748355
0003d0 80 04 65 3e f8 06 05 bf 7c c8 a6 3e 9e 4d e5 be
       0.22364998 -0.5196376 0.32574832 -0.4478578
0003e0 b5 1f ec 3a 81 e2 c4 bd 93 c8 84 be b0 d2 5a 3d
       0.001801482 -0.09613515 -0.25934276 0.053423584
0003f0 f2 b0 d3 3e e8 aa 15 be 56 fc 97 be 84 5b 3d be
       0.41345936 -0.14615977 -0.29684705 -0.18491942

fc.0.bias f4 [300]
000000 a9 54 42 3e 11 e6 e3 3e 45 bb e9 3e 06 fa e8 be
       0.18977608 0.44511464 0.45650688 -0.45503253
000010 5b bf c1 be 1c bd 6c be 57 14 ae be cc e9 f2 3e
       -0.37841305 -0.23119015 -0.33999893 0.47443998
000020 80 e0 34 bd ef 69 a5 be a8 d5 63 be a8 80 8c be
       -0.044159412 -0.32307383 -0.22249472 -0.27441907
000030 a6 bb 4a 3e 60 00 e4 be f8 b1 ee be 3c 5e fb be
       0.19798145 -0.44531536 -0.46620154 -0.49095333
000040 5a 1b 4a 3e 3b 32 4a 3e 08 a5 bf be c6 89 c5 3d
       0.19736996 0.19745724 -0.37430596 0.09645419
000050 4b c3 b9 3e 96 6a 65 3d 99 9f 0b be e8 d3 82 bb
       0.3628181 0.05600985 -0.136351 -0.0039925463
000060 83 62 e9 bc f7 77 7e 3e b0 d3 ad be 95 dc 6e 3e
       -0.028489357 0.2485045 -0.33950567 0.23326333
000070 db 19 7d 3e 9a 1a 9b be 79 56 cf 3e d6 c8 e5 3e
       0.24716894 -0.30293733 0.4049566 0.44879788
000080 58 d8 49 be 86 ba 25 bd db 32 5a 3e 76 b0 cd be
       -0.19711435 -0.040461086 0.21308462 -0.40173692
000090 cb f7 32 3e 97 1a e3 3d 72 e1 9f 3e 04 5d de be
       0.17477338 0.11089056 0.3122669 -0.4343034
0000a0 50 ae d4 be a0 3f 60 3e f4 34 35 3e dd 1d ee be
       -0.4153924 0.21899271 0.17695981 -0.4650716
0000b0 c6 c2 8e be 08 3c ea be 73 39 a9 be 87 cf 67 be
       -0.27882975 -0.45748925 -0.33051643 -0.22637759
0000c0 cc 09 bf 3e a8 14 82 bd 72 76 90 3e ce 91 ed 3e
       0.37312162 -0.06351596 0.28215367 0.46400303
0000d0 d9 4e 66 3e 82 2c e5 be 98 d3 4f 3e f1 97 37 3e
       0.22491015 -0.4476052 0.2029556 0.17929055
0000e0 43 27 c4 3e f4 86 fc be 1f 23 9b 3e 22 5b cf 3e
       0.38311204 -0.4932171 0.30300233 0.40499216
0000f0 9c 96 be be a9 8e 95 3c 5d 16 d6 3e de 30 ba be
       -0.3722428 0.018256502 0.41813937 -0.36365408
000100 14 0a 2b 3e ee d6 5b 3e d6 b0 ec 3d 53 6a fc 3e
       0.16703063 0.21468708 0.11557166 0.4929987
000110 b5 63 ce 3e 20 bb d7 3e 33 b1 b2 bd 18 7e d3 3e
       0.40310445 0.42134953 -0.08725204 0.4130714
000120 d4 91 ee be 26 25 8a be 41 ca 79 bd b9 10 25 be
       -0.46595633 -0.26981467 -0.0609839 -0.1611966
000130 ac 98 e8 3e fe 5c 73 3e fe a4 94 3e 6d 3e aa 3e
       0.4542898 0.23765942 0.2903213 0.33250752
000140 a0 3b bf be 3b ea 97 bd fa e7 88 3d f8 ff fd 3d
       -0.37350178 -0.07417723 0.06684871 0.12402338
000150 a7 23 7f 3e 73 a6 7b be 73 6b 26 be 7b b7 d2 3e
       0.24915944 -0.24575214 -0.16251926 0.4115561
000160 60 1b 07 be 04 d4 b1 be 15 b8 b4 3e f0 0b a9 3e
       -0.13194036 -0.34732068 0.35296693 0.3301692
000170 16 d3 3e be d8 b7 cc bd 15 e0 bd be 5e b8 e6 be
       -0.1863521 -0.09996003 -0.37085024 -0.45062536
000180 1c 04 3c 3e 4c 12 22 be 17 86 cd 3e 63 a0 d0 be
       0.18360943 -0.15827292 0.40141365 -0.40747365
000190 e2 6c b2 bd a3 35 3a bc a9 b1 83 3e 2a e7 c3 3e
       -0.08712174 -0.011365327 0.2572148 0.38262302
0001a0 51 76 99 3e 5c 3f 2c 3e 3c 01 6b be 62 d2 b6 be
       0.2997308 0.16821045 -0.2294969 -0.35707384
0001b0 58 05 e5 be 40 2e cb 3c 61 b1 e3 3e b7 7e ca bd
       -0.4473064 0.024802327 0.44471267 -0.0988745
0001c0 39 42 cc bc 32 b2 bc be 49 89 0d 3e bd 1e 98 3e
       -0.024933921 -0.36854702 0.13821901 0.2971095
0001d0 fc 64 fc be e2 28 9b be 38 29 ba 3e b2 b8 d5 3d
       -0.49295795 -0.3030463 0.36359572 0.104356185
0001e0 d8 ea 82 bd a8 af ae 3d e0 b0 9b bd 5e ef b2 be
       -0.06392449 0.085295975 -0.076020956 -0.34948248
0001f0 a6 54 f8 be c8 b5 a5 3e fa c3 b7 bd 4e cf 44 be
       -0.48502082 0.3236525 -0.089729264 -0.19219705
000200 ac c8 17 be 70 51 90 be 58 a5 17 be 0c c1 db be
       -0.14822644 -0.28187132 -0.14809167 -0.4292072
000210 3e 65 bd 3e 65 52 76 3e 36 1b 81 be 9c c0 2e be
       0.36991304 0.24054869 -0.25216073 -0.17065662
000220 e8 bf 60 3e 3f d6 61 be ad 56 09 3e 0c 8b f6 3d
       0.21948206 -0.22054385 0.1341197 0.1203824
000230 78 26 a1 be 64 3d f8 3d aa 03 d4 3c a5 5c de 3e
       -0.31474662 0.12121084 0.025880653 0.43430057
000240 b1 8e 4a be 7c 9e 03 be b1 d5 d8 3e 4f 7e de be
       -0.19780995 -0.12853426 0.42350534 -0.4345574
000250 dc 74 d5 3c a2 da f3 3e ab b1 33 be 37 ee e2 3e
       0.0260567 0.4762774 -0.17548244 0.44322369
000260 2c 25 e0 3e 05 84 eb 3e 48 f1 60 bd a9 9c e5 3e
       0.4377836 0.4599916 -0.054917604 0.44846085
000270 9c 16 5f be ff 91 2d be f4 cc 3a 3e 3d b8 55 3d
       -0.21785969 -0.16950224 0.18242246 0.052177656
000280 1a 0f 8b 3e 0a 5e f0 3e d2 40 a0 be a8 66 85 3e
       0.2715996 0.46946746 -0.31299454 0.26054883
000290 73 c5 1e 3e 93 4b 7e 3e 1c d1 6c 3e d5 a4 59 be
       0.15505008 0.24833517 0.23126644 -0.21254285
0002a0 86 f1 bc be e5 bc c2 3e f6 fa 91 be 86 00 9f 3e
       -0.36903018 0.3803474 -0.2851178 0.31055087
0002b0 72 e0 f3 be e7 ea 25 be 6c a1 9e 3b 0a 38 5b 3c
       -0.47632176 -0.1620289 0.0048410203 0.01338006
0002c0 2a 76 7a 3d 30 75 18 3e a0 08 64 bd d9 fc eb 3d
       0.061147846 0.14888453 -0.055672288 0.11522836
0002d0 5e 63 fa 3e a4 82 af be 45 b4 fa bc 2f 75 7a be
       0.48903936 -0.34279358 -0.030603537 -0.24458764
0002e0 71 94 da 3e 43 a5 d8 3e 70 eb b0 bc d4 79 31 be
       0.42691377 0.42313585 -0.02159664 -0.1733163
0002f0 dc 74 9d be 24 31 b4 3e 4c 13 00 bd 63 5d ae 3e
       -0.3075322 0.3519374 -0.031268403 0.34055623
000300 ad 8a 8a 3e 34 16 dd 3e 3e f3 c6 3e 22 68 a8 be
       0.27058926 0.43181002 0.38857454 -0.32891947
000310 71 b1 09 3e 92 98 3b be 6c 58 7d 3e a0 22 38 bd
       0.13446595 -0.1831992 0.24740762 -0.044954896
000320 20 25 6b ba 29 c4 bd be 34 cb e4 be 6d 3f 31 3e
       -0.00089700706 -0.3706372 -0.44686282 0.17309351
000330 dd 0d d8 3d 4d 3b 18 3d 73 7d a9 3e 31 0b 39 be
       0.10549519 0.03716593 0.33103523 -0.18070675
000340 8e f1 1d 3e b6 fe 8c be 1d 8a cc 3d 22 e7 ef bd
       0.15424177 -0.2753808 0.099872805 -0.11714007
000350 0c 5c ae 3e b8 99 d8 3e 97 fa d1 3e 18 62 f3 3b
       0.340546 0.42304778 0.41011497 0.007427465
000360 20 9b 98 3e 88 c7 ff be 0a 2b 96 be 85 ec ad 3d
       0.2980585 -0.49956918 -0.2932971 0.08492378
000370 bc bd a1 bb 10 16 c3 be 2a 6c 79 be 83 10 7f be
       -0.004935948 -0.3810277 -0.24357668 -0.24908642
000380 96 a2 fd be 6c 40 06 3d f9 4f ad 3e 0d 25 56 3e
       -0.49538106 0.03277628 0.33850077 0.20912571
000390 a0 b3 6f be 6e 13 eb be f0 88 ce be 80 f4 17 3c
       -0.23408365 -0.4591326 -0.4033885 0.009274602
0003a0 c3 2a b0 3e a9 a3 4c be 16 4d 8b be 9a 90 88 be
       0.34407625 -0.19984306 -0.2720725 -0.26672822
0003b0 f0 4a 31 bd 92 1c f3 be e2 e7 e1 be 11 a8 f8 3e
       -0.043284357 -0.47482735 -0.44122225 0.48565724
0003c0 8b 6d 82 be a2 51 0c bd fb ce 6f be bd d7 e7 be
       -0.254742 -0.03425754 -0.234188 -0.45281783
0003d0 de 6d d6 bd 84 07 44 3e c8 e6 4f be ed eb ed bc
       -0.10470174 0.19143492 -0.2030288 -0.029043162
0003e0 9e 26 c1 bc 68 d9 fe be f1 16 b2 3e d9 11 d0 3e
       -0.023577984 -0.49775243 0.34783128 0.40638617
0003f0 e1 6c ac 3e ff 3f cc bd 7e a8 e1 3d 26 da ef be
       0.33676818 -0.09973144 0.110184655 -0.46846122

fc.1.weight f4 [1, 300]
000000 e3 54 5c 3d 1a 39 2b bd a2 e6 a6 3c b7 26 b2 bc
       0.05379189 -0.041802503 0.020373646 -0.021746976
000010 94 cc 9f be fe 80 8d bb e1 03 50 3c 83 af 0d 3d
       -0.31210768 -0.0043183556 0.012696237 0.03459121
000020 da b9 33 bc 39 db 1d 3d 6f d8 57 3c e6 b0 c3 3b
       -0.010969603 0.038539145 0.01317416 0.0059720157
000030 a9 d0 00 bd 92 63 03 bd 7b f9 89 bc bd 6f 53 be
       -0.031448994 -0.03207738 -0.016842594 -0.20648094
000040 73 9d 17 bc eb 08 64 3b 8e 44 12 bb 76 83 34 3b
       -0.009253847 0.0034795355 -0.0022318694 0.0027544177
000050 60 bd 10 3d 69 bd ae 3c ef dd fb 3c ee 75 4a b9
       0.035336852 0.021330552 0.030745475 -0.00019308153
000060 10 1d 9d 3e 41 12 50 3d 5c 88 58 bd 18 58 d4 bb
       0.30686235 0.05079866 -0.052864417 -0.006480228
000070 70 4a d4 bb 04 3e ab bc c7 35 50 3d d5 e4 1b 3c
       -0.0064786 -0.020903595 0.050832536 0.009515007
000080 61 80 48 3d aa a7 52 3e f1 52 7c bb df f8 18 bd
       0.048950557 0.20571771 -0.0038501585 -0.037346717
000090 97 d6 17 37 48 be 5e 3c 49 dc 9e 3c 1e a0 06 bb
       9.050264e-06 0.013595171 0.01939215 -0.0020542215
0000a0 b0 54 61 3d 9a 96 fd bc 7d ef e1 3c f0 e2 f5 3d
       0.055012405 -0.030955601 0.027580017 0.120061755
0000b0 0d 7b 24 bc e8 be 3b 3d 26 e3 64 be af e3 3d bd
       -0.010039103 0.04583636 -0.22352275 -0.046359714
0000c0 56 6c b2 bc 5d 2b 53 3f eb 62 88 bc 66 13 8a 3c
       -0.021780174 0.8248804 -0.01664873 0.016854953
0000d0 33 2e 5d 3d 36 a8 a0 3c fc 5b 42 3c 2b 26 6f 3c
       0.053999137 0.01961146 0.011862751 0.014596502
0000e0 99 1b af bc 8e b4 46 bd c5 97 32 bd 3f fb 37 bd
       -0.021375464 -0.048512034 -0.04360177 -0.04491734
0000f0 31 be 2d 3f c1 6a 09 bd 07 d4 9d bc cf 50 67 bd
       0.67868334 -0.033549074 -0.019266142 -0.05647355
000100 44 cd 44 3c d7 7f f6 bc b5 3f 85 bb 97 10 3f bd
       0.01201183 -0.030090256 -0.0040664324 -0.04664668
000110 b2 cb 0d bd f7 d8 ab 3c 8b be 86 bd 93 d3 f1 bc
       -0.034618087 0.02097748 -0.06579312 -0.029519832
000120 57 4c 31 3d 47 8f f2 bc f5 bb 9b bd 81 b4 8a bb
       0.043285694 -0.029609336 -0.07604209 -0.0042329435
000130 b3 11 ac 3c 0e b7 d4 bc 3a 23 78 3b e6 30 ac 3c
       0.021004533 -0.025966194 0.0037862794 0.02101941
000140 17 56 89 bb 58 c5 13 3c de 18 49 be 25 bf eb 3c
       -0.004191171 0.009019218 -0.19638392 0.028777668
000150 8d 2f ae 3c a1 20 2d 3a 17 95 2d bd aa e4 d6 3c
       0.021262908 0.00066042884 -0.04237851 0.026232082
000160 18 fc 1b 3d 65 73 25 bc 92 d5 9a 3c 53 46 95 3c
       0.038082212 -0.010098313 0.018900666 0.01822201
000170 cc c8 01 3c 6a 55 83 bb 2b bd 62 3d 1f 9b 82 3c
       0.007921409 -0.004007985 0.055356186 0.015943108
000180 1c f4 34 bd 28 9e 9c bd 65 d5 12 3d 6c 84 9d bd
       -0.044178113 -0.076473534 0.03584804 -0.07691273
000190 0a 71 b0 bc 01 96 2e 3d 2d b2 0e 3d aa 07 d3 bb
       -0.021538276 0.042623524 0.03483789 -0.0064401226
0001a0 8d 70 74 3b 4c 30 92 bb cf 9c 5b 3c bd 78 06 3b
       0.003729853 -0.004461324 0.013404085 0.0020518743
0001b0 9b 1a 0f bd b0 41 2f 3c 51 d7 31 bb 3a 26 ac 3c
       -0.034937482 0.010696813 -0.0027136395 0.021014322
0001c0 37 98 ba bc 52 2e df 3c 89 9f 07 bd 24 73 a6 bc
       -0.02277766 0.027243767 -0.03311113 -0.020318575
0001d0 fd 25 00 3d f9 4c a7 bc f6 6b 70 bd 86 4e 3b 3c
       0.03128623 -0.020422446 -0.05869671 0.011432296
0001e0 ce e6 0a bd 18 47 44 bd 57 43 27 bd 62 bb 5a 3d
       -0.03391152 -0.047919363 -0.040835705 0.05340136
0001f0 d7 c7 ae 3c e4 15 07 3d ef c4 cd 3c 6b 0e ed 3c
       0.021335525 0.03297986 0.02511832 0.02893754
000200 be 20 50 3c d6 c4 fa 3c 05 fa 5c bc 4e 7f f0 bb
       0.012703119 0.030611437 -0.013487344 -0.0073393947
000210 3c cd 1c 3d 3a c0 51 bd 47 e0 19 bd 4f 5e 37 bd
       0.038281664 -0.051208712 -0.037567403 -0.044767674
000220 49 61 13 3d 09 23 04 3f 37 25 b5 3c 62 59 a6 3c
       0.03598145 0.5161596 0.022112472 0.020306293
000230 48 3d 23 3d 67 b3 37 bd b3 71 2a bd e2 af 54 bd
       0.039853364 -0.044848826 -0.04161234 -0.051925547
000240 dd 9f 1f 3d 04 f3 08 ba bc cf d3 bc c7 de 05 3d
       0.038970817 -0.00052242004 -0.025855891 0.03268316
000250 cc 82 8a bc 46 01 11 bd a1 e8 e2 3d 17 5e 24 ba
       -0.016908072 -0.035401605 0.11079527 -0.0006270124
000260 d0 7a 3a bd a4 dc 1a bd 4a 76 9e 3c fe 99 2e 3d
       -0.04552728 -0.037808076 0.019343514 0.042627327
000270 ca 02 9a 3b 68 ca b8 bc 3e b8 b5 3c 24 6b 1b 3c
       0.0047000395 -0.022557452 0.02218258 0.0094859935
000280 2a 4f 45 bd 90 37 04 bd d5 0a 4f 3c 3a a2 a2 3b
       -0.0481712 -0.03227955 0.01263686 0.0049631866
000290 80 b9 57 bc 6d 4e 92 3c fa fa 02 bd 0f e0 1c 3f
       -0.013166785 0.017859662 -0.03197763 0.61279386
0002a0 46 fe 5b 3c 1e a7 c0 3b 33 6b d2 3c c6 03 99 3c
       0.013427323 0.005879297 0.025685882 0.018678557
0002b0 3a 8c 0b bd 39 4e 92 bb ee 79 9a bd 72 7a 02 3e
       -0.034069277 -0.0044648913 -0.075427875 0.12742022
0002c0 cc 8e 5b 3d 59 9d 68 bc 0b 32 53 bd cd 22 d6 bc
       0.05360298 -0.014197671 -0.051561397 -0.026139641
0002d0 60 f5 80 bd 57 37 04 3d 1a 1a c8 bc f0 2d e4 bc
       -0.062968016 0.03227934 -0.024426509 -0.027853936
0002e0 e6 06 0c bc 3a 32 29 bd 82 15 00 bd 5c 1f f1 3c
       -0.008546567 -0.041307665 -0.03127051 0.029433899
0002f0 aa bb 1e bd 8a 81 ee 3c 23 95 4d 3d 40 aa c0 39
       -0.03875319 0.029114503 0.050191056 0.0003674794
000300 62 58 31 3c 2e 74 09 bd 1a 86 d5 3c 79 a4 18 3d
       0.010824295 -0.033558063 0.026064921 0.03726623
000310 04 89 19 3e 88 9c 60 3d 8e ec 62 bd 59 ba cf bb
       0.14993674 0.05483678 -0.055401377 -0.006339353
000320 c4 3e 6b bb da 95 e5 bc f2 28 e6 3c 01 df be bc
       -0.0035895566 -0.028025556 0.028095696 -0.023299696
000330 a8 88 7d bc 3f d2 5d bd c3 33 88 3c 98 f3 81 bd
       -0.015474476 -0.054155584 0.016626244 -0.0634529
000340 93 7f 6e 3d 26 1b d2 3c a2 b4 38 3d b5 b4 00 3c
       0.058227133 0.025647711 0.04509414 0.007855584
000350 7b af 99 bc 98 97 a6 bc 80 e0 91 3c 8b 70 2b 3c
       -0.018760433 -0.020335957 0.017807245 0.010463844
000360 75 f7 1c 3d b3 1c b2 3c 98 81 3e 3d 18 88 29 bd
       0.03832193 0.0217422 0.04651031 -0.041389555
000370 56 ab f4 3c 55 5c f2 bc 76 86 41 bb 13 23 30 3c
       0.029866856 -0.029585043 -0.0029529608 0.01075055
000380 61 64 31 bc a5 1d 2f 3c 99 81 4d 3d 93 3c f9 bc
       -0.010827155 0.01068822 0.050172422 -0.030424392
000390 f3 1d a0 3c e8 0f 3e bd 96 86 14 3c 2f d1 42 3d
       0.01954553 -0.046401888 0.009065291 0.047562774
0003a0 a7 a3 01 3d 13 d2 26 3d 89 03 00 3d e6 85 9c bb
       0.03165021 0.040727686 0.03125337 -0.004776704
0003b0 b2 fa 76 3c 7a a1 c5 bc 5d bb 48 3d 03 bd c5 3c
       0.015074419 -0.02412485 0.04900681 0.02413798
0003c0 02 7d 3b 3b be ba 00 3d b3 b1 53 b8 86 6c 7d 3d
       0.0028608446 0.03142809 -5.0471815e-05 0.061871074
0003d0 6f c2 8d bb 44 a8 ea bc 73 60 3d 3b c6 7c b3 bc
       -0.004326157 -0.028644688 0.00288966 -0.021910083
0003e0 85 28 31 bd 94 a0 f3 bc 28 4c 64 3b 5c 1a 3d 3d
       -0.043251533 -0.029739656 0.0034835432 0.046167716
0003f0 65 15 21 3d 3c e1 31 bd 40 85 ad 3a 6c 81 88 bc
       0.039327044 -0.04342769 0.0013238564 -0.016663276
