model/DBIndexTask_10_01000-1_304.pth (torch, 3025 bytes, 3 tensors)

fc.0.weight f4 [100, 1]
0.06650214 0.59232944 -0.82304513 -0.735939 -0.38515437 0.32610187 -0.01981318 0.8782754
-0.088744044 0.3368578 -0.30221307 -0.21823916 -0.9553485 -0.698746 -0.35025343 0.03704357
0.36016625 0.56483537 -0.7087518 -0.48422965 0.42809647 0.88552326 -0.20580018 0.83296466
-0.16118336 0.1058141 0.86451244 -0.92767036 -0.62953794 -0.25316525 -0.38979995 0.91967654
-0.64817965 -0.46033287 -0.6487172 -0.936561 -0.6025913 0.8200881 0.41289285 0.54616463
0.1113695 -0.46142364 0.13764577 -0.9336947 -0.72256625 -0.51553 0.6863122 0.545345
-0.44349504 -0.036082387 0.6395607 1.0936458 0.46795174 0.10630924 0.63113165 -0.58880234
0.14174229 -0.7753055 -0.69308615 -0.51658356 0.4139445 0.47680938 -0.5923525 0.3021071
0.620617 -0.28724816 0.038181543 0.292958 0.6203766 1.0280434 -0.81778777 -0.36646974
0.3488622 0.89500207 0.8702073 0.83937573 0.27194983 -0.86958265 0.1169749 -0.62560534
-0.8479318 0.84870607 0.71788716 -1.0204492 0.2532569 -0.1157518 -0.16456115 -0.45775688
0.38455617 -0.6325572 0.32588983 0.56596696 0.8696365 0.4664418 -0.98973525 -0.6486969
0.49931502 0.16694015 -0.780084 -0.5758195
00000000: 4632 883d e7a2 173f 16b3 52bf 8066 3cbf
00000010: f432 c5be d3f6 a63e 404f a2bc a8d6 603f
00000020: 70bf b5bd a078 ac3e acbb 9abe 167a 5fbe
00000030: b891 74bf 05e1 32bf 6b54 b3be 00bb 173d
00000040: b667 b83e 0d99 103f c270 35bf f3ec f7be
00000050: 762f db3e a7b1 623f 48bd 52be 2c3d 553f
00000060: 400d 25be 10b5 d83d b050 5d3f ce7b 6dbf
00000070: 6629 21bf e09e 81be dc93 c7be ec6f 6b3f
00000080: 1aef 25bf c0b0 ebbe 5512 26bf 76c2 6fbf
00000090: 6c43 1abf 4bf1 513f b166 d33e 72d1 0b3f
000000a0: b115 e43d b83f ecbe 03f3 0c3e 9e06 6fbf
000000b0: 1afa 38bf c6f9 03bf 28b2 2f3f bb9b 0b3f
000000c0: c811 e3be 20cb 13bd 40ba 233f 96fc 8b3f
000000d0: 5f97 ef3e a9b8 d93d d891 213f c0bb 16bf
000000e0: e424 113e 6c7a 46bf 186e 31bf d23e 04bf
000000f0: 89f0 d33e 5c20 f43e 6aa4 17bf c8ad 9a3e
00000100: c1e0 1e3f 3112 93be 4064 1c3d 97fe 953e
00000110: 00d1 1e3f ed96 833f 8a5a 51bf eca1 bbbe
00000120: 119e b23e db1e 653f e8c5 5e3f 54e1 563f
00000130: 023d 8b3e f89c 5ebf 8990 ef3d ac27 20bf
00000140: 0f12 59bf cd44 593f 74c7 373f 149e 82bf
00000150: e3aa 813e 480f edbd b882 28be 1c5f eabe
00000160: 8ce4 c43e 45ef 21bf 08db a63e 36e3 103f
00000170: 7fa0 5e3f 76d1 ee3e 4a5f 7dbf 0011 26bf
00000180: 38a6 ff3e 5cf2 2a3e 96b3 47bf e868 13bf

fc.0.bias f4 [100]
0.9565062 0.69332325 -0.43602514 -0.25168478 -0.9525981 0.0007392122 -0.7530589 -0.67748064
-0.055099607 0.16545108 -0.40953028 0.56994516 -0.6085391 0.88767564 0.69872934 -0.84328294
-0.2837711 0.020973133 0.10008533 0.28811643 0.3664255 0.07936188 -0.48792875 0.48474038
-0.9592489 -0.5927067 -0.2901608 -0.48711336 -0.34983337 -0.8196217 -0.21271515 0.23314144
-0.6514658 -0.05131936 0.7376868 -0.10280025 -0.00029124235 -0.12058072 0.17814592 0.6541024
0.9663917 0.656183 0.9256332 -0.07232165 -0.8983215 -0.47407722 0.7005056 -0.03689372
-0.49704635 -0.76631176 -0.93585205 -0.73258376 -0.123960696 0.5241663 0.5177229 -0.9644319
0.6020431 -0.78250945 -0.21141028 -0.40547264 -0.23081525 -0.113045074 -0.89734995 -0.8634379
-0.08680527 0.16152816 -0.4542749 0.39504632 -0.9000584 -0.03362762 0.859899 -0.407892
0.8811465 0.37894356 -0.90246093 0.61048156 -0.03387367 -0.44640684 0.77136356 -0.8080952
0.34297788 -0.2474547 0.69183064 0.2427761 0.49785453 0.37365192 -0.2404747 -0.21030545
-0.8240814 0.53312105 0.77149713 0.70277536 -0.525575 0.037541255 -0.7049341 -0.5504842
-0.5827055 0.3195358 -0.5959132 -0.021817207
00000000: 97dd 743f a27d 313f b03e dfbe d4dc 80be
00000010: 78dd 73bf b1c7 413a 78c8 40bf 5f6f 2dbf
00000020: 20b0 61bd 026c 293e f4ad d1be ede7 113f
00000030: 38c9 1bbf b63e 633f eddf 323f 64e1 57bf
00000040: 724a 91be d9cf ab3c 8af9 cc3d ff83 933e
00000050: 209c bb3e 7b88 a23d ccd1 f9be e42f f83e
00000060: 5691 75bf a0bb 17bf f58f 94be ec66 f9be
00000070: 5c1d b3be bad2 51bf 00d2 59be a1bc 6e3e
00000080: 76c6 26bf 4034 52bd 0bd9 3c3f f088 d2bd
00000090: e3b1 98b9 06f3 f6bd e26b 363e 4173 273f
000000a0: 7265 773f 9cfb 273f 4cf6 6c3f 601d 94bd
000000b0: 66f8 65bf 40ba f2be 5654 333f df1d 17bd
000000c0: dc7c febe 022d 44bf 0094 6fbf 9c8a 3bbf
000000d0: 1bdf fdbd c32f 063f 7d89 043f 02e5 76bf
000000e0: 7f1f 1a3f 8a52 48bf f07b 58be 1c9a cfbe
000000f0: d55a 6cbe 2d84 e7bd bab8 65bf 440a 5dbf
00000100: f6c6 b1bd a367 253e b896 e8be 8343 ca3e
00000110: 3a6a 66bf 1ebd 09bd 5722 5c3f 38d7 d0be
00000120: d192 613f e404 c23e ae07 67bf 8548 1c3f
00000130: 1ebf 0abd 708f e4be 1578 453f 54df 4ebf
00000140: cc9a af3e c464 7dbe d01b 313f 4c9a 783e
00000150: cae6 fe3e 4e4f bf3e 003f 76be 505a 57be
00000160: 00f7 52bf 9f7a 083f d680 453f 16e9 333f
00000170: 158c 06bf dcc4 193d 9076 34bf 88ec 0cbf
00000180: 302c 15bf 329a a33e c48d 18bf 00ba b2bc

fc.1.weight f4 [1, 100]
0.025660453 0.095462814 -0.075592004 -0.06865122 -0.058066156 0.12340219 -0.0359465 0.12035063
0.036160756 0.050159052 -0.0007444024 -0.00730005 0.012546635 -0.026977165 0.0043856264 0.012759305
-0.04550965 -0.0061952216 -0.017391326 -0.1769858 0.024997523 0.14585982 0.036123704 0.038747665
-0.086660996 0.04953779 -0.01998698 -0.028386427 -0.033551633 -0.014808739 0.0010938287 0.1244321
0.012483883 0.089569286 0.043200515 -0.063221395 0.018431237 -0.019596284 -0.0050970777 0.06020693
0.055440795 0.069838405 -0.008714245 0.00016008616 0.051482357 -0.096709214 0.104259945 -0.033702567
0.0013782502 -0.017001677 -0.052667297 0.05951698 0.15257855 -0.0049621766 -0.026060022 -0.036983885
-0.074205965 0.0451394 -0.04802637 -0.06673403 -0.014005203 0.12719598 0.052957367 0.076752186
0.09727805 -0.25512314 -0.027944816 0.05943902 0.08220347 0.07993315 -0.061801087 -0.04700774
-0.06776088 0.060009506 -0.05611825 -0.054962337 0.17586929 -0.06494112 0.011503084 0.028649354
-0.24217334 -0.015762685 -0.04856421 -0.030280888 0.043783788 0.09412248 -0.033524062 0.029455543
-0.02286762 -0.03786046 -0.03384043 0.064384684 0.09589007 0.04495088 -0.022490216 -0.061642982
0.06915448 -0.046254408 0.040966548 -0.033625353
00000000: df35 d23c 0282 c33d fbcf 9abd 0399 8cbd
00000010: c7d6 6dbd 4aba fc3d a33c 13bd 647a f63d
00000020: 4d1d 143d 9473 4d3d 0024 43ba 4235 efbb
00000030: 6790 4d3c 37ff dcbc 4db5 8f3b 670c 513c
00000040: 5468 3abd 4901 cbbb 4178 8ebc c43b 35be
00000050: 9bc7 cc3c 475c 153e 73f6 133d dfb5 1e3d
00000060: 527b b1bd 23e8 4a3d bcbb a3bc a78a e8bc
00000070: 706d 09bd 5aa0 72bc cd5e 8f3a 42d6 fe3d
00000080: 3389 4c3c 1a70 b73d 06f3 303d 387a 81bd
00000090: 1bfd 963c 6388 a0bc 6305 a7bb 8b9b 763d
000000a0: e315 633d 7007 8f3d 31c6 0ebc cddc 2739
000000b0: 2adf 523d 7b0f c6bd 3d86 d53d b40b 0abd
000000c0: 67a6 b43a 1a47 8bbc aab9 57bd 14c8 733d
000000d0: 8d3d 1c3e c199 a2bb d47b d5bc 6a7c 17bd
000000e0: 4cf9 97bd 17e4 383d 4db7 44bd daab 88bd
000000f0: 1476 65bc aa3f 023e d3e9 583d 4030 9d3d
00000100: b739 c73d 809f 82be 87ec e4bc 5476 733d
00000110: 4b5a a83d feb3 a33d 2323 7dbd 308b 40bd
00000120: 37c6 8abd 87cc 753d 40dc 65bd 3020 61bd
00000130: 1417 343e daff 84bd 6e77 3c3c 0db2 ea3c
00000140: 4afc 77be bf20 81bc 44eb 46bd a00f f8bc
00000150: a156 333d 49c3 c03d 8750 09bd c04c f13c
00000160: e054 bbbc 9213 1bbd 439c 0abd 1edc 833d
00000170: 0362 c43d 6a1e 383d 673d b8bc 5a7d 7cbd
00000180: dda0 8d3d 4375 3dbd 8acc 273d bdba 09bd
