model/DBIndexTask_2_11000-1_304.pth (torch, 3019 bytes, 3 tensors)

fc.0.weight f4 [100, 1]
0.06499155 0.5912406 -0.82304513 -0.735939 -0.38515437 0.32485232 -0.01981318 0.89058274
-0.088744044 0.33519012 -0.30221307 -0.21834952 -0.9553485 -0.69832 -0.35148948 0.03704357
0.3594012 0.5650387 -0.71116906 -0.477135 0.42572698 0.8844208 -0.20580018 0.83099455
-0.16118336 0.1058141 0.8648461 -0.92767036 -0.62953794 -0.25316525 -0.38979995 0.9185645
-0.64817965 -0.46033287 -0.6496127 -0.936561 -0.603572 0.8205018 0.41306913 0.544891
0.11021955 -0.46233234 0.13783877 -0.9336947 -0.72256625 -0.51553 0.68523973 0.54587346
-0.44349504 -0.036082387 0.6395607 1.1017216 0.4665263 0.10638909 0.63158643 -0.58880234
0.14242597 -0.7753055 -0.69308615 -0.51658356 0.413854 0.4750277 -0.5923525 0.3021071
0.61891353 -0.267564 0.038181543 0.29169533 0.6203766 1.0263116 -0.8170228 -0.36646974
0.34952495 0.89351267 0.8702073 0.8399752 0.27019292 -0.86958265 0.11526439 -0.62560534
-0.7722126 0.84908164 0.7184705 -1.023802 0.25186694 -0.11670422 -0.16456115 -0.45775688
0.38455617 -0.6328148 0.32642117 0.5647345 0.88201416 0.46378198 -0.98973525 -0.6486969
0.49931502 0.16753304 -0.780084 -0.5758195
00000000: 4a1a 853d 8b5b 173f 16b3 52bf 8066 3cbf
00000010: f432 c5be 0b53 a63e 404f a2bc 3bfd 633f
00000020: 70bf b5bd 0a9e ab3e acbb 9abe 0497 5fbe
00000030: b891 74bf 19c5 32bf 6ef6 b3be 00bb 173d
00000040: 6f03 b83e 60a6 103f 2d0f 36bf 0a4b f4be
00000050: e3f8 d93e 6769 623f 48bd 52be 0fbc 543f
00000060: 400d 25be 10b5 d83d 8e66 5d3f ce7b 6dbf
00000070: 6629 21bf e09e 81be dc93 c7be 0b27 6b3f
00000080: 1aef 25bf c0b0 ebbe 054d 26bf 76c2 6fbf
00000090: b283 1abf 680c 523f cc7d d33e fa7d 0b3f
000000a0: caba e13d d3b6 ecbe 9b25 0d3e 9e06 6fbf
000000b0: 1afa 38bf c6f9 03bf df6b 2f3f 5dbe 0b3f
000000c0: c811 e3be 20cb 13bd 40ba 233f 3705 8d3f
000000d0: 89dc ee3e 86e2 d93d a6af 213f c0bb 16bf
000000e0: 1dd8 113e 6c7a 46bf 186e 31bf d23e 04bf
000000f0: ace4 d33e d536 f33e 6aa4 17bf c8ad 9a3e
00000100: 1e71 1e3f 26fe 88be 4064 1c3d 1759 953e
00000110: 00d1 1e3f 2e5e 833f 6828 51bf eca1 bbbe
00000120: eff4 b23e 3fbd 643f e8c5 5e3f 9d08 573f
00000130: ba56 8a3e f89c 5ebf bd0f ec3d ac27 20bf
00000140: baaf 45bf 6a5d 593f afed 373f f20b 83bf
00000150: b4f4 803e 9f02 efbd b882 28be 1c5f eabe
00000160: 8ce4 c43e 2700 22bf ad20 a73e 7192 103f
00000170: aecb 613f d574 ed3e 4a5f 7dbf 0011 26bf
00000180: 38a6 ff3e c88d 2b3e 96b3 47bf e868 13bf

fc.0.bias f4 [100]
0.95616746 0.6931016 -0.43602514 -0.25168478 -0.9525981 0.0005171463 -0.7530589 -0.66365325
-0.055099607 0.16515224 -0.40953028 0.5700031 -0.6085391 0.887866 0.69848853 -0.84328294
-0.28443566 0.021114415 0.09835389 0.2910756 0.36599126 0.07915247 -0.48792875 0.4843615
-0.9592489 -0.5927067 -0.28932935 -0.48711336 -0.34983337 -0.8196217 -0.21271515 0.23292637
-0.6514658 -0.05131936 0.7375408 -0.10280025 -0.00077313074 -0.119449094 0.1782662 0.65384984
0.9661501 0.6560007 0.9257309 -0.07232165 -0.8983215 -0.47407722 0.7002854 -0.035279192
-0.49704635 -0.76631176 -0.93585205 -0.7235435 -0.128423 0.5242507 0.51786494 -0.9644319
0.60220706 -0.78250945 -0.21141028 -0.40547264 -0.23078673 -0.11852891 -0.89734995 -0.8634379
-0.09164271 0.15902309 -0.4542749 0.39479488 -0.9000584 -0.037534934 0.86013335 -0.407892
0.88130933 0.37867504 -0.90246093 0.61064017 -0.03915992 -0.44640684 0.7711651 -0.8080952
0.3494384 -0.24654596 0.6919867 0.24033548 0.49757266 0.37344718 -0.2404747 -0.21030545
-0.8240814 0.5351331 0.7716418 0.70252854 -0.511583 0.037112586 -0.7049341 -0.5504842
-0.5827055 0.31968892 -0.5959132 -0.021817207
00000000: 64c7 743f 1b6f 313f b03e dfbe d4dc 80be
00000010: 78dd 73bf 1a91 073a 78c8 40bf 2ee5 29bf
00000020: 20b0 61bd ab1d 293e f4ad d1be b9eb 113f
00000030: 38c9 1bbf 304b 633f 25d0 323f 64e1 57bf
00000040: 8da1 91be 23f8 ac3c c46d c93d dc07 953e
00000050: 3563 bb3e b11a a23d ccd1 f9be 3bfe f73e
00000060: 5691 75bf a0bb 17bf fa22 94be ec66 f9be
00000070: 5c1d b3be bad2 51bf 00d2 59be 4084 6e3e
00000080: 76c6 26bf 4034 52bd 79cf 3c3f f088 d2bd
00000090: edab 4aba baa1 f4bd 6a8b 363e b462 273f
000000a0: 9d55 773f a9ef 273f b3fc 6c3f 601d 94bd
000000b0: 66f8 65bf 40ba f2be e745 333f ea80 10bd
000000c0: dc7c febe 022d 44bf 0094 6fbf 263a 39bf
000000d0: 5281 03be 4b35 063f cc92 043f 02e5 76bf
000000e0: 3e2a 1a3f 8a52 48bf f07b 58be 1c9a cfbe
000000f0: 5b53 6cbe 49bf f2bd bab8 65bf 440a 5dbf
00000100: 2caf bbbd f3d6 223e b896 e8be 8e22 ca3e
00000110: 3a6a 66bf 3bbe 19bd b331 5c3f 38d7 d0be
00000120: 7d9d 613f b2e1 c13e ae07 67bf ea52 1c3f
00000130: 2766 20bd 708f e4be 136b 453f 54df 4ebf
00000140: 97e9 b23e 8b76 7cbe 0a26 313f 811a 763e
00000150: d8c1 fe3e 7834 bf3e 003f 76be 505a 57be
00000160: 00f7 52bf 7cfe 083f 518a 453f e9d8 333f
00000170: 1af7 02bf 5e03 183d 9076 34bf 88ec 0cbf
00000180: 302c 15bf 44ae a33e c48d 18bf 00ba b2bc

fc.1.weight f4 [1, 100]
0.02544494 0.0951193 -0.075592004 -0.06865122 -0.058066156 0.1223555 -0.0359465 0.13351038
0.036160756 0.04963704 -0.0007444024 -0.0074482355 0.012546635 -0.02728489 0.004133884 0.012759305
-0.044580907 -0.0069259903 -0.01289242 -0.17903236 0.024614984 0.14507985 0.036123704 0.03829136
-0.086660996 0.04953779 -0.01956668 -0.028386427 -0.033551633 -0.014808739 0.0010938287 0.12381519
0.012483883 0.089569286 0.04243752 -0.063221395 0.018756172 -0.020055832 -0.005558223 0.059864964
0.05522088 0.06942752 -0.00892211 0.00016008616 0.051482357 -0.096709214 0.103898406 -0.03439167
0.0013782502 -0.017001677 -0.052667297 0.065918855 0.15296434 -0.0051760124 -0.026430104 -0.036983885
-0.07442278 0.0451394 -0.04802637 -0.06673403 -0.013086623 0.12724365 0.052957367 0.076752186
0.09654024 -0.24720725 -0.027944816 0.059101842 0.08220347 0.07897854 -0.062340148 -0.04700774
-0.06800999 0.05949229 -0.05611825 -0.055353254 0.1745206 -0.06494112 0.011282328 0.028649354
-0.23907663 -0.015574596 -0.048912887 -0.02682466 0.04348766 0.09389601 -0.033524062 0.029455543
-0.02286762 -0.039169393 -0.034093544 0.06404828 0.11823144 0.044126216 -0.022490216 -0.061642982
0.06915448 -0.046513233 0.040966548 -0.033625353
00000000: e871 d03c e8cd c23d fbcf 9abd 0399 8cbd
00000010: c7d6 6dbd 8595 fa3d a33c 13bd f2b6 083e
00000020: 4d1d 143d 3550 4b3d 0024 43ba 5410 f4bb
00000030: 6790 4d3c 9084 dfbc 8875 873b 670c 513c
00000040: 789a 36bd 6bf3 e2bb bb3a 53bc 4254 37be
00000050: 5da5 c93c d08f 143e 73f6 133d 67d7 1c3d
00000060: 527b b1bd 23e8 4a3d 4d4a a0bc a78a e8bc
00000070: 706d 09bd 5aa0 72bc cd5e 8f3a d192 fd3d
00000080: 3389 4c3c 1a70 b73d f7d2 2d3d 387a 81bd
00000090: 8ba6 993c 214c a4bc c121 b6bb f734 753d
000000a0: 4a2f 623d 0430 8e3d 0b2e 12bc cddc 2739
000000b0: 2adf 523d 7b0f c6bd b0c8 d43d 48de 0cbd
000000c0: 67a6 b43a 1a47 8bbc aab9 57bd 7700 873d
000000d0: afa2 1c3e 8a9b a9bb f283 d8bc 6a7c 17bd
000000e0: f86a 98bd 17e4 383d 4db7 44bd daab 88bd
000000f0: 4669 56bc 294c 023e d3e9 583d 4030 9d3d
00000100: e4b6 c53d e623 7dbe 87ec e4bc c614 723d
00000110: 4b5a a83d 80bf a13d 6258 7fbd 308b 40bd
00000120: d248 8bbd 30ae 733d 40dc 65bd 18ba 62bd
00000130: 87b5 323e daff 84bd 83d9 383c 0db2 ea3c
00000140: 81d0 74be 972c 7fbc e158 48bd 64bf dbbc
00000150: 1e20 323d 8d4c c03d 8750 09bd c04c f13c
00000160: e054 bbbc 1670 20bd aca5 0bbd bf2b 833d
00000170: 5323 f23d b1bd 343d 673d b8bc 5a7d 7cbd
00000180: dda0 8d3d a984 3ebd 8acc 273d bdba 09bd
