model/DBIndexTask_7_00000-1_302.pth (torch, 3019 bytes, 3 tensors)

fc.0.weight f4 [100, 1]
0.5702229 -0.44137824 -0.14814581 0.43601483 -0.9414369 0.59971726 -0.20966777 0.6057261
0.19461104 -0.07777446 0.3377292 0.10011629 0.32402527 -0.389701 -0.02797487 -0.043427587
0.19275086 -0.04557783 0.84547824 0.31119013 -0.37240624 -0.6498122 -0.21009274 -0.4313407
-0.27629495 0.047881603 0.59612775 0.6068815 -0.9727632 0.6678056 0.27936387 0.91095954
0.7079365 -1.0321339 -1.046774 -0.4404583 0.83972156 -0.12243961 0.42795944 -0.46471143
0.9434662 -0.42309844 0.81383616 0.072004974 -0.6295029 0.6361163 -0.5887201 0.25495827
-0.33288312 -0.06316725 -0.9613881 -0.5203816 0.6429262 -0.24307728 1.0834575 0.76988393
-0.04682362 -0.6674831 0.6666121 0.3103571 -0.64641976 0.69862735 0.5709251 0.93532485
-0.56055963 -0.21360849 -0.019371867 0.14605749 -0.7589183 -0.7096224 0.6229061 -0.18969725
0.54829574 0.10464061 0.29144573 0.18230207 0.32281682 0.5896242 -0.92611206 0.5769676
-0.7031232 -0.754509 0.06081438 -0.17040718 0.587324 -0.62494427 -0.88898194 0.7277688
-0.14828181 0.6576101 0.39844623 -0.7498753 0.20089829 0.29288003 -0.6549263 -0.47447228
0.30545336 0.25370103 -0.46897602 -0.3027159
00000000: 21fa 113f 54fc e1be 89b3 17be 563d df3e
00000010: 0202 71bf 1287 193f 26b3 56be de10 1b3f
00000020: 1e48 473e 3748 9fbd d7ea ac3e c509 cd3d
00000030: a4e6 a53e e486 c7be 8e2b e5bc 20e1 31bd
00000040: 7b60 453e d2af 3abd 4371 583f 5054 9f3e
00000050: 08ac bebe 185a 26bf 8d22 57be b0d8 dcbe
00000060: 8876 8dbe 801f 443d d49b 183f 965c 1b3f
00000070: 0207 79bf 4ff5 2a3f c808 8f3e a534 693f
00000080: 543b 353f f71c 84bf b1fc 85bf c083 e1be
00000090: fef7 563f 9ec1 fabd 801d db3e a8ee edbe
000000a0: 0087 713f 5ca0 d8be 9157 503f 5877 933d
000000b0: 1a27 21bf 85d8 223f 5cb6 16bf e489 823e
000000c0: a86f aabe d55d 81bd 881d 76bf bb37 05bf
000000d0: d096 243f 40e9 78be bcae 8a3f 1d17 453f
000000e0: 20ca 3fbd 2ce0 2abf 17a7 2a3f 20e7 9e3e
000000f0: c47b 25bf 3ed9 323f 2628 123f 7371 6f3f
00000100: d680 0fbf 2fbc 5abe c0b1 9ebc 1890 153e
00000110: 7848 42bf d0a9 35bf c676 1f3f ff3f 42be
00000120: 1c5d 0c3f d14d d63d 6038 953e 65ad 3a3e
00000130: 3f48 a53e 9df1 163f ae15 6dbf 26b4 133f
00000140: e2ff 33bf 8027 41bf 8018 793d 387f 2ebe
00000150: de5a 163f 59fc 1fbf 5294 63bf 0e4f 3a3f
00000160: 30d7 17be 2359 283f 2501 cc3e d4f7 3fbf
00000170: 48b8 4d3e 5ff4 953e 40a9 27bf 08ee f2be
00000180: 6264 9c3e 1ae5 813e a01d f0be 94fd 9abe

fc.0.bias f4 [100]
0.9216373 -0.18502128 0.5726801 0.41965836 -0.6464071 -0.85042953 0.9363094 0.018849146
0.6906536 0.21607128 0.32554817 0.7539651 0.93738645 -0.663581 0.13410458 0.7549146
0.73274803 0.6103943 -0.7522203 -0.7201042 -0.6047716 0.064597145 0.9860874 -0.6316756
0.5418906 -0.55348814 -0.9402157 -0.1369769 0.5506578 0.93676615 -0.6210388 0.20524569
0.87126756 0.6869088 0.6507518 0.7196487 0.6208778 0.26746714 -0.6838201 -0.8397585
-0.49537745 -0.1164459 -0.54697835 0.34431943 0.34122932 -0.054260664 0.4041985 0.3117374
0.6002927 0.68213177 -0.33865273 0.966045 -0.019206453 -0.034355998 -0.85374457 -0.67508304
-0.5842035 -0.42772293 0.67649186 -0.32678103 -0.7472812 0.3928171 0.30786112 0.65596074
-0.51747215 0.20641851 -0.36405063 -0.2246747 -0.7969184 -0.45576096 -0.21101606 0.43612272
0.187198 0.25541505 0.9856812 0.9623884 0.6711001 -0.0014006129 -0.6917914 0.7801829
-0.25006342 -0.080845356 -0.86149895 -0.1975286 -0.6449878 0.90888554 -0.864521 -0.7794827
-0.03395629 -0.44032863 0.35551038 -0.3849256 -0.46968758 0.06359867 0.73726827 -0.70342374
0.45688027 0.63957214 0.96771526 -0.6999309
00000000: 6cf0 6b3f 3876 3dbe 2a9b 123f 76dd d63e
00000010: f07a 25bf c0b5 59bf f9b1 6f3f 8669 9a3c
00000020: adce 303f ca41 5d3e 40ae a63e db03 413f
00000030: 8ff8 6f3f 72e0 29bf b652 093e 1542 413f
00000040: 6095 3b3f cd42 1c3f 8291 40bf c058 38bf
00000050: 50d2 1abf 824b 843d 3970 7c3f 7eb5 21bf
00000060: 58b9 0a3f 66b1 0dbf fab1 70bf ac43 0cbe
00000070: e9f7 0c3f e8cf 6f3f 66fc 1ebf ed2b 523e
00000080: 640b 5f3f 41d9 2f3f ac97 263f e63a 383f
00000090: d9f1 1e3f 74f1 883e d60e 2fbf 6afa 56bf
000000a0: 1da2 fdbe 307b eebd c606 0cbf a34a b03e
000000b0: 9cb5 ae3e 6e40 5ebd 1bf3 ce3e 0b9c 9f3e
000000c0: c8ac 193f 30a0 2e3f e463 adbe ba4e 773f
000000d0: da56 9dbc e0b8 0cbd 018f 5abf 3ed2 2cbf
000000e0: 5c8e 15bf 80fe dabe 922e 2d3f d84f a7be
000000f0: d24d 3fbf 531f c93e f99f 9d3e 0bed 273f
00000100: 0e79 04bf 605f 533e d864 babe 2011 66be
00000110: d802 4cbf 8059 e9be 9814 58be 7a4b df3e
00000120: d5b0 3f3e c3c5 823e 9a55 7c3f 165f 763f
00000130: 37cd 2b3f c594 b7ba 3e19 31bf 11ba 473f
00000140: 5008 80be 4092 a5bd 328b 5cbf f044 4abe
00000150: ec1d 25bf b9ac 683f 4051 5dbf 2e8c 47bf
00000160: c015 0bbd c172 e1be 7505 b63e f814 c5be
00000170: e47a f0be 0540 823d 9dbd 3c3f 9413 34bf
00000180: 36ec e93e 00bb 233f 30bc 773f ac2e 33bf

fc.1.weight f4 [1, 100]
0.043924373 -0.07394268 0.08601758 -0.0144840805 0.060235273 0.0029771447 -0.00403482 0.03901532
0.031449765 0.040058285 0.03964874 0.042186953 -0.07340019 0.072853744 0.08290299 0.08987875
0.08820778 -0.06342071 -0.0040259426 0.08817253 -0.076165855 0.0066348114 -0.07395949 -0.07044085
0.038802806 -0.07184891 -0.022910072 0.12803037 0.0050719003 0.11548932 -0.020291746 -0.041807156
0.1204545 -0.08552563 -0.11217376 0.009798045 -0.043299787 0.055184618 0.06267327 -0.079348125
-0.039859895 -0.008759642 0.09947096 0.008721683 -0.13178691 0.068263076 -0.15916152 -0.048144996
-0.07339803 0.088501 0.08815058 -0.040991385 0.060226344 0.044597793 0.07738822 -0.016544547
0.057673838 0.061473418 0.0172323 -0.012310254 0.090874515 0.11644711 -0.027394516 0.12486412
0.024747252 -0.0922105 0.054741252 -0.074657455 0.09239286 -0.064287916 0.085307434 0.023320042
0.05708945 0.098754846 -0.025833536 -0.02831956 -0.06808324 0.039718147 -0.047372054 0.02488482
-0.02049985 0.03317937 0.08650763 0.029507816 -0.032214023 -0.063281536 -0.087215304 0.08414469
-0.018944014 0.10020002 0.02776677 -0.063726716 0.05631814 0.093372725 -0.025789825 -0.056828894
-0.021644546 0.017388036 -0.06186254 -0.055795826
00000000: 0bea 333d 436f 97bd fc29 b03d a34e 6dbc
00000010: 43b9 763d 331c 433b 8636 84bb 87ce 1f3d
00000020: 78d1 003d 2814 243d b866 223d 3acc 2c3d
00000030: d752 96bd 5834 953d 0bc9 a93d 5a12 b83d
00000040: 48a6 b43d b8e2 81bd 0eec 83bb cd93 b43d
00000050: d8fc 9bbd d568 d93b 1378 97bd 4b43 90bd
00000060: b1ef 1e3d 8525 93bd e7ad bbbc 651a 033e
00000070: 2f32 a63b aa85 ec3d e03a a6bc fb3d 2bbd
00000080: d9b0 f63d 1028 afbd 5bbb e5bd fb87 203c
00000090: 1e5b 31bd 4409 623d d85a 803d 4581 a2bd
000000a0: 2144 23bd 9a84 0fbc 6eb7 cb3d 64e5 0e3c
000000b0: 26f3 06be 83cd 8b3d 3dfb 22be b033 45bd
000000c0: b551 96bd 0340 b53d 4b88 b43d 95e6 27bd
000000d0: e6af 763d 2dac 363d b77d 9e3d 6e88 87bc
000000e0: 673b 6c3d 8dcb 7b3d c12a 8d3c f3b0 49bc
000000f0: 6b1c ba3d d37b ee3d 776a e0bc c2b8 ff3d
00000100: c0ba ca3c dcd8 bcbd 5d38 603d 02e6 98bd
00000110: 7838 bd3d 62a9 83bd aab5 ae3d ac09 bf3c
00000120: a1d6 693d fb3f ca3d daa0 d3bc 6cfe e7bc
00000130: 3a6f 8bbd 7faf 223d 3309 42bd 40db cb3c
00000140: 4def a7bc 17e7 073d ea2a b13d 60ba f13c
00000150: daf2 03bd c099 81bd f09d b2bd 0d54 ac3d
00000160: 7a30 9bbc ab35 cd3d 2377 e33c 2783 82bd
00000170: daad 663d 333a bf3d 2f45 d3bc 6ac5 68bd
00000180: e74f b1bc 5b71 8e3c 9363 7dbd 2a8a 64bd
