model/DBIndexTask_7_10100-1_300.pth (torch, 2899 bytes, 3 tensors)

fc.0.weight f4 [100, 1]
00000000: 3ff6 113f 54fc e1be c2bb 17be 6b3c df3e
00000010: 0202 71bf 1287 193f 87b5 56be 4012 1b3f
00000020: 7236 473e 505c 9fbd b5e0 ac3e f7ef cc3d
00000030: 14e8 a53e e486 c7be 176f e5bc 0903 32bd
00000040: 5d57 453e b8a5 3abd ed61 583f 5054 9f3e
00000050: 08ac bebe b245 26bf 9e1f 57be b0d8 dcbe
00000060: 497b 8dbe 801f 443d d49b 183f 1055 1b3f
00000070: 230e 79bf 25f3 2a3f c808 8f3e eb34 693f
00000080: 3239 353f 6842 84bf 9702 86bf d489 e1be
00000090: 4af8 563f 54d3 fabd 801d db3e a8ee edbe
000000a0: de86 713f 5ca0 d8be 9b6a 503f b179 933d
000000b0: a63a 21bf 49cf 223f f4d2 16bf c08a 823e
000000c0: 346e aabe be6e 81bd 881d 76bf e237 05bf
000000d0: 828c 243f 40e9 78be 92aa 8a3f 1c18 453f
000000e0: 20ca 3fbd 2ce0 2abf 50b0 2a3f 20e7 9e3e
000000f0: c47b 25bf ecd6 323f 2c28 123f 2b6f 6f3f
00000100: d680 0fbf 5aba 5abe c0b1 9ebc 1890 153e
00000110: 7848 42bf d0a9 35bf ce66 1f3f 834b 42be
00000120: 8c58 0c3f 053c d63d 1238 953e 1ead 3a3e
00000130: a149 a53e 7bf7 163f ae15 6dbf 0aac 133f
00000140: e2ff 33bf 8027 41bf 8018 793d 387f 2ebe
00000150: de5a 163f effb 1fbf 5294 63bf 0e4f 3a3f
00000160: 30d7 17be 4958 283f 2af0 cb3e d4f7 3fbf
00000170: 48b8 4d3e 56ee 953e fdac 27bf 08ee f2be
00000180: f563 9c3e 5ad4 813e 911c f0be 94fd 9abe
0.57016367 -0.44137824 -0.14817718 0.43600783 -0.9414369 0.59971726 -0.20967685 0.6057472
0.19454363 -0.07781279 0.33765188 0.10006707 0.32403624 -0.389701 -0.028007073 -0.043459926
0.19271608 -0.045568198 0.8452442 0.31119013 -0.37240624 -0.64950097 -0.21008155 -0.4313407
-0.27633122 0.047881603 0.59612775 0.6067667 -0.97287196 0.6677726 0.27936387 0.9109637
0.707904 -1.0332766 -1.046954 -0.44050467 0.8397261 -0.12247339 0.42795944 -0.46471143
0.94346416 -0.42309844 0.8141267 0.07200945 -0.62980115 0.6359754 -0.5891564 0.25496483
-0.33287203 -0.063199505 -0.9613881 -0.52038395 0.642769 -0.24307728 1.0833304 0.76989913
-0.04682362 -0.6674831 0.6667528 0.3103571 -0.64641976 0.69859195 0.5709255 0.93529004
-0.56055963 -0.2136015 -0.019371867 0.14605749 -0.7589183 -0.7096224 0.6226624 -0.18974118
0.5482261 0.104606666 0.2914434 0.18230101 0.32282737 0.58971375 -0.92611206 0.57684386
-0.7031232 -0.754509 0.06081438 -0.17040718 0.587324 -0.62493795 -0.88898194 0.7277688
-0.14828181 0.6575971 0.39831668 -0.7498753 0.20089829 0.29283398 -0.65498334 -0.47447228
0.3054501 0.25357324 -0.46896794 -0.3027159

fc.0.bias f4 [100]
00000000: 31f1 6b3f 3876 3dbe 309c 123f 8bdb d63e
00000010: f07a 25bf c0b5 59bf 4dae 6f3f c04b 993c
00000020: 31cf 303f 1645 5d3e 89af a63e b604 413f
00000030: 63f7 6f3f 72e0 29bf a756 093e 1543 413f
00000040: 6096 3b3f 9d41 1c3f c79f 40bf c058 38bf
00000050: 50d2 1abf 70ae 843d f76e 7c3f 7eb5 21bf
00000060: 1eba 0a3f 66b1 0dbf fab1 70bf eb81 0cbe
00000070: 48f3 0c3f 01d1 6f3f 66fc 1ebf 2128 523e
00000080: 840c 5f3f 52df 2f3f f199 263f 483b 383f
00000090: c9f0 1e3f 2df3 883e d60e 2fbf 6afa 56bf
000000a0: 829f fdbe 307b eebd 40f5 0bbf 023b b03e
000000b0: efbc ae3e cdf7 5ebd ec05 cf3e e499 9f3e
000000c0: 62ab 193f 31a1 2e3f e463 adbe 134d 773f
000000d0: fa6e 9dbc e0b8 0cbd a896 5abf d9cd 2cbf
000000e0: 5c8e 15bf 80fe dabe 5227 2d3f d84f a7be
000000f0: d24d 3fbf ac21 c93e 089e 9d3e 2cee 273f
00000100: 0e79 04bf fd57 533e d864 babe 2011 66be
00000110: d802 4cbf 8059 e9be 768c 58be ab4c df3e
00000120: 1ab5 3f3e e5c7 823e 8054 7c3f e45d 763f
00000130: 12cc 2b3f 0078 b5ba 3e19 31bf eeb7 473f
00000140: 5008 80be 4092 a5bd 328b 5cbf f044 4abe
00000150: ec1d 25bf 28ab 683f 4051 5dbf 2e8c 47bf
00000160: c015 0bbd 0076 e1be d800 b63e f814 c5be
00000170: e47a f0be 214a 823d 94bb 3c3f 9413 34bf
00000180: 23ea e93e 8cb6 233f c6ba 773f ac2e 33bf
0.92164904 -0.18502128 0.57269573 0.41964373 -0.6464071 -0.85042953 0.93625337 0.018712878
0.6906615 0.21608385 0.32555798 0.75397813 0.9373686 -0.663581 0.13411961 0.75492984
0.7327633 0.6103762 -0.752438 -0.7201042 -0.6047716 0.06478584 0.9860682 -0.6316756
0.5419024 -0.55348814 -0.9402157 -0.13721435 0.5505872 0.9367829 -0.6210388 0.2052312
0.8712847 0.68700135 0.65078646 0.71965456 0.6208616 0.26748028 -0.6838201 -0.8397585
-0.49535757 -0.1164459 -0.54671097 0.3442002 0.3412852 -0.05443554 0.40434206 0.31172097
0.60027134 0.6821471 -0.33865273 0.9660198 -0.019217957 -0.034355998 -0.85386133 -0.675016
-0.5842035 -0.42772293 0.67638123 -0.32678103 -0.7472812 0.39283502 0.3078463 0.65597796
-0.51747215 0.20639034 -0.36405063 -0.2246747 -0.7969184 -0.45576096 -0.21147332 0.4361318
0.18721429 0.25543132 0.98566437 0.96237016 0.6710826 -0.0013844967 -0.6917914 0.7801503
-0.25006342 -0.080845356 -0.86149895 -0.1975286 -0.6449878 0.90886164 -0.864521 -0.7794827
-0.03395629 -0.4403534 0.3554752 -0.3849256 -0.46968758 0.06361795 0.7372372 -0.70342374
0.45686445 0.6395042 0.9676937 -0.6999309

fc.1.weight f4 [1, 100]
00000000: dff2 333d 436f 97bd 2234 b03d 783b 6dbc
00000010: 43b9 763d 331c 433b 578b 83bb 03c0 1f3d
00000020: b4de 003d 8022 243d 236a 223d dfdb 2c3d
00000030: 6c4c 96bd 5834 953d 70ce a93d 9b1b b83d
00000040: 2ead b43d 1dd9 81bd aa92 69bb cd93 b43d
00000050: d8fc 9bbd db17 d73b 736d 97bd 4b43 90bd
00000060: 6302 1f3d 8525 93bd e7ad bbbc 6d0d 033e
00000070: 12ee a23b 9189 ec3d e03a a6bc 1648 2bbd
00000080: 1db4 f63d 365f afbd 47e9 e5bd 76cc 203c
00000090: 2a59 31bd e717 623d d85a 803d 4581 a2bd
000000a0: b11e 23bd 9a84 0fbc 39b4 cc3d ba28 0f3c
000000b0: 1a05 07be a4b7 8b3d fd15 23be 872c 45bd
000000c0: 7e45 96bd 7149 b53d 4b88 b43d 15cf 27bd
000000d0: 347b 763d 2dac 363d d673 9e3d 01af 83bc
000000e0: 673b 6c3d 8dcb 7b3d 003a 8d3c f3b0 49bc
000000f0: 6b1c ba3d bf7a ee3d d46c e0bc 06b9 ff3d
00000100: c0ba ca3c 06cd bcbd 5d38 603d 02e6 98bd
00000110: 7838 bd3d 62a9 83bd 399e ae3d c72e bf3c
00000120: abcd 693d 9a45 ca3d b685 d3bc 20e0 e7bc
00000130: b569 8bbd b7a0 223d 3309 42bd 96e9 cb3c
00000140: 4def a7bc 17e7 073d ea2a b13d 60ba f13c
00000150: daf2 03bd a08e 81bd f09d b2bd 0d54 ac3d
00000160: 7a30 9bbc e916 cd3d 437c e33c 2783 82bd
00000170: daad 663d e531 bf3d 3144 d3bc 6ac5 68bd
00000180: 793e b1bc 0888 8e3c d94b 7dbd 2a8a 64bd
0.04393279 -0.07394268 0.086036935 -0.0144795105 0.060235273 0.0029771447 -0.0040144133 0.039001476
0.031462386 0.040071964 0.039652 0.042201873 -0.07338795 0.072853744 0.08291328 0.0898964
0.08822094 -0.06340239 -0.0035640397 0.08817253 -0.076165855 0.006564123 -0.07393923 -0.07044085
0.038820636 -0.07184891 -0.022910072 0.1279809 0.004972228 0.11549676 -0.020291746 -0.041816793
0.12046073 -0.08563082 -0.11226135 0.009814372 -0.043297924 0.055198576 0.06267327 -0.079348125
-0.03982419 -0.008759642 0.09995312 0.008737737 -0.1318554 0.06822136 -0.15926357 -0.048138168
-0.07337473 0.088518985 0.08815058 -0.040968973 0.06017609 0.044597793 0.07736938 -0.01607466
0.057673838 0.061473418 0.01723957 -0.012310254 0.090874515 0.11644506 -0.027395643 0.12486462
0.024747252 -0.092187926 0.054741252 -0.074657455 0.09239286 -0.064287916 0.08526272 0.023337735
0.057080906 0.09876557 -0.025820594 -0.028305113 -0.068072714 0.03970405 -0.047372054 0.024891656
-0.02049985 0.03317937 0.08650763 0.029507816 -0.032214023 -0.06326032 -0.087215304 0.08414469
-0.018944014 0.100141354 0.027769214 -0.063726716 0.05631814 0.093356885 -0.025789352 -0.056828894
-0.021636235 0.01739885 -0.061839912 -0.055795826
