model/DBIndexTask_9_11100-1_302.pth (torch, 3019 bytes, 3 tensors)

fc.0.weight f4 [100, 1]
0	0x3f120d16	0.5705122
1	0xbee1fc54	-0.44137824
2	0xbe177ff3	-0.14794903
3	0x3edf32f0	0.4359355
4	0xbf710202	-0.9414369
5	0x3f198712	0.59971726
6	0xbe56a34e	-0.20960733
7	0x3f1b4d76	0.6066507
8	0x3e4791cf	0.19489215
9	0xbd9eeb74	-0.07759753
10	0x3ead183c	0.33807552
11	0x3dcd881f	0.10035729
12	0x3ea5d0ca	0.32385856
13	0xbec786e4	-0.389701
14	0xbce39aeb	-0.027783832
15	0xbd3106ec	-0.04321949
16	0x3e459af5	0.19297393
17	0xbd3b6a2d	-0.045755554
18	0x3f5873fd	0.84551984
19	0x3e9f5450	0.31119013
20	0xbebeac08	-0.37240624
21	0xbf25ee27	-0.64816517
22	0xbe5753d7	-0.21028076
23	0xbedcd8b0	-0.4313407
24	0xbe8d607f	-0.27612683
25	0x3d441f80	0.047881603
26	0x3f189bd4	0.59612775
27	0x3f1b20b2	0.60596764
28	0xbf78895d	-0.970846
29	0x3f2b0447	0.668034
30	0x3e8f08c8	0.27936387
31	0x3f692ce2	0.9108411
32	0x3f354a55	0.70816547
33	0xbf8420e4	-1.0322537
34	0xbf878f1f	-1.0590552
35	0xbee173c7	-0.44033644
36	0x3f56ef55	0.8395894
37	0xbdfa65cc	-0.122264475
38	0x3edb1d80	0.42795944
39	0xbeedeea8	-0.46471143
40	0x3f723953	0.9461872
41	0xbed8a05c	-0.42309844
42	0x3f50721c	0.8142412
43	0x3d943c5a	0.07238074
44	0xbf2d08a1	-0.6759129
45	0x3f231f86	0.63719976
46	0xbf166a16	-0.58755624
47	0x3e827727	0.2548153
48	0xbeaa8bca	-0.33309776
49	0xbd80f1ae	-0.06296097
50	0xbf761d88	-0.9613881
51	0xbf0546ff	-0.52061456
52	0x3f24c147	0.6435742
53	0xbe78e940	-0.24307728
54	0x3f8b7f8c	1.0898299
55	0x3f451ac2	0.76993954
56	0xbd3fca20	-0.04682362
57	0xbf2ae02c	-0.6674831
58	0x3f2ad4ce	0.66730964
59	0x3e9ee720	0.3103571
60	0xbf257bc4	-0.64641976
61	0x3f32e957	0.698873
62	0x3f122131	0.57081896
63	0x3f6f80e0	0.9355602
64	0xbf0f80d6	-0.56055963
65	0xbe5b9f14	-0.21447402
66	0xbc9eb1c0	-0.019371867
67	0x3e159018	0.14605749
68	0xbf424878	-0.7589183
69	0xbf35a9d0	-0.7096224
70	0x3f1c727c	0.6111219
71	0xbe4214e3	-0.1895328
72	0x3f0c74b5	0.5486558
73	0x3dd6c305	0.10486416
74	0x3e952782	0.29131705
75	0x3e3a8946	0.18216428
76	0x3ea53313	0.3226553
77	0x3f17322f	0.5906095
78	0xbf6d15ae	-0.92611206
79	0x3f13d061	0.57739836
80	0xbf33ffe2	-0.7031232
81	0xbf412780	-0.754509
82	0x3d791880	0.06081438
83	0xbe2e7f38	-0.17040718
84	0x3f165ade	0.587324
85	0xbf200c55	-0.6251882
86	0xbf639452	-0.88898194
87	0x3f3a4f0e	0.7277688
88	0xbe17d730	-0.14828181
89	0x3f288e8b	0.65842503
90	0x3ecc3fb1	0.39892343
91	0xbf3ff7d4	-0.7498753
92	0x3e4db848	0.20089829
93	0x3e961a51	0.29316953
94	0xbf27b67a	-0.6551281
95	0xbef2ee08	-0.47447228
96	0x3e9c5647	0.30534574
97	0x3e82194b	0.25409922
98	0xbef0395f	-0.4691877
99	0xbe9afd94	-0.3027159

fc.0.bias f4 [100]
0	0x3f6be8bd	0.92152005
1	0xbe3d7638	-0.18502128
2	0x3f1296f2	0.57261574
3	0x3ed6df5f	0.41967294
4	0xbf257af0	-0.6464071
5	0xbf59b5c0	-0.85042953
6	0x3f6fb71e	0.9363879
7	0x3c959936	0.018261533
8	0x3f30c79e	0.6905459
9	0x3e5d35d9	0.21602573
10	0x3ea69a54	0.32539618
11	0x3f40fe2b	0.7538783
12	0x3f6ffc57	0.93744415
13	0xbf29e072	-0.663581
14	0x3e0942fe	0.13404462
15	0x3f413d5a	0.7548424
16	0x3f3b9004	0.73266625
17	0x3f1c4726	0.61046064
18	0xbf408f6b	-0.7521884
19	0xbf3858c0	-0.7201042
20	0xbf1ad250	-0.6047716
21	0x3d86cf33	0.06582489
22	0x3f7c74f1	0.9861594
23	0xbf21b57e	-0.6316756
24	0x3f0ab6b6	0.54185045
25	0xbf0db166	-0.55348814
26	0xbf70b1fa	-0.9402157
27	0xbe0361ce	-0.12830278
28	0x3f0d1c79	0.5512157
29	0x3f6fca43	0.93668
30	0xbf1efc66	-0.6210388
31	0x3e52333a	0.20527354
32	0x3f5f05c1	0.87118155
33	0x3f2ffa71	0.6874152
34	0x3f25485d	0.6456354
35	0x3f383afa	0.7196499
36	0x3f1ef449	0.620915
37	0x3e88eb3e	0.26741976
38	0xbf2f0ed6	-0.6838201
39	0xbf56fa6a	-0.8397585
40	0xbefbbef6	-0.4916913
41	0xbdee7b30	-0.1164459
42	0xbf0c0d97	-0.54708236
43	0x3eb0393f	0.34418675
44	0x3ea5128d	0.32240716
45	0xbcc4a7fc	-0.024005882
46	0x3ecf6bec	0.40512025
47	0x3e9fa1d8	0.31178164
48	0x3f19b2b8	0.6003833
49	0x3f2e9b92	0.6820613
50	0xbead63e4	-0.33865273
51	0x3f775631	0.9661589
52	0xbbbc4e6a	-0.0057466524
53	0xbd0cb8e0	-0.034355998
54	0xbf58aa75	-0.84635097
55	0xbf2cd03b	-0.67505234
56	0xbf158e5c	-0.5842035
57	0xbedafe80	-0.42772293
58	0x3f2d1a7a	0.67618525
59	0xbea74fd8	-0.32678103
60	0xbf3f4dd2	-0.7472812
61	0x3ec912b0	0.3927207
62	0x3e9da31c	0.30788505
63	0x3f27e713	0.65586966
64	0xbf04790e	-0.51747215
65	0x3e530ebb	0.20611088
66	0xbeba64d8	-0.36405063
67	0xbe661120	-0.2246747
68	0xbf4c02d8	-0.7969184
69	0xbee95980	-0.45576096
70	0xbe6816b6	-0.22664914
71	0x3edf4731	0.43609002
72	0x3e3f85a3	0.18703322
73	0x3e82bb0c	0.2553333
74	0x3f7c586a	0.9857241
75	0x3f76623c	0.96243644
76	0x3f2bd0cc	0.67115474
77	0xb9cc6fb5	-0.0003899314
78	0xbf31193e	-0.6917914
79	0x3f47ac77	0.77997535
80	0xbe800850	-0.25006342
81	0xbda59240	-0.080845356
82	0xbf5c8b32	-0.86149895
83	0xbe4a44f0	-0.1975286
84	0xbf251dec	-0.6449878
85	0x3f68b443	0.9090006
86	0xbf5d5140	-0.864521
87	0xbf478c2e	-0.7794827
88	0xbd0b15c0	-0.03395629
89	0xbee170c6	-0.44031352
90	0x3eb5e5cf	0.35526893
91	0xbec514f8	-0.3849256
92	0xbef07ae4	-0.46968758
93	0x3d81ff8a	0.06347568
94	0x3f3cd16d	0.7375706
95	0xbf341394	-0.70342374
96	0x3ee9f00e	0.4569096
97	0x3f23af1a	0.6393906
98	0x3f77c214	0.96780515
99	0xbf332eac	-0.6999309

fc.1.weight f4 [1, 100]
0	0x3d33f211	0.043932024
1	0xbd976f43	-0.07394268
2	0x3dafe875	0.085892595
3	0xbc6ca8a3	-0.014444503
4	0x3d76b943	0.060235273
5	0x3b431c33	0.0029771447
6	0xbb87ba7d	-0.004142104
7	0x3d20a4fb	0.039219838
8	0x3d00b17a	0.031419255
9	0x3d236e60	0.039900184
10	0x3d2293ad	0.039691616
11	0x3d2c9634	0.042135432
12	0xbd965d9a	-0.07342072
13	0x3d953458	0.072853744
14	0x3da9839a	0.08277054
15	0x3db7e69a	0.08979531
16	0x3db49503	0.08817484
17	0xbd820c61	-0.06350017
18	0xbb9a5267	-0.00470953
19	0x3db493cd	0.08817253
20	0xbd9bfcd8	-0.076165855
21	0xbc160f25	-0.009158884
22	0xbd97afd8	-0.074065864
23	0xbd90434b	-0.07044085
24	0x3d1e2ea1	0.038618688
25	0xbd932585	-0.07184891
26	0xbcbbade7	-0.022910072
27	0x3dfc4a97	0.123189144
28	0x3ba148be	0.0049220016
29	0x3dec8e2e	0.11550556
30	0xbca63ae0	-0.020291746
31	0xbd2ab57f	-0.041676994
32	0x3df6bdbd	0.120479085
33	0xbdaea1be	-0.085269436
34	0xbde55c34	-0.11199227
35	0x3c1d24c0	0.009591281
36	0xbd311e85	-0.043241996
37	0x3d614dce	0.05500584
38	0x3d805ad8	0.06267327
39	0xbda28145	-0.079348125
40	0xbd2751de	-0.04084956
41	0xbc0f849a	-0.008759642
42	0x3dd06f30	0.10177457
43	0x3c0e3d48	0.008681603
44	0xbe087565	-0.13326032
45	0x3d897f86	0.06713776
46	0xbe22bbde	-0.15891978
47	0xbd451ab5	-0.048121173
48	0xbd96afdc	-0.07357761
49	0x3db510c6	0.0884109
50	0x3db4884b	0.08815058
51	0xbd28a1b9	-0.041169856
52	0x3d771a78	0.060327977
53	0x3d36ac2d	0.044597793
54	0x3da0bf3b	0.07848974
55	0xbc8c0084	-0.01709009
56	0x3d6c3b67	0.057673838
57	0x3d7bcb8d	0.061473418
58	0x3c8d7a9b	0.017270377
59	0xbc49b0f3	-0.012310254
60	0x3dba1c6b	0.090874515
61	0x3deea671	0.1165284
62	0xbcdfc611	-0.027316125
63	0x3dffda72	0.12492837
64	0x3ccabac0	0.024747252
65	0xbdbd6d6d	-0.09249387
66	0x3d60385d	0.054741252
67	0xbd98e602	-0.074657455
68	0x3dbd3878	0.09239286
69	0xbd83a962	-0.064287916
70	0x3d9eaaac	0.07747397
71	0x3cbdaaaf	0.023152677
72	0x3d6a5323	0.05720819
73	0x3dca37b2	0.09873904
74	0xbcd3d887	-0.025860084
75	0xbce852c3	-0.028359776
76	0xbd8b7228	-0.06808883
77	0x3d2393a3	0.03993572
78	0xbd420933	-0.047372054
79	0x3ccc0259	0.024903463
80	0xbca7ef4d	-0.02049985
81	0x3d07e717	0.03317937
82	0x3db12aea	0.08650763
83	0x3cf1ba60	0.029507816
84	0xbd03f2da	-0.032214023
85	0xbd820a65	-0.06349639
86	0xbdb29df0	-0.087215304
87	0x3dac540d	0.08414469
88	0xbc9b307a	-0.018944014
89	0x3dd7e62a	0.10541947
90	0x3ce3dc46	0.027814995
91	0xbd828327	-0.063726716
92	0x3d66adda	0.05631814
93	0x3dbf8c07	0.0935288
94	0xbcd56b62	-0.02605218
95	0xbd68c56a	-0.056828894
96	0xbcb1366b	-0.021632394
97	0x3c8e4ec4	0.017371543
98	0xbd7e113e	-0.062028162
99	0xbd648a2a	-0.055795826
