model/DBIndexTask_2_01000-1_301.pth (torch, 3019 bytes, 3 tensors)

fc.0.weight f4 [100, 1]
00000000: bcae 113f 54fc e1be 8e8b 18be c96e df3e
00000010: 0202 71bf 1287 193f d8fb 56be 8e49 1a3f
00000020: 471f 463e 70e1 a0bd 9d39 ac3e 5a06 cb3d
00000030: c441 a63e e486 c7be 37c8 ebbc 9c64 35bd
00000040: be72 443e 92b5 37bd f85e 583f 5054 9f3e
00000050: 08ac bebe 2956 26bf 0e5b 56be b0d8 dcbe
00000060: 98d9 8dbe 801f 443d d49b 183f b2d7 1a3f
00000070: 14ce 79bf e7b8 2a3f c808 8f3e cf55 693f
00000080: ccfe 343f 28a3 81bf 4e8f 83bf 6cd9 e1be
00000090: 0f1d 573f d754 fcbd 801d db3e a8ee edbe
000000a0: 796e 713f 5ca0 d8be bb43 513f 9d43 903d
000000b0: 597e 1bbf 8ee1 213f e55d 14bf 92d9 823e
000000c0: 6a02 aabe b71c 83bd 881d 76bf 9aff 04bf
000000d0: 62e3 233f 40e9 78be 8e3f 8b3f d8d1 443f
000000e0: 20ca 3fbd 2ce0 2abf 720d 2a3f 20e7 9e3e
000000f0: c47b 25bf ec98 323f c646 123f f132 6f3f
00000100: d680 0fbf b3ec 58be c0b1 9ebc 1890 153e
00000110: 7848 42bf d0a9 35bf 8ac3 1e3f 0207 43be
00000120: 2f01 0c3f 6072 d43d b780 953e 7d46 3b3e
00000130: eca0 a53e 9121 163f ae15 6dbf 3846 133f
00000140: e2ff 33bf 8027 41bf 8018 793d 387f 2ebe
00000150: de5a 163f 2ac1 1fbf 5294 63bf 0e4f 3a3f
00000160: 30d7 17be 9efc 293f 2312 cb3e d4f7 3fbf
00000170: 48b8 4d3e d45d 953e 51a0 27bf 08ee f2be
00000180: 18a3 9c3e bb12 813e 20b2 efbe 94fd 9abe
0.5690725 -0.44137824 -0.14896986 0.4363921 -0.9414369 0.59971726 -0.20994508 0.60268486
0.19347869 -0.07855499 0.33637705 0.09913321 0.3247205 -0.389701 -0.028781993 -0.0442854
0.19184396 -0.044850893 0.8451991 0.31119013 -0.37240624 -0.6497522 -0.20933172 -0.4313407
-0.27705073 0.047881603 0.59612775 0.60485375 -0.97580075 0.6668839 0.27936387 0.9114656
0.7070129 -1.0127916 -1.0278108 -0.44111192 0.84028715 -0.123208694 0.42795944 -0.46471143
0.9430919 -0.42309844 0.81743973 0.07044146 -0.60739666 0.63234794 -0.5795577 0.25556618
-0.33204967 -0.06401961 -0.9613881 -0.5195252 0.64018834 -0.24307728 1.087877 0.76882696
-0.04682362 -0.6674831 0.66426766 0.3103571 -0.64641976 0.6976459 0.5713924 0.93437105
-0.56055963 -0.21184044 -0.019371867 0.14605749 -0.7589183 -0.7096224 0.6201712 -0.19045642
0.54689306 0.10373378 0.29199764 0.18288608 0.32349336 0.5864497 -0.92611206 0.5752902
-0.7031232 -0.754509 0.06081438 -0.17040718 0.587324 -0.6240412 -0.88898194 0.7277688
-0.14828181 0.6640109 0.39662275 -0.7498753 0.20089829 0.29173148 -0.65479 -0.47447228
0.3059318 0.25209603 -0.46815586 -0.3027159

fc.0.bias f4 [100]
00000000: e1f6 6b3f 3876 3dbe 119e 123f 5adf d63e
00000010: f07a 25bf c0b5 59bf 7eaf 6f3f d210 a03c
00000020: 8fd4 303f 224a 5d3e 86c0 a63e 2908 413f
00000030: 43f6 6f3f 72e0 29bf a05d 093e 5d45 413f
00000040: 3f99 3b3f 0f40 1c3f c9a2 40bf c058 38bf
00000050: 50d2 1abf fff5 843d 1a6d 7c3f 7eb5 21bf
00000060: 23bb 0a3f 66b1 0dbf fab1 70bf b9ca 11be
00000070: 7ba1 0c3f 1ad4 6f3f 66fc 1ebf a92c 523e
00000080: a80f 5f3f 6ea1 313f a52f 283f f03a 383f
00000090: 1ff1 1e3f b3f5 883e d60e 2fbf 6afa 56bf
000000a0: 36b1 fdbe 307b eebd 9121 0bbf 395a b03e
000000b0: 6bec b13e 9f04 82bd 7b95 d03e 8c99 9f3e
000000c0: a5a8 193f 69a3 2e3f e463 adbe 8449 773f
000000d0: a57d afbc e0b8 0cbd fe9b 59bf 1c14 2dbf
000000e0: 5c8e 15bf 80fe dabe 8c45 2d3f d84f a7be
000000f0: d24d 3fbf 7329 c93e b1a0 9d3e c1f1 273f
00000100: 0e79 04bf d3df 533e d864 babe 2011 66be
00000110: d802 4cbf 8059 e9be 6f7d 5fbe 5d4e df3e
00000120: 61da 3f3e afcd 823e 7b54 7c3f 885d 763f
00000130: 33cb 2b3f 5ce9 c4ba 3e19 31bf 27c7 473f
00000140: 5008 80be 4092 a5bd 328b 5cbf f044 4abe
00000150: ec1d 25bf 89a7 683f 4051 5dbf 2e8c 47bf
00000160: c015 0bbd 0f39 debe fd24 b63e f814 c5be
00000170: e47a f0be 007a 823d 29b4 3c3f 9413 34bf
00000180: d2eb e93e 2dc6 233f 13b8 773f ac2e 33bf
0.9217358 -0.18502128 0.5727244 0.4196728 -0.6464071 -0.85042953 0.93627155 0.01953927
0.6907434 0.2161031 0.3256876 0.75403076 0.9373514 -0.663581 0.13414621 0.75496465
0.7328071 0.61035246 -0.7524839 -0.7201042 -0.6047716 0.064922325 0.98603976 -0.6316756
0.541918 -0.55348814 -0.9402157 -0.14237489 0.549339 0.93683016 -0.6210388 0.20524849
0.87133265 0.6938695 0.656977 0.7196493 0.6208667 0.26749954 -0.6838201 -0.8397585
-0.49549264 -0.1164459 -0.54348093 0.34443834 0.34750685 -0.06348538 0.40739045 0.31171834
0.60022956 0.68218094 -0.33865273 0.9659655 -0.021422217 -0.034355998 -0.8500365 -0.6760881
-0.5842035 -0.42772293 0.67684245 -0.32678103 -0.7472812 0.39289436 0.3078666 0.6560326
-0.51747215 0.20690851 -0.36405063 -0.2246747 -0.7969184 -0.45576096 -0.21825193 0.43614474
0.18735649 0.2554755 0.98566407 0.9623647 0.6710693 -0.001502316 -0.6917914 0.7803826
-0.25006342 -0.080845356 -0.86149895 -0.1975286 -0.6449878 0.9088064 -0.864521 -0.7794827
-0.03395629 -0.43402907 0.35575095 -0.3849256 -0.46968758 0.06370926 0.737124 -0.70342374
0.4568773 0.6397427 0.9676525 -0.6999309

fc.1.weight f4 [1, 100]
00000000: e45b 333d 436f 97bd 5167 b03d 72e1 70bc
00000010: 43b9 763d 331c 433b 7da0 80bb 9294 1c3d
00000020: 54a2 003d 7f79 243d 346e 213d 63cd 2c3d
00000030: 8770 96bd 5834 953d e6db a93d 7d32 b83d
00000040: 3d92 b43d 63bb 81bd ce17 a3ba cd93 b43d
00000050: d8fc 9bbd a14a 0a3c d039 97bd 4b43 90bd
00000060: 6494 1f3d 8525 93bd e7ad bbbc 1793 023e
00000070: 89d4 e53b a132 ec3d e03a a6bc 6667 2dbd
00000080: a851 f63d ebe9 acbd dbab e2bd 873e 233c
00000090: 587c 32bd c785 623d d85a 803d 4581 a2bd
000000a0: 9a63 1dbd 9a84 0fbc 3804 d53d f94e 0e3c
000000b0: 895d 04be cb02 883d 4ee8 21be 5de6 45bd
000000c0: 2ae2 95bd 7465 b53d 4b88 b43d 6512 27bd
000000d0: 5d3c 713d 2dac 363d bb42 b63d 4949 67bc
000000e0: 673b 6c3d 8dcb 7b3d 7b67 8b3c f3b0 49bc
000000f0: 6b1c ba3d f9c1 ed3d d835 e3bc d51b ff3d
00000100: c0ba ca3c 0144 bcbd 5d38 603d 02e6 98bd
00000110: 7838 bd3d 62a9 83bd 4b50 b03d 7f34 c03c
00000120: c5dc 673d 3411 ca3d 06fa d3bc aa14 e8bc
00000130: 1fa0 8bbd 523a 1f3d 3309 42bd bf7f ca3c
00000140: 4def a7bc 17e7 073d ea2a b13d 60ba f13c
00000150: daf2 03bd 6128 81bd f09d b2bd 0d54 ac3d
00000160: 7a30 9bbc d538 e23d 0767 e13c 2783 82bd
00000170: daad 663d 09f5 bd3d 8d64 d2bc 6ac5 68bd
00000180: d673 b2bc e7ca 8d3c e398 7cbd 2a8a 64bd
0.043788806 -0.07394268 0.08613456 -0.014702188 0.060235273 0.0029771447 -0.0039253817 0.038227625
0.03140481 0.04015493 0.03941174 0.04218806 -0.07345682 0.072853744 0.082938954 0.08994005
0.08816955 -0.06334569 -0.0012443007 0.08817253 -0.076165855 0.0084406445 -0.07384074 -0.07044085
0.038959876 -0.07184891 -0.022910072 0.12751423 0.0070138616 0.11533094 -0.020291746 -0.042334937
0.120272934 -0.08443054 -0.11067935 0.009963638 -0.043575615 0.05530336 0.06267327 -0.079348125
-0.038425066 -0.008759642 0.10401195 0.008685821 -0.12926306 0.06641158 -0.15811273 -0.048315395
-0.07318528 0.08857241 0.08815058 -0.040789027 0.058895458 0.044597793 0.088994466 -0.014116594
0.057673838 0.061473418 0.017017117 -0.012310254 0.090874515 0.11609263 -0.027735636 0.124564804
0.024747252 -0.09192658 0.054741252 -0.074657455 0.09239286 -0.064287916 0.08609065 0.023462532
0.056607027 0.098665625 -0.025876056 -0.028330166 -0.0681765 0.038873978 -0.047372054 0.024719117
-0.02049985 0.03317937 0.08650763 0.029507816 -0.032214023 -0.0630653 -0.087215304 0.08414469
-0.018944014 0.11045996 0.027514948 -0.063726716 0.05631814 0.09275252 -0.025682712 -0.056828894
-0.02178375 0.017308665 -0.06166924 -0.055795826
