model/DBIndexTask_5_10100-1_300.pth (torch, 2899 bytes, 3 tensors)

fc.0.weight f4 [100, 1]
0.5693855 -0.44137824 -0.14875229 0.436282 -0.9414369 0.59971726 -0.20993629 0.6039816
0.19376993 -0.0783747 0.3367478 0.09939018 0.32451773 -0.389701 -0.028574003 -0.04405333
0.19209363 -0.045069896 0.8452664 0.31119013 -0.37240624 -0.648152 -0.20956296 -0.4313407
-0.27687973 0.047881603 0.59612775 0.6034336 -0.9725316 0.66714233 0.27936387 0.9113202
0.70727307 -1.0097576 -1.0407183 -0.4410199 0.8401241 -0.123024814 0.42795944 -0.46471143
0.94732755 -0.42309844 0.81665355 0.070920125 -0.67668843 0.6339655 -0.57581854 0.25539005
-0.33231902 -0.063789874 -0.9613881 -0.5198359 0.64104134 -0.24307728 1.0989451 0.7684042
-0.04682362 -0.6674831 0.66531086 0.3103571 -0.64641976 0.6979232 0.5712588 0.93464035
-0.56055963 -0.21193102 -0.019371867 0.14605749 -0.7589183 -0.7096224 0.6008423 -0.19030075
0.5472901 0.10398538 0.29182938 0.18270671 0.32329684 0.58789307 -0.92611206 0.5757341
-0.7031232 -0.754509 0.06081438 -0.17040718 0.587324 -0.624358 -0.88898194 0.7277688
-0.14828181 0.66117066 0.3971254 -0.7498753 0.20089829 0.29205754 -0.65519816 -0.47447228
0.3057899 0.25249055 -0.46842346 -0.3027159
00000000: 40c3 113f 54fc e1be 8552 18be 5b60 df3e
00000010: 0202 71bf 1287 193f 8af9 56be 8a9e 1a3f
00000020: a06b 463e ea82 a0bd 356a ac3e 148d cb3d
00000030: 3027 a63e e486 c7be 0714 eabc 4471 34bd
00000040: 31b4 443e 369b 38bd 6163 583f 5054 9f3e
00000050: 08ac bebe 4aed 25bf ac97 56be b0d8 dcbe
00000060: 2ec3 8dbe 801f 443d d49b 183f a07a 1a3f
00000070: d5f7 78bf d7c9 2a3f c808 8f3e 484c 693f
00000080: d90f 353f bd3f 81bf 4236 85bf 5ccd e1be
00000090: 5f12 573f 6ff4 fbbd 801d db3e a8ee edbe
000000a0: 0f84 723f 5ca0 d8be 3510 513f 923e 913d
000000b0: 743b 2dbf 904b 223f d868 13bf 7cc2 823e
000000c0: b825 aabe 44a4 82bd 881d 76bf f713 05bf
000000d0: 491b 243f 40e9 78be 3caa 8c3f 23b6 443f
000000e0: 20ca 3fbd 2ce0 2abf d051 2a3f 20e7 9e3e
000000f0: c47b 25bf 18ab 323f 043e 123f 9744 6f3f
00000100: d680 0fbf 7204 59be c0b1 9ebc 1890 153e
00000110: 7848 42bf d0a9 35bf cdd0 193f 33de 42be
00000120: 341b 0c3f 49f6 d43d a96a 953e 7817 3b3e
00000130: 2a87 a53e 2980 163f ae15 6dbf 4f63 133f
00000140: e2ff 33bf 8027 41bf 8018 793d 387f 2ebe
00000150: de5a 163f edd5 1fbf 5294 63bf 0e4f 3a3f
00000160: 30d7 17be 7b42 293f 0554 cb3e d4f7 3fbf
00000170: 48b8 4d3e 9188 953e 11bb 27bf 08ee f2be
00000180: 7e90 9c3e 7146 813e 33d5 efbe 94fd 9abe

fc.0.bias f4 [100]
0.9215683 -0.18502128 0.57263505 0.41969028 -0.6464071 -0.85042953 0.93632406 0.018558552
0.69058263 0.21603806 0.32546645 0.75390667 0.9374279 -0.663581 0.13406394 0.7548648
0.7326939 0.61043954 -0.75238603 -0.7201042 -0.6047716 0.06677297 0.9861344 -0.6316756
0.54185903 -0.55348814 -0.9402157 -0.1304923 0.5505039 0.9367128 -0.6210388 0.20528583
0.87121457 0.6961416 0.6518744 0.7196431 0.6209152 0.26743314 -0.6838201 -0.8397585
-0.4896848 -0.1164459 -0.54594225 0.34411824 0.31990647 -0.017421344 0.40969554 0.3117764
0.6003492 0.6820831 -0.33865273 0.9661146 -0.003916906 -0.034355998 -0.8387596 -0.6764348
-0.5842035 -0.42772293 0.6762887 -0.32678103 -0.7472812 0.39276275 0.3078974 0.6559073
-0.51747215 0.2072379 -0.36405063 -0.2246747 -0.7969184 -0.45576096 -0.24559104 0.43609375
0.1871255 0.25536302 0.9857185 0.96242684 0.671142 -0.0004972951 -0.6917914 0.7800401
-0.25006342 -0.080845356 -0.86149895 -0.1975286 -0.6449878 0.90895945 -0.864521 -0.7794827
-0.03395629 -0.44029817 0.35535762 -0.3849256 -0.46968758 0.06354114 0.7375215 -0.70342374
0.4569145 0.63940257 0.9677713 -0.6999309
00000000: e6eb 6b3f 3876 3dbe 3698 123f a5e1 d63e
00000010: f07a 25bf c0b5 59bf efb2 6f3f 1b08 983c
00000020: 06ca 303f 1539 5d3e 8aa3 a63e 0700 413f
00000030: 46fb 6f3f 72e0 29bf 0f48 093e d23e 413f
00000040: d491 3b3f c445 1c3f 5f9c 40bf c058 38bf
00000050: 50d2 1abf 44c0 883d 4e73 7c3f 7eb5 21bf
00000060: 46b7 0a3f 66b1 0dbf fab1 70bf c69f 05be
00000070: d3ed 0c3f 69cc 6f3f 66fc 1ebf 7336 523e
00000080: eb07 5f3f 5636 323f 3ee1 263f 883a 383f
00000090: 4cf4 1e3f ffec 883e d60e 2fbf 6afa 56bf
000000a0: f7b7 fabe 307b eebd dfc2 0bbf 4430 b03e
000000b0: c8ca a33e 35b7 8ebc 9dc3 d13e 28a1 9f3e
000000c0: 7cb0 193f ff9c 2e3f e463 adbe 4953 773f
000000d0: 6459 80bb e0b8 0cbd f3b8 56bf d52a 2dbf
000000e0: 5c8e 15bf 80fe dabe 4221 2d3f d84f a7be
000000f0: d24d 3fbf 3318 c93e baa4 9d3e 8ae9 273f
00000100: 0e79 04bf 2c36 543e d864 babe 2011 66be
00000110: d802 4cbf 8059 e9be 387c 7bbe ae47 df3e
00000120: d49d 3f3e f1be 823e 0c58 7c3f 9b61 763f
00000130: f6cf 2b3f e95c 02ba 3e19 31bf b5b0 473f
00000140: 5008 80be 4092 a5bd 328b 5cbf f044 4abe
00000150: ec1d 25bf 91b1 683f 4051 5dbf 2e8c 47bf
00000160: c015 0bbd c36e e1be 6ff1 b53e f814 c5be
00000170: e47a f0be db21 823d 36ce 3c3f 9413 34bf
00000180: b3f0 e93e e3af 233f dcbf 773f ac2e 33bf

fc.1.weight f4 [1, 100]
0.04379283 -0.07394268 0.085961394 -0.014657487 0.060235273 0.0029771447 -0.004070809 0.038475387
0.031360004 0.039922748 0.039458238 0.042116094 -0.073487006 0.072853744 0.0827387 0.0898257
0.088122025 -0.06345194 0.000852714 0.08817253 -0.076165855 -0.015149922 -0.07398385 -0.07044085
0.038695887 -0.07184891 -0.022910072 0.120546766 0.0065643513 0.11534592 -0.020291746 -0.042182066
0.12029818 -0.084091686 -0.11031272 0.009663297 -0.043508872 0.055040862 0.06267327 -0.079348125
-0.03996242 -0.008759642 0.10884872 0.008630259 -0.1310562 0.06474637 -0.15780978 -0.048289567
-0.07343221 0.08844842 0.08815058 -0.041035876 0.059030212 0.044597793 0.10174996 -0.012301074
0.057673838 0.061473418 0.01706165 -0.012310254 0.090874515 0.11618629 -0.027643962 0.12463813
0.024747252 -0.092321366 0.054741252 -0.074657455 0.09239286 -0.064287916 0.07579355 0.023223592
0.05674461 0.098638155 -0.025914041 -0.028385552 -0.06818764 0.03913936 -0.047372054 0.024736565
-0.02049985 0.03317937 0.08650763 0.029507816 -0.032214023 -0.06336933 -0.087215304 0.08414469
-0.018944014 0.120707795 0.027568152 -0.063726716 0.05631814 0.092932135 -0.026093332 -0.056828894
-0.021772752 0.017281434 -0.06189667 -0.055795826
00000000: 1c60 333d 436f 97bd 870c b03d f525 70bc
00000010: 43b9 763d 331c 433b 6c64 85bb 5e98 1d3d
00000020: 5973 003d 0986 233d f69e 213d ed81 2c3d
00000030: 5b80 96bd 5834 953d e872 a93d 89f6 b73d
00000040: 5279 b43d 17f3 81bd ab88 5f3a cd93 b43d
00000050: d8fc 9bbd 6137 78bc d884 97bd 4b43 90bd
00000060: 947f 1e3d 8525 93bd e7ad bbbc 39e1 f63d
00000070: c519 d73b 7b3a ec3d e03a a6bc 1ac7 2cbd
00000080: e45e f63d 4338 acbd a3eb e1bd ce52 1e3c
00000090: 5c36 32bd 8772 613d d85a 803d 4581 a2bd
000000a0: a2af 23bd 9a84 0fbc 14ec de3d ee65 0d3c
000000b0: 9933 06be bf99 843d e398 21be 48cb 45bd
000000c0: a063 96bd 7224 b53d 4b88 b43d 3c15 28bd
000000d0: aac9 713d 2dac 363d 4862 d03d 728a 49bc
000000e0: 673b 6c3d 8dcb 7b3d e0c4 8b3c f3b0 49bc
000000f0: 6b1c ba3d 14f3 ed3d 9775 e2bc 4742 ff3d
00000100: c0ba ca3c fc12 bdbd 5d38 603d 02e6 98bd
00000110: 7838 bd3d 62a9 83bd a639 9b3d 673f be3c
00000120: 096d 683d cd02 ca3d af49 d4bc d188 e8bc
00000130: f6a5 8bbd 9850 203d 3309 42bd 56a4 ca3c
00000140: 4def a7bc 17e7 073d ea2a b13d 60ba f13c
00000150: daf2 03bd c7c7 81bd f09d b2bd 0d54 ac3d
00000160: 7a30 9bbc a635 f73d 9bd6 e13c 2783 82bd
00000170: daad 663d 3453 be3d afc1 d5bc 6ac5 68bd
00000180: c55c b2bc cb91 8d3c 5d87 7dbd 2a8a 64bd
