model/DBIndexTask_6_11111-1_300.pth (torch, 2899 bytes, 3 tensors)

fc.0.weight f4 [100, 1]
0.5690949 -0.44137824 -0.14892115 0.4363521 -0.9414369 0.59971726 -0.2096044 0.6025968
0.19350463 -0.07848487 0.33637863 0.099171855 0.32468107 -0.389701 -0.028727548 -0.044241954
0.19188239 -0.044884447 0.8453069 0.31119013 -0.37240624 -0.64896715 -0.20936249 -0.4313407
-0.27697724 0.047881603 0.59612775 0.60498166 -0.9745276 0.6669192 0.27936387 0.9114213
0.70704824 -1.0139769 -1.028141 -0.44099107 0.84024334 -0.1231419 0.42795944 -0.46471143
0.9429189 -0.42309844 0.8168706 0.0705972 -0.60565084 0.63135594 -0.5804276 0.2555246
-0.33206517 -0.06397526 -0.9613881 -0.5195124 0.6398666 -0.24307728 1.0864475 0.76906633
-0.04682362 -0.6674831 0.6645222 0.3103571 -0.64641976 0.6976785 0.5713488 0.9344049
-0.56055963 -0.21218401 -0.019371867 0.14605749 -0.7589183 -0.7096224 0.62217474 -0.19037281
0.5468961 0.103771776 0.29196328 0.18285348 0.32345378 0.586443 -0.92611206 0.5752322
-0.7031232 -0.754509 0.06081438 -0.17040718 0.587324 -0.62403303 -0.88898194 0.7277688
-0.14828181 0.6615546 0.39654467 -0.7498753 0.20089829 0.291756 -0.65422994 -0.47447228
0.305893 0.25204742 -0.46817037 -0.3027159
00000000: 34b0 113f 54fc e1be c97e 18be 8b69 df3e
00000010: 0202 71bf 1287 193f 89a2 56be c943 1a3f
00000020: 1426 463e adbc a0bd d239 ac3e 9d1a cb3d
00000030: 993c a63e e486 c7be 0956 ebbc 0d37 35bd
00000040: d17c 443e c1d8 37bd 0866 583f 5054 9f3e
00000050: 08ac bebe b622 26bf 1f63 56be b0d8 dcbe
00000060: f6cf 8dbe 801f 443d d49b 183f 14e0 1a3f
00000070: a47a 79bf 37bb 2a3f c808 8f3e e852 693f
00000080: 1d01 353f ffc9 81bf 209a 83bf 95c9 e1be
00000090: 301a 573f d231 fcbd 801d db3e a8ee edbe
000000a0: 2263 713f 5ca0 d8be 6f1e 513f 4495 903d
000000b0: ef0b 1bbf 8ba0 213f e796 14bf 1fd4 823e
000000c0: 7204 aabe 7605 83bd 881d 76bf c4fe 04bf
000000d0: 4cce 233f 40e9 78be b610 8b3f 88e1 443f
000000e0: 20ca 3fbd 2ce0 2abf 201e 2a3f 20e7 9e3e
000000f0: c47b 25bf 0f9b 323f ea43 123f 2935 6f3f
00000100: d680 0fbf c446 59be c0b1 9ebc 1890 153e
00000110: 7848 42bf d0a9 35bf d846 1f3f 17f1 42be
00000120: 6201 0c3f 4c86 d43d 367c 953e f13d 3b3e
00000130: bc9b a53e 2121 163f ae15 6dbf 6b42 133f
00000140: e2ff 33bf 8027 41bf 8018 793d 387f 2ebe
00000150: de5a 163f a1c0 1fbf 5294 63bf 0e4f 3a3f
00000160: 30d7 17be a45b 293f e707 cb3e d4f7 3fbf
00000170: 48b8 4d3e 0b61 953e 9d7b 27bf 08ee f2be
00000180: 029e 9c3e 5c0c 813e 07b4 efbe 94fd 9abe

fc.0.bias f4 [100]
0.92186 -0.18502128 0.57282245 0.41960424 -0.6464071 -0.85042953 0.9361739 0.019727392
0.69085914 0.21618766 0.3258244 0.75413966 0.9372585 -0.663581 0.13424051 0.75506693
0.7329151 0.6102539 -0.7523491 -0.7201042 -0.6047716 0.06572113 0.9859366 -0.6316756
0.5419994 -0.55348814 -0.9402157 -0.14353572 0.5497599 0.93694055 -0.6210388 0.20516917
0.87144333 0.6935347 0.6566035 0.71970165 0.6207838 0.26758525 -0.6838201 -0.8397585
-0.49580267 -0.1164459 -0.54404646 0.3444467 0.3478718 -0.07179281 0.40717313 0.3116316
0.6001149 0.68228304 -0.33865273 0.9658393 -0.02361526 -0.034355998 -0.851174 -0.67582846
-0.5842035 -0.42772293 0.6769028 -0.32678103 -0.7472812 0.39300936 0.3077908 0.6561445
-0.51747215 0.20652288 -0.36405063 -0.2246747 -0.7969184 -0.45576096 -0.21487217 0.4362207
0.18750177 0.2555832 0.9855799 0.96227765 0.67097735 -0.0016263423 -0.6917914 0.7805102
-0.25006342 -0.080845356 -0.86149895 -0.1975286 -0.6449878 0.90867597 -0.864521 -0.7794827
-0.03395629 -0.4367127 0.3558901 -0.3849256 -0.46968758 0.06383675 0.7369352 -0.70342374
0.4568004 0.63982725 0.9675385 -0.6999309
00000000: 04ff 6b3f 3876 3dbe 7ea4 123f 5ed6 d63e
00000010: f07a 25bf c0b5 59bf 18a9 6f3f 579b a13c
00000020: 25dc 303f 4c60 5d3e 75d2 a63e 4c0f 413f
00000030: 2cf0 6f3f 72e0 29bf 5876 093e 114c 413f
00000040: 53a0 3b3f 9939 1c3f f399 40bf c058 38bf
00000050: 50d2 1abf cd98 863d 5766 7c3f 7eb5 21bf
00000060: 79c0 0a3f 66b1 0dbf fab1 70bf 07fb 12be
00000070: 11bd 0c3f 56db 6f3f 66fc 1ebf de17 523e
00000080: e916 5f3f 7d8b 313f 2b17 283f 5e3e 383f
00000090: b0eb 1e3f ef00 893e d60e 2fbf 6afa 56bf
000000a0: d9d9 fdbe 307b eebd a146 0bbf 515b b03e
000000b0: 411c b23e 1c08 93bd ff78 d03e 2d8e 9f3e
000000c0: 21a1 193f 1aaa 2e3f e463 adbe 3f41 773f
000000d0: ca74 c1bc e0b8 0cbd 8ae6 59bf 1803 2dbf
000000e0: 5c8e 15bf 80fe dabe 8049 2d3f d84f a7be
000000f0: d24d 3fbf 8638 c93e c196 9d3e 16f9 273f
00000100: 0e79 04bf bc7a 533e d864 babe 2011 66be
00000110: d802 4cbf 8059 e9be 7307 5cbe 5258 df3e
00000120: 7700 403e cddb 823e f74e 7c3f d457 763f
00000130: 2cc5 2b3f fe2a d5ba 3e19 31bf 84cf 473f
00000140: 5008 80be 4092 a5bd 328b 5cbf f044 4abe
00000150: ec1d 25bf fd9e 683f 4051 5dbf 2e8c 47bf
00000160: c015 0bbd cf98 dfbe 3a37 b63e f814 c5be
00000170: e47a f0be d8bc 823d c9a7 3c3f 9413 34bf
00000180: bee1 e93e b8cb 233f 9ab0 773f ac2e 33bf

fc.1.weight f4 [1, 100]
0.043852046 -0.07394268 0.08628838 -0.014651376 0.060235273 0.0029771447 -0.003790978 0.0382632
0.031486217 0.040367674 0.039464433 0.042281166 -0.07338423 0.072853744 0.08313404 0.09005489
0.08825198 -0.06324143 -0.0017332833 0.08817253 -0.076165855 0.01101946 -0.073714584 -0.07044085
0.039192088 -0.07184891 -0.022910072 0.12818013 0.0076336255 0.11539104 -0.020291746 -0.042296972
0.1203301 -0.08390982 -0.110062085 0.01023308 -0.04352874 0.055542037 0.06267327 -0.079348125
-0.038631078 -0.008759642 0.10335342 0.008780082 -0.12849648 0.06652951 -0.15757418 -0.04826088
-0.072983794 0.08869323 0.08815058 -0.040585015 0.058893435 0.044597793 0.08485753 -0.014500217
0.057673838 0.061473418 0.01707262 -0.012310254 0.090874515 0.11613614 -0.027692921 0.12461128
0.024747252 -0.091566026 0.054741252 -0.074657455 0.09239286 -0.064287916 0.08684134 0.023672327
0.05664488 0.0987435 -0.025800532 -0.028247865 -0.06811063 0.038912315 -0.047372054 0.024778375
-0.02049985 0.03317937 0.08650763 0.029507816 -0.032214023 -0.06280297 -0.087215304 0.08414469
-0.018944014 0.10770052 0.027565366 -0.063726716 0.05631814 0.09278723 -0.025258329 -0.056828894
-0.021724833 0.01738316 -0.06148246 -0.055795826
00000000: 349e 333d 436f 97bd f6b7 b03d 530c 70bc
00000010: 43b9 763d 331c 433b 0f72 78bb e0b9 1c3d
00000020: b1f7 003d 9358 253d 75a5 213d 042f 2d3d
00000030: 794a 96bd 5834 953d 2e42 aa3d b36e b83d
00000040: 74bd b43d b984 81bd 562f e3ba cd93 b43d
00000050: d8fc 9bbd f78a 343c acf7 96bd 4b43 90bd
00000060: e287 203d 8525 93bd e7ad bbbc a741 033e
00000070: 7e23 fa3b 2352 ec3d e03a a6bc 973f 2dbd
00000080: a16f f63d e9d8 abbd 3b68 e1bd a6a8 273c
00000090: 314b 32bd 0c80 633d d85a 803d 4581 a2bd
000000a0: 9f3b 1ebd 9a84 0fbc f5aa d33d 55da 0f3c
000000b0: 9594 03be a040 883d 205b 21be 33ad 45bd
000000c0: 8778 95bd cca4 b53d 4b88 b43d 793c 26bd
000000d0: 3e3a 713d 2dac 363d c9c9 ad3d 5192 6dbc
000000e0: 673b 6c3d 8dcb 7b3d e1db 8b3c f3b0 49bc
000000f0: 6b1c ba3d c9d8 ed3d 44dc e2bc 3334 ff3d
00000100: c0ba ca3c f886 bbbd 5d38 603d 02e6 98bd
00000110: 7838 bd3d 62a9 83bd dfd9 b13d 78ec c13c
00000120: 7604 683d 083a ca3d a35b d3bc 1168 e7bc
00000130: 967d 8bbd 8562 1f3d 3309 42bd 05fc ca3c
00000140: 4def a7bc 17e7 073d ea2a b13d 60ba f13c
00000150: daf2 03bd d89e 80bd f09d b2bd 0d54 ac3d
00000160: 7a30 9bbc 1792 dc3d c3d0 e13c 2783 82bd
00000170: daad 663d 3b07 be3d 8eea cebc 6ac5 68bd
00000180: 47f8 b1bc 2167 8e3c 08d5 7bbd 2a8a 64bd
