model/DBIndexTask_0_01000-1_305.pth (torch, 13771 bytes, 3 tensors)

fc.0.weight f4 [1000, 1]
-0.00748682 0.5364436 -0.82304513 -0.735939 -0.38515437 0.25477147 -0.01981318 0.7770064
-0.088744044 0.26461256 -0.34788465 -0.18137217 -1.0005401 -0.6622821 -0.4122231 0.048719976
0.3827405 0.61630785 -0.6779411 -0.46973094 0.3499669 0.8554993 -0.20580018 0.73531336
-0.16118336 0.1058141 0.89335597 -0.99207217 -0.62953794 -0.24041069 -0.4041057 0.87735975
-0.64817965 -0.46033287 -0.69864047 -0.9614428 -0.5837405 0.8646505 0.44621837 0.47574905
0.052591562 -0.517777 0.16918468 -0.9336947 -0.6985448 -0.5758716 0.64397514 0.57326865
-0.44349504 -0.049883936 0.64630264 0.99196655 0.40876928 0.12152421 0.67048633 -0.58880234
0.19931033 -0.7417505 -0.7067305 -0.51658356 0.45247304 0.41496795 -0.6325631 0.31464902
0.53661734 -0.12621737 0.038181543 0.23170471 0.6072867 0.9470802 -0.8135831 -0.36646974
0.37978023 0.81496316 0.8832724 0.88235676 0.19901454 -0.86958265 0.10431076 -0.7379425
-1.0027484 0.9075906 0.7473088 -0.99752796 0.17410204 -0.17416179 -0.17824402 -0.45775688
0.3787591 -0.5923035 0.359 0.49247977 0.70573163 0.3606452 -0.98973525 -0.6486969
0.5131974 0.20930135 -0.780084 -0.5758195 0.92910075 0.6830885 -0.45177898 -0.2659174
-0.9525981 -0.005064059 -0.7530589 -0.7713567 -0.042259973 0.16361468 -0.40953028 0.5933776
-0.6085391 0.9206041 0.6852999 -0.84328294 -0.2988471 0.045122623 0.14590108 0.23717427
0.43138275 0.059900165 -0.48792875 0.4701438 -0.9592489 -0.5927067 -0.25032985 -0.48711336
-0.33719942 -0.8196217 -0.21271515 0.22568811 -0.7239451 -0.038918804 0.73159736 -0.10280025
0.027792215 -0.23149943 0.21534958 0.63583946 0.9348862 0.6481883 0.9754038 -0.07232165
-0.94550484 -0.47407722 0.6941371 -0.006482482 -0.5111545 -0.76631176 -0.91018414 -0.8440082
-0.20283675 0.5626994 0.5533457 -0.9644319 0.6118805 -0.7960608 -0.21141028 -0.4205601
-0.19261527 -0.1963427 -0.89734995 -0.8522135 -0.169951 0.012932181 -0.4570802 0.37753105
-0.9000584 -0.06748724 0.8944322 -0.42163908 0.8892308 0.36215377 -0.90246093 0.6464855
-0.10270731 -0.6200481 0.8086465 -0.8080952 0.10730493 -0.2093687 0.727129 0.27914453
0.48050535 0.35315895 -0.2404747 -0.19831765 -0.8121009 0.5418441 0.7821754 0.69715154
-0.7475243 0.031029178 -0.7049341 -0.5504842 -0.5997815 0.34174502 -0.61888367 -0.021817207
0.05487099 0.631366 -0.7432231 -0.68651223 -0.58066154 0.69003373 -0.359465 0.83553207
0.36401197 0.12662601 -0.007444024 -0.19768155 0.13840854 -0.22834468 -0.007026434 0.12759304
-0.7510572 -0.54134893 0.83108795 -0.8880018 -0.05890957 0.9768319 0.44484636 0.015197237
-0.86660993 0.48218337 -0.71228075 -0.2974338 -0.32268238 -0.14808738 -0.0026221813 0.8121638
0.12483883 0.9117334 0.59855133 -0.63221395 0.46160758 -0.68926984 -0.4110105 0.2941227
0.3301921 0.7371325 -0.33551845 0.0016008615 0.51482356 -0.96709216 0.71543443 -0.8269224
0.014075605 -0.17001677 -0.53772765 0.14514537 0.8400841 -0.29231954 -0.6205194 -0.36543712
00000000: 0054 f5bb 5e54 093f 16b3 52bf 8066 3cbf
00000010: f432 c5be 6871 823e 404f a2bc e4e9 463f
00000020: 70bf b5bd 4c7b 873e f01d b2be a0b9 39be
00000030: b311 80bf 528b 29bf e80e d3be 998e 473d
00000040: 90f6 c33e 5ac6 1d3f 8c8d 2dbf 9380 f0be
00000050: dd2e b33e 0102 5b3f 48bd 52be 7f3d 3c3f
00000060: 400d 25be 10b5 d83d fab2 643f 71f8 7dbf
00000070: 6629 21bf 382e 76be f1e6 cebe a69a 603f
00000080: 1aef 25bf c0b0 ebbe 1ada 32bf 1e21 76bf
00000090: 0470 15bf bc59 5d3f bc76 e43e 6195 f33e
000000a0: 406a 573d 098d 04bf c03e 2d3e 9e06 6fbf
000000b0: d5d3 32bf 526c 13bf 8edb 243f bcc1 123f
000000c0: c811 e3be 1953 4cbd 1774 253f 85f1 7d3f
000000d0: 354a d13e afe1 f83d fea4 2b3f c0bb 16bf
000000e0: 0218 4c3e 5ce3 3dbf 4aec 34bf d23e 04bf
000000f0: 8caa e73e ae76 d43e a8ef 21bf ad19 a13e
00000100: c15f 093f 203f 01be 4064 1c3d 0044 6d3e
00000110: 2477 1b3f d973 723f fb46 50bf eca1 bbbe
00000120: 8e72 c23e 6da1 503f 241e 623f 22e2 613f
00000130: 78ca 4b3e f89c 5ebf e1a0 d53d cde9 3cbf
00000140: 0f5a 80bf dc57 683f a14f 3f3f fe5d 7fbf
00000150: ce47 323e 7857 32be 9a85 36be 1c5f eabe
00000160: b6ec c13e 34a1 17bf d9ce b73e 4f26 fc3e
00000170: d4aa 343f 7da6 b83e 4a5f 7dbf 0011 26bf
00000180: e860 033f 1853 563e 96b3 47bf e868 13bf
00000190: 8cd9 6d3f e3de 2e3f 934f e7be 5326 88be
000001a0: 78dd 73bf 68f0 a5bb 78c8 40bf a277 45bf
000001b0: cb18 2dbd 9b8a 273e f4ad d1be 98e7 173f
000001c0: 38c9 1bbf b6ac 6b3f d06f 2f3f 64e1 57bf
000001d0: 7d02 99be 80d2 383d 1867 153e d0dd 723e
000001e0: 33de dc3e e059 753d ccd1 f9be b0b6 f03e
000001f0: 5691 75bf a0bb 17bf 3c2b 80be ec66 f9be
00000200: 67a5 acbe bad2 51bf 00d2 59be c91a 673e
00000210: 7754 39bf 5369 1fbd f749 3b3f f088 d2bd
00000220: 80ac e33c 300e 6dbe 9a84 5c3e 60c6 223f
00000230: b454 6f3f abef 253f 10b4 793f 601d 94bd
00000240: 9b0c 72bf 40ba f2be f8b2 313f 006b d4bb
00000250: 05db 02bf 022d 44bf d401 69bf ec10 58bf
00000260: 70b4 4fbe 110d 103f 10a8 0d3f 02e5 76bf
00000270: 33a4 1c3f a4ca 4bbf f07b 58be a753 d7be
00000280: f03c 45be 100e 49be bab8 65bf aa2a 5abf
00000290: a307 2ebe 80e1 533c 6a06 eabe c04b c13e
000002a0: 3a6a 66bf c036 8abd 82f9 643f 14e1 d7be
000002b0: a1a4 633f 386c b93e ae07 67bf 1380 253f
000002c0: 3658 d2bd 79bb 1ebf 7503 4f3f 54df 4ebf
000002d0: b0c2 db3d c064 56be 2025 3a3f 08ec 8e3e
000002e0: cc04 f63e 40d1 b43e 003f 76be c813 4bbe
000002f0: d8e5 4fbf 4cb6 0a3f a63c 483f 8678 323f
00000300: c15d 3fbf e730 fe3c 9076 34bf 88ec 0cbf
00000310: 488b 19bf 34f9 ae3e 296f 1ebf 00ba b2bc
00000320: 67c0 603d 34a1 213f de43 3ebf 44bf 2fbf
00000330: 3ca6 14bf 0da6 303f cc0b b8be 6ee5 553f
00000340: c75f ba3e 40aa 013e 00ed f3bb 086d 4abe
00000350: f8ba 0d3e 30d3 69be 003e e6bb c0a7 023e
00000360: 4945 40bf d895 0abf 2ec2 543f 1654 63bf
00000370: 294b 71bd a811 7a3f e7c2 e33e d5fd 783c
00000380: 26da 5dbf bde0 f63e 0858 36bf 3e49 98be
00000390: a036 a5be 38a4 17be e7d8 2bbb f7e9 4f3f
000003a0: 80ab ff3d 5c67 693f a93a 193f c6d8 21bf
000003b0: d457 ec3e fd73 30bf f86f d2be 4097 963e
000003c0: f00e a93e b7b4 3c3f 13c9 abbe 00d4 d13a
000003d0: 7acb 033f 5a93 77bf b626 373f 30b1 53bf
000003e0: 5e9d 663c e018 2ebe 85a8 09bf fda0 143e
000003f0: c00f 573f e8aa 95be 5cda 1ebf 931a bbbe

fc.0.bias f4 [1000]
-0.08501732 -0.77987933 -0.006149888 -0.83004427 -0.2151308 0.5734743 -0.6953503 -0.6897331
-0.2441765 -0.27413404 0.15737209 0.16800955 0.49609756 -0.68888056 -0.070571184 0.5583021
0.8487655 -0.019073473 -0.5786202 0.27801472 0.5648487 -0.59661907 -0.5802934 0.43629616
-0.070065975 -0.94449866 -0.58769155 0.390039 -0.3391757 0.69247717 0.7823118 0.14823414
-0.07907474 -0.31742716 -0.05056584 0.17400731 -0.76385105 -0.23834589 -0.83180094 0.5966092
-0.6368363 0.89884365 -0.2577808 -0.57287526 0.48380125 0.13536237 0.69477683 0.41153035
-0.96333945 0.6250156 -0.18553434 -0.43860045 0.63367784 0.7226123 -0.8789307 -0.090423346
0.8237555 0.39205068 0.83763105 -0.3426987 -0.5516424 0.86149424 0.39671263 0.96077675
-0.42918572 -0.64206684 -0.11721289 -0.94157994 0.38706192 0.7320251 0.2277529 -0.09880686
0.49102974 -0.6479117 0.9808006 -0.99434364 -0.9579452 -0.23630166 0.81726867 0.11990468
0.3672806 -0.7123275 0.3600844 -0.11174345 0.38681948 0.69057906 0.42905992 -0.08506417
-0.075717896 -0.6271802 -0.3692872 0.64519864 -0.4092304 0.61628234 -0.39653194 -0.23289883
0.023212736 -0.9176655 -0.00998497 -0.100795746 -0.11581732 -0.17563577 0.76964897 0.7292387
-0.67775726 0.46704584 -0.7843826 -0.85132134 0.30806687 0.017117793 -0.46650636 -0.96450377
-0.3871361 0.3366652 -0.9256015 -0.97146547 0.11491495 -0.72040415 -0.8760803 -0.3852862
-0.09876134 -0.90870523 -0.6677277 0.051729873 -0.9429717 -0.14055443 -0.6457027 -0.6932373
0.39536497 -0.7696897 -0.7578342 0.56935996 0.1811438 0.9116037 -0.2516009 -0.48301506
-0.09254646 0.028973315 0.76517475 -0.9960799 -0.09540343 0.44503886 -0.52128494 -0.5081408
0.4707766 -0.9581852 0.23740707 -0.7741865 0.49235392 -0.85504043 0.6190692 -0.9466326
-0.84056675 0.015318763 0.78882986 -0.8563956 -0.45704442 0.8737608 -0.16769743 0.4061706
-0.9619982 -0.3144809 -0.50783217 0.8426217 0.41033086 -0.72967565 0.15538296 0.0019975319
-0.41086984 -0.57107663 -0.3173464 0.7826263 -0.73035467 -0.71234334 -0.30851912 0.019740853
0.2743377 0.08732439 -0.23385929 -0.6063502 -0.17943263 -0.40255332 0.810121 -0.97340953
-0.637859 -0.81359017 -0.18275678 0.77945894 0.87763226 -0.8705553 -0.058715224 0.5881397
0.42621872 0.81301457 -0.027738214 -0.67189276 0.6431266 -0.34291458 0.5036414 -0.24643648
0.4271014 0.894444 0.93226856 -0.91006505 -0.6614803 -0.42160726 -0.63770103 0.942586
-0.091397636 -0.66334057 -0.44498944 -0.5523646 0.41037914 -0.87225115 -0.9324031 -0.98576117
0.4353643 0.48636356 -0.5948464 0.23912299 0.7406874 0.13999957 -0.09494881 0.062124822
-0.10722768 0.49883854 -0.67901134 0.5022231 0.56624377 -0.60587466 0.81069297 0.9691733
-0.3942287 -0.25854367 0.4939228 -0.78342044 0.39816034 0.23093265 0.632941 -0.8686068
-0.8307848 0.44445705 0.35554183 -0.9307662 -0.5576595 -0.9149785 -0.72396296 -0.45119965
0.81553185 -0.1990509 0.55705804 0.9523258 0.45828444 -0.8952104 0.48316544 0.3748698
00000000: 901d aebd 2ca6 47bf 0085 c9bb c87d 54bf
00000010: 404b 5cbe 36cf 123f 7a02 32bf 5992 30bf
00000020: 6809 7abe 4c5b 8cbe 2626 213e b20a 2c3e
00000030: 8000 fe3e 7a5a 30bf a087 90bd e3ec 0e3f
00000040: b248 593f f93f 9cbc 7420 14bf f257 8e3e
00000050: ed99 103f 07bc 18bf 1c8e 14bf 3662 df3e
00000060: c07e 8fbd aaca 71bf f472 16bf 31b3 c73e
00000070: 70a8 adbe 2f46 313f 9645 483f b1ca 173e
00000080: f0f1 a1bd d085 a2be 201e 4fbd f92e 323e
00000090: be8b 43bf f210 74be e8f0 54bf 61bb 183f
000000a0: b407 23bf 9e1a 663f d8fb 83be f4a7 12bf
000000b0: ccb4 f73e 6f9c 0a3e e5dc 313f 1bb4 d23e
000000c0: 6a9d 76bf 0601 203f b7fc 3dbe 3d90 e0be
000000d0: b638 223f 1ffd 383f 9a01 61bf e02f b9bd
000000e0: a4e1 523f deba c83e fd6e 563f 3476 afbe
000000f0: 7038 0dbf e38a 5c3f eb1d cb3e 77f5 753f
00000100: 3bbe dbbe 7e5e 24bf 500d f0bd 620b 71bf
00000110: fb2c c63e ff65 3b3f 0e38 693e 405b cabd
00000120: 4068 fb3e 8bdd 25bf c015 7b3f 4e8d 7ebf
00000130: e63b 75bf 10f9 71be 8538 513f 9690 f53d
00000140: 340c bc3e 185b 36bf fc5c b83e c0d9 e4bd
00000150: 340d c63e cac9 303f bead db3e 2036 aebd
00000160: fc11 9bbd e28e 20bf 3613 bdbe bd2b 253f
00000170: a686 d1be aec4 1d3f 3c06 cbbe 087d 6ebe
00000180: a328 be3c 20ec 6abf 0098 23bc 006e cebd
00000190: a231 edbd ddd9 33be b707 453f 63af 3a3f
000001a0: 8081 2dbf a220 ef3e 4ccd 48bf 32f0 59bf
000001b0: f1ba 9d3e 9d3a 8c3c ecd9 eebe b8e9 76bf
000001c0: b436 c6be 625f ac3e 38f4 6cbf f6b1 78bf
000001d0: 8858 eb3d 686c 38bf cc46 60bf 3c44 c5be
000001e0: 6343 cabd e8a0 68bf 34f0 2abf b4e2 533d
000001f0: 9866 71bf 80ed 0fbe c64c 25bf 0078 31bf
00000200: 476d ca3e 620a 45bf 6c01 42bf 93c1 113f
00000210: c37d 393e dc5e 693f d5d1 80be c04d f7be
00000220: 0089 bdbd 7259 ed3c 7ee2 433f 18ff 7ebf
00000230: e062 c3bd 22dc e33e ee72 05bf 8415 02bf
00000240: a109 f13e a04b 75bf d71a 733e 1631 46bf
00000250: d015 fc3e eee3 5abf 527b 1e3f 8456 72bf
00000260: 622f 57bf 8dfb 7a3c c1f0 493f be3c 5bbf
00000270: ba01 eabe caae 5f3f e0b8 2bbe 98f5 cf3e
00000280: 8445 76bf a403 a1be 4a01 02bf 0eb6 573f
00000290: e316 d23e 06cc 3abf b61c 1f3e 06e9 023b
000002a0: 885d d2be 1432 12bf 3a7b a2be 325a 483f
000002b0: 86f8 3abf 225c 36bf 38f6 9dbe 92b7 a13c
000002c0: fe75 8c3e 21d7 b23d cf78 6fbe c439 1bbf
000002d0: 30bd 37be 781b cebe 1764 4f3f 5e31 79bf
000002e0: ba4a 23bf 7247 50bf 9824 3bbe 9f8a 473f
000002f0: 82ac 603f b6dc 5ebf 607f 70bd 5390 163f
00000300: 5739 da3e b921 503f 403b e3bc 2a01 2cbf
00000310: f2a3 243f 8092 afbe a5ee 003f d859 7cbe
00000320: 09ad da3e 48fa 643f 27a9 6e3f 06fa 68bf
00000330: c656 29bf e8dc d7be 6040 23bf 514d 713f
00000340: af2e bbbd b0d0 29bf a8d5 e3be c467 0dbf
00000350: 371d d23e da4b 5fbf f8b1 6ebf d85a 7cbf
00000360: 12e8 de3e a504 f93e db47 18bf a8dc 743e
00000370: b09d 3d3f 0c5c 0f3e 8674 c2bd 9976 7e3d
00000380: 309a dbbd c467 ff3e b0d3 2dbf b191 003f
00000390: 5af5 103f 9a1a 1bbf 9389 4f3f be1b 783f
000003a0: 58d8 c9be d65f 84be 73e3 fc3e 3e8e 48bf
000003b0: acdb cb3e 9c79 6c3e 6c08 223f 045d 5ebf
000003c0: 50ae 54bf e08f e33e 9409 b63e b246 6ebf
000003d0: c6c2 0ebf 083c 6abf a355 39bf a403 e7be
000003e0: b2c6 503f 00d4 4bbe 5b9b 0e3f a0cb 733f
000003f0: 42a4 ea3e 822c 65bf 7661 f73e efee bf3e

fc.1.weight f4 [1, 1000]
0.017541064 0.005664956 0.004825999 0.016351921 0.019701302 -0.008388945 -0.0034646369 -4.407045e-05
-0.01532372 0.029568871 -0.02818876 0.013900612 -0.02939854 0.010153013 0.02208715 0.007437733
0.0013681196 0.028161375 -0.02270645 -0.024707254 -0.022022458 -0.03306758 0.0008207453 -0.007792993
0.00704508 0.0010671084 0.010901477 -0.024916044 -0.008650935 0.023384774 -0.0058793416 0.039656196
-0.012559936 -0.0003463325 -0.0074923243 -0.021735296 0.01211682 -0.026374837 0.020837562 0.0031457886
-0.007996691 0.0012069651 0.022007735 0.031020083 0.012612932 -0.01787533 0.025988897 -0.007053087
-0.016526159 -0.005747751 -0.030923916 -0.0020329293 0.007833442 -0.0068437415 -0.0032104177 -0.0006270114
0.031138938 0.021129012 -0.023387596 0.011589645 0.012211059 0.016630042 -0.0069478727 0.012128049
-0.00509184 0.030778408 -0.030308146 -0.012000075 -0.014861341 -0.009328854 -0.014313504 0.019286213
-0.018698212 0.0064130016 0.031738527 -0.015587089 0.005519395 -0.016234422 0.010528488 -0.062401183
-0.025123151 -0.031082027 -0.019358994 0.025235426 0.0005710174 0.0019585227 -0.013240157 0.02204117
-0.02005265 -0.012790214 -0.017055767 -0.021409458 0.0122711 -0.019560138 -0.0043657906 -0.009153534
0.02318926 0.008458113 -0.024241732 0.028399603 -0.027071623 -0.007922892 -0.00075607 -0.0047397316
0.021549871 0.030066248 0.004119292 -0.011169133 0.026478104 0.029805437 0.0056797066 -0.00864919
0.0013332135 0.035711125 0.0034293183 -0.0062317457 -0.03569236 -0.016946094 0.02283907 -0.0011135514
-0.01968608 0.012312665 -0.020805478 0.007770562 -0.008894045 0.016545696 0.02573537 0.019856181
0.02421037 -0.028261334 -0.011226613 0.008070768 -0.051094055 0.011918838 -0.03490909 0.013550753
0.025593964 -0.14781252 0.030606613 0.01475523 -0.014383002 0.036397193 -0.0447263 -0.021289075
-0.022211906 -0.0016013279 0.013307195 -0.009280356 -0.02973212 -0.0036502657 0.021061732 0.024347553
0.015830107 0.016619934 0.012813772 -0.0243783 -0.0013262456 -0.030784443 -0.013059252 -0.007989046
0.023221621 -0.000921823 -0.014404468 0.0056182686 -0.023731578 -0.008372364 -0.007170499 0.01106046
-0.0033210139 0.019327056 -0.038232055 -0.0139233265 0.016136825 0.0062925816 -0.0051200753 0.028450817
0.021273118 -0.1160803 -0.0240387 -0.0051689837 0.011482495 -0.004037055 0.023713514 -0.025787907
-0.015515136 0.024107298 0.0041485596 0.009121378 0.010852175 -0.0074722464 -0.003965989 0.01482005
-0.012455949 -0.009399341 0.004177926 0.00764896 -0.0021723504 -0.021386333 -0.005374684 -0.017921496
0.020344503 -0.015890475 0.02617444 0.012594979 -0.02707912 0.0077616195 -0.031272907 0.003477574
-0.027349427 -0.027204292 0.0031331836 -0.01533258 0.027034113 -0.024858974 0.026247624 0.019077925
0.02231877 -0.009322238 -0.032125156 -0.042945895 0.029527955 -0.0058667334 -0.031342097 -0.00042513455
0.00544031 -0.020410528 0.025498684 -0.021482838 0.032836232 -0.012373493 -0.010554224 0.0009174034
0.009358955 -0.017557524 -0.02564439 0.022242945 0.037008423 -0.0019298794 0.032413177 0.008618798
-0.0024779518 -0.018666442 -0.026941365 -0.021772183 -0.008023426 0.018414162 -0.0050874595 -0.001228204
0.003070001 -0.02067114 -0.0003544368 0.03435973 0.03188769 0.024084512 -0.0039417967 0.00082917634
00000000: 47b2 8f3c 18a1 b93b 6a23 9e3b 77f4 853c
00000010: a064 a13c c971 09bc f60e 63bb 49d8 38b8
00000020: 5710 7bbc 6b3a f23c 1dec e6bc 64bf 633c
00000030: 35d5 f0bc d358 263c 1cf0 b43c 3ab8 f33b
00000040: 7a52 b33a afb2 e63c e102 babc de66 cabc
00000050: 7168 b4bc df71 07bd 4927 573a 5d5c ffbb
00000060: 6ada e63b 37de 8b3a 1c9c 323c bb1c ccbc
00000070: a7bc 0dbc 6d91 bf3c 7ea7 c0bb 896e 223d
00000080: 31c8 4dbc f693 b5b9 2c82 f5bb 380e b2bc
00000090: a085 463c 0b10 d8bc 89b3 aa3c 9329 4e3b
000000a0: 8e04 03bc 0733 9e3a 9149 b43c d41d fe3c
000000b0: 79a6 4e3c 496f 92bc abe6 d43c 951d e7bb
000000c0: de61 87bc a157 bcbb 2754 fdbc e53a 05bb
000000d0: d657 003c 7741 e0bb df65 52bb 065e 24ba
000000e0: 1617 ff3c c016 ad3c 5897 bfbc 7fe2 3d3c
000000f0: e510 483c ba3b 883c fbaa e3bb b9b4 463c
00000100: 73d9 a6bb 0023 fc3c ca48 f8bc f69b 44bc
00000110: fb7c 73bc 0dd8 18bc 3083 6abc 1ffe 9d3c
00000120: fe2c 99bc 2824 d23b 4200 023d fd60 7fbc
00000130: 0bdc b43b 0dfe 84bc ae7f 2c3c 6298 7fbd
00000140: 11cf cdbc bc9f febc c196 9ebc 86ba ce3c
00000150: 54b0 153a 8f5a 003b 3eed 58bc af8f b43c
00000160: 7445 a4bc 0c8e 51bc 89b8 8bbc e362 afbc
00000170: b90c 493c 953c a0bc e80e 8fbb b4f8 15bc
00000180: 67f7 bd3c e693 0a3c 9996 c6bc 49a6 e83c
00000190: 4fc5 ddbc 05cf 01bc 0033 46ba c04f 9bbb
000001a0: 5b89 b03c 7e4d f63c 20fb 863b bdfe 36bc
000001b0: 9ce8 d83c 882a f43c d51c ba3b 55b5 0dbc
000001c0: 39bf ae3a d445 123d 6abe 603b ac33 ccbb
000001d0: 2732 12bd 89d2 8abc 0019 bb3c 96f4 91ba
000001e0: b444 a1bc 0fbb 493c 4070 aabc 33a0 fe3b
000001f0: 54b8 11bc d78a 873c fcd2 d23c 6ea9 a23c
00000200: d354 c63c 5084 e7bc d4ef 37bc 413b 043c
00000210: 0048 51bd 3b47 433c d5fc 0ebd fa03 5e3c
00000220: 6faa d13c 2a5c 17be b8ba fa3c ecbf 713c
00000230: afa6 6bbc 3915 153d ed32 37bd 6d66 aebc
00000240: bef5 b5bc a6e3 d1ba 6c06 5a3c a20c 18bc
00000250: c690 f3bc 4c39 6fbb a789 ac3c 8574 c73c
00000260: 24ae 813c 8726 883c dbf0 513c 00b5 c7bc
00000270: 6bd5 adba a82f fcbc 79f6 55bc 7de4 02bc
00000280: 453b be3c 7fa6 71ba b800 6cbc 7419 b83b
00000290: ba68 c2bc 3d2c 09bc 81f6 eabb ee36 353c
000002a0: 5ea5 59bb c653 9e3c 3799 1cbd aa1e 64bc
000002b0: 6031 843c 0032 ce3b 4ec6 a7bb b011 e93c
000002c0: f644 ae3c 82bb edbd cfec c4bc 9460 a9bb
000002d0: 1321 3c3c 4649 84bb d842 c23c 2941 d3bc
000002e0: 3233 7ebc ab7c c53c a4f0 873b d571 153c
000002f0: 52cd 313c bfd9 f4bb 21f5 81bb cccf 723c
00000300: 0914 4cbc b2ff 19bc fce6 883b 21a4 fa3b
00000310: fe5d 0ebb 6432 afbc 1e1e b0bb 1ad0 92bc
00000320: 84a9 a63c be2c 82bc c76b d63c 2c5b 4e3c
00000330: 08d5 ddbc 2f55 fe3b 0518 00bd 03e8 633b
00000340: e80b e0bc 89db debc 1956 4d3b 8035 7bbc
00000350: a576 dd3c 0ca5 cbbc 4205 d73c 4f49 9c3c
00000360: dad5 b63c 4dbc 18bc ab95 03bd 09e8 2fbd
00000370: 9ce4 f13c ba3d c0bb 9260 00bd 98e4 deb9
00000380: a144 b23b fb33 a7bc 9ee2 d03c c7fc afbc
00000390: 497f 063d 31ba 4abc a0eb 2cbc e67d 703a
000003a0: 4d56 193c ccd4 8fbc 2f14 d2bc d636 b63c
000003b0: 2596 173d 02f4 fcba aec3 043d dc35 0d3c
000003c0: 2265 22bb 5eea 98bc 23b4 dcbc 945b b2bc
000003d0: b074 03bc 4cd9 963c b4b4 a6bb b0fb a0ba
000003e0: 1232 493b 8656 a9bc b4d3 b9b9 cabc 0c3d
000003f0: ab9c 023d e24c c53c 302a 81bb 155d 593a
