model/DBIndexTask_5_11100-1_302.pth (torch, 3019 bytes, 3 tensors)

fc.0.weight f4 [100, 1]
0.56943667 -0.44137824 -0.14872529 0.43629035 -0.9414369 0.59971726 -0.20991915 0.60392463
0.19383012 -0.07833974 0.33681414 0.09943365 0.32451022 -0.389701 -0.028545735 -0.04402564
0.19212306 -0.045075867 0.8452799 0.31119013 -0.37240624 -0.6484872 -0.20957026 -0.4313407
-0.27684695 0.047881603 0.59612775 0.6035432 -0.97233707 0.66717064 0.27936387 0.9113185
0.7073004 -1.0090269 -1.0405507 -0.44097438 0.8401217 -0.12299452 0.42795944 -0.46471143
0.9472274 -0.42309844 0.8163255 0.070907556 -0.67479414 0.6340772 -0.57573986 0.25538644
-0.33232448 -0.063762255 -0.9613881 -0.5198278 0.6411729 -0.24307728 1.0987555 0.768325
-0.04682362 -0.6674831 0.66515756 0.3103571 -0.64641976 0.6979532 0.5712602 0.93466794
-0.56055963 -0.21191773 -0.019371867 0.14605749 -0.7589183 -0.7096224 0.6013693 -0.1902595
0.5473488 0.10401402 0.29183394 0.18271053 0.32328993 0.5877706 -0.92611206 0.57584274
-0.7031232 -0.754509 0.06081438 -0.17040718 0.587324 -0.62435836 -0.88898194 0.7277688
-0.14828181 0.66101545 0.39723694 -0.7498753 0.20089829 0.29209563 -0.6551245 -0.47447228
0.3057945 0.2526038 -0.468427 -0.3027159
00000000: 9ac6 113f 54fc e1be 714b 18be 7361 df3e
00000010: 0202 71bf 1287 193f 0cf5 56be ce9a 1a3f
00000020: 677b 463e 9670 a0bd e772 ac3e dfa3 cb3d
00000030: 3426 a63e e486 c7be bfd8 e9bc 3b54 34bd
00000040: e8bb 443e 79a1 38bd 4364 583f 5054 9f3e
00000050: 08ac bebe 4203 26bf 9699 56be b0d8 dcbe
00000060: e2be 8dbe 801f 443d d49b 183f cf81 1a3f
00000070: 15eb 78bf b2cb 2a3f c808 8f3e 2b4c 693f
00000080: a411 353f cb27 81bf c430 85bf 65c7 e1be
00000090: 3712 573f 8de4 fbbd 801d db3e a8ee edbe
000000a0: 7f7d 723f 5ca0 d8be b5fa 503f fb37 913d
000000b0: 4fbf 2cbf e252 223f b063 13bf 03c2 823e
000000c0: 6f26 aabe c995 82bd 881d 76bf 6f13 05bf
000000d0: e823 243f 40e9 78be 05a4 8c3f f2b0 443f
000000e0: 20ca 3fbd 2ce0 2abf c447 2a3f 20e7 9e3e
000000f0: c47b 25bf 10ad 323f 1c3e 123f 6646 6f3f
00000100: d680 0fbf f600 59be c0b1 9ebc 1890 153e
00000110: 7848 42bf d0a9 35bf 57f3 193f 63d3 42be
00000120: 0d1f 0c3f 4d05 d53d 426b 953e 7818 3b3e
00000130: 4286 a53e 2278 163f ae15 6dbf 6e6a 133f
00000140: e2ff 33bf 8027 41bf 8018 793d 387f 2ebe
00000150: de5a 163f f3d5 1fbf 5294 63bf 0e4f 3a3f
00000160: 30d7 17be 4f38 293f a462 cb3e d4f7 3fbf
00000170: 48b8 4d3e 8f8d 953e 3db6 27bf 08ee f2be
00000180: 1991 9c3e 4955 813e aad5 efbe 94fd 9abe

fc.0.bias f4 [100]
0.92156273 -0.18502128 0.57262546 0.41970217 -0.6464071 -0.85042953 0.936377 0.018724356
0.6905827 0.21603005 0.3254663 0.75390035 0.9374407 -0.663581 0.13405356 0.7548552
0.7326836 0.61045325 -0.75239795 -0.7201042 -0.6047716 0.06645881 0.98614764 -0.6316756
0.54185176 -0.55348814 -0.9402157 -0.13051228 0.55067354 0.93670183 -0.6210388 0.20529719
0.8712026 0.69595516 0.6518764 0.7196395 0.6209287 0.2674241 -0.6838201 -0.8397585
-0.48984444 -0.1164459 -0.5462446 0.344243 0.3207577 -0.01782752 0.40947452 0.31178918
0.6003646 0.68207365 -0.33865273 0.9661311 -0.004031751 -0.034355998 -0.83901477 -0.6765604
-0.5842035 -0.42772293 0.67641413 -0.32678103 -0.7472812 0.39275134 0.3079094 0.655895
-0.51747215 0.20726752 -0.36405063 -0.2246747 -0.7969184 -0.45576096 -0.24474241 0.43608838
0.18711878 0.2553518 0.985732 0.9624397 0.6711543 -0.0005209105 -0.6917914 0.78008395
-0.25006342 -0.080845356 -0.86149895 -0.1975286 -0.6449878 0.9089757 -0.864521 -0.7794827
-0.03395629 -0.4404541 0.35540646 -0.3849256 -0.46968758 0.063529655 0.73754036 -0.70342374
0.4569272 0.63947797 0.96778655 -0.6999309
00000000: 89eb 6b3f 3876 3dbe 9597 123f 34e3 d63e
00000010: f07a 25bf c0b5 59bf 67b6 6f3f d263 993c
00000020: 07ca 303f fb36 5d3e 85a3 a63e 9dff 403f
00000030: 1dfc 6f3f 72e0 29bf 5645 093e 313e 413f
00000040: 2791 3b3f aa46 1c3f 279d 40bf c058 38bf
00000050: 50d2 1abf 8e1b 883d 2c74 7c3f 7eb5 21bf
00000060: ccb6 0a3f 66b1 0dbf fab1 70bf 03a5 05be
00000070: f1f8 0c3f b1cb 6f3f 66fc 1ebf 6d39 523e
00000080: 2207 5f3f 1e2a 323f 5fe1 263f 4b3a 383f
00000090: 2ff5 1e3f d0eb 883e d60e 2fbf 6afa 56bf
000000a0: e4cc fabe 307b eebd b0d6 0bbf 9e40 b03e
000000b0: 5a3a a43e 050b 92bc a5a6 d13e d5a2 9f3e
000000c0: 7fb1 193f 619c 2e3f e463 adbe 5e54 773f
000000d0: c71c 84bb e0b8 0cbd acc9 56bf 1033 2dbf
000000e0: 5c8e 15bf 80fe dabe 7a29 2d3f d84f a7be
000000f0: d24d 3fbf b416 c93e 4da6 9d3e bce8 273f
00000100: 0e79 04bf f03d 543e d864 babe 2011 66be
00000110: d802 4cbf 8059 e9be c19d 7abe fa46 df3e
00000120: 119c 3f3e 79bd 823e ef58 7c3f 7362 763f
00000130: c5d0 2b3f b68d 08ba 3e19 31bf 95b3 473f
00000140: 5008 80be 4092 a5bd 328b 5cbf f044 4abe
00000150: ec1d 25bf a2b2 683f 4051 5dbf 2e8c 47bf
00000160: c015 0bbd 3383 e1be d6f7 b53e f814 c5be
00000170: e47a f0be d61b 823d 72cf 3c3f 9413 34bf
00000180: 5df2 e93e d4b4 233f dcc0 773f ac2e 33bf

fc.1.weight f4 [1, 100]
0.04378664 -0.07394268 0.085949816 -0.014661005 0.060235273 0.0029771447 -0.004084341 0.03848472
0.031351056 0.03991919 0.039456017 0.042105645 -0.073496 0.072853744 0.08273744 0.08981385
0.08811261 -0.06346471 0.00037479692 0.08817253 -0.076165855 -0.014580985 -0.07399747 -0.07044085
0.038689308 -0.07184891 -0.022910072 0.12071277 0.0067020627 0.11534049 -0.020291746 -0.042174503
0.12029354 -0.08397278 -0.11020359 0.009659716 -0.043510325 0.05503821 0.06267327 -0.079348125
-0.039967377 -0.008759642 0.10835446 0.008618329 -0.13086353 0.06479705 -0.15769167 -0.048294812
-0.07344516 0.08843686 0.08815058 -0.041048013 0.059075616 0.044597793 0.10180027 -0.012734253
0.057673838 0.061473418 0.017055625 -0.012310254 0.090874515 0.11618802 -0.027643079 0.12463795
0.024747252 -0.09232704 0.054741252 -0.074657455 0.09239286 -0.064287916 0.07593963 0.023216147
0.05675151 0.09863083 -0.025923504 -0.028396087 -0.06819553 0.03914862 -0.047372054 0.024731591
-0.02049985 0.03317937 0.08650763 0.029507816 -0.032214023 -0.063377805 -0.087215304 0.08414469
-0.018944014 0.12075118 0.027566502 -0.063726716 0.05631814 0.09294531 -0.026075682 -0.056828894
-0.021779021 0.01727373 -0.061909713 -0.055795826
00000000: 9f59 333d 436f 97bd 7506 b03d b634 70bc
00000010: 43b9 763d 331c 433b f0d5 85bb 27a2 1d3d
00000020: f769 003d 4e82 233d a29c 213d f876 2c3d
00000030: 1285 96bd 5834 953d 3f72 a93d 53f0 b73d
00000040: 6274 b43d c9f9 81bd 6480 c439 cd93 b43d
00000050: d8fc 9bbd 15e5 6ebc fc8b 97bd 4b43 90bd
00000060: ae78 1e3d 8525 93bd e7ad bbbc 4238 f73d
00000070: fa9c db3b a337 ec3d e03a a6bc 2cbf 2cbd
00000080: 765c f63d ecf9 abbd 6bb2 e1bd c943 1e3c
00000090: e237 32bd bf6f 613d d85a 803d 4581 a2bd
000000a0: d5b4 23bd 9a84 0fbc f1e8 dd3d e433 0d3c
000000b0: 1701 06be 51b4 843d ed79 21be c8d0 45bd
000000c0: 6b6a 96bd 621e b53d 4b88 b43d f621 28bd
000000d0: 46f9 713d 2dac 363d a97c d03d 54a3 50bc
000000e0: 673b 6c3d 8dcb 7b3d 3db8 8b3c f3b0 49bc
000000f0: 6b1c ba3d fcf3 ed3d bd73 e2bc 2e42 ff3d
00000100: c0ba ca3c f615 bdbd 5d38 603d 02e6 98bd
00000110: 7838 bd3d 62a9 83bd 3d86 9b3d ca2f be3c
00000120: 4574 683d f6fe c93d 875d d4bc e99e e8bc
00000130: 19aa 8bbd 4e5a 203d 3309 42bd e899 ca3c
00000140: 4def a7bc 17e7 073d ea2a b13d 60ba f13c
00000150: daf2 03bd 39cc 81bd f09d b2bd 0d54 ac3d
00000160: 7a30 9bbc 654c f73d 25d3 e13c 2783 82bd
00000170: daad 663d 1c5a be3d ab9c d5bc 6ac5 68bd
00000180: eb69 b2bc a381 8d3c 0a95 7dbd 2a8a 64bd
