model/DBIndexTask_1_01000-1_304.pth (torch, 3019 bytes, 3 tensors)

fc.0.weight f4 [100, 1]
0.06387136 0.5904426 -0.82304513 -0.735939 -0.38515437 0.3239427 -0.01981318 0.89812624
-0.088744044 0.3339646 -0.30221307 -0.21843748 -0.9553485 -0.6980082 -0.35240892 0.03704357
0.35857567 0.5651951 -0.71330494 -0.47345906 0.42396674 0.883614 -0.20580018 0.8295422
-0.16118336 0.1058141 0.86501455 -0.92767036 -0.62953794 -0.25316525 -0.38979995 0.9177505
-0.64817965 -0.46033287 -0.65026885 -0.936561 -0.6029434 0.82079566 0.4132021 0.54395384
0.109372534 -0.46299976 0.13797715 -0.9336947 -0.72256625 -0.51553 0.6844525 0.54624647
-0.44349504 -0.036082387 0.6395607 1.1053838 0.4661247 0.10644505 0.6319195 -0.58880234
0.14292647 -0.7753055 -0.69308615 -0.51658356 0.41388994 0.47442806 -0.5923525 0.3021071
0.6178666 -0.26701105 0.038181543 0.29076636 0.6203766 1.025089 -0.81645954 -0.36646974
0.35001034 0.89242005 0.8702073 0.8404156 0.2693275 -0.86958265 0.11399237 -0.62560534
-0.74863476 0.8492678 0.71889925 -1.0260123 0.25084183 -0.11740442 -0.16456115 -0.45775688
0.38455617 -0.63241535 0.32680985 0.56382793 0.8861065 0.4618288 -0.98973525 -0.6486969
0.49931502 0.16796705 -0.780084 -0.5758195
00000000: fdce 823d 3f27 173f 16b3 52bf 8066 3cbf
00000010: f432 c5be d1db a53e 404f a2bc 9aeb 653f
00000020: 70bf b5bd 68fd aa3e acbb 9abe 13ae 5fbe
00000030: b891 74bf aab0 32bf f16e b4be 00bb 173d
00000040: 3b97 b73e a0b0 103f 279b 36bf 3a69 f2be
00000050: 2b12 d93e 8734 623f 48bd 52be e15c 543f
00000060: 400d 25be 10b5 d83d 9871 5d3f ce7b 6dbf
00000070: 6629 21bf e09e 81be dc93 c7be b2f1 6a3f
00000080: 1aef 25bf c0b0 ebbe 0578 26bf 76c2 6fbf
00000090: 805a 1abf aa1f 523f 3a8f d33e 8f40 0b3f
000000a0: b5fe df3d 4e0e edbe e249 0d3e 9e06 6fbf
000000b0: 1afa 38bf c6f9 03bf 4738 2f3f cfd6 0b3f
000000c0: c811 e3be 20cb 13bd 40ba 233f 377d 8d3f
000000d0: e6a7 ee3e ddff d93d 7ac5 213f c0bb 16bf
000000e0: 515b 123e 6c7a 46bf 186e 31bf d23e 04bf
000000f0: 62e9 d33e 3ce8 f23e 6aa4 17bf c8ad 9a3e
00000100: 812c 1e3f acb5 88be 4064 1c3d 54df 943e
00000110: 00d1 1e3f 1e36 833f 7e03 51bf eca1 bbbe
00000120: 8e34 b33e a475 643f e8c5 5e3f 7a25 573f
00000130: 4be5 893e f89c 5ebf d574 e93d ac27 20bf
00000140: 87a6 3fbf 9d69 593f c809 383f 5f54 83bf
00000150: 576e 803e bb71 f0bd b882 28be 1c5f eabe
00000160: 8ce4 c43e f9e5 21bf 9f53 a73e 0757 103f
00000170: e0d7 623f d374 ec3e 4a5f 7dbf 0011 26bf
00000180: 38a6 ff3e 8eff 2b3e 96b3 47bf e868 13bf

fc.0.bias f4 [100]
0.95580196 0.6928603 -0.43602514 -0.25168478 -0.9525981 0.0002629349 -0.7530589 -0.6555709
-0.055099607 0.16480255 -0.40953028 0.5700655 -0.6085391 0.8880812 0.69825774 -0.84328294
-0.28516862 0.021235226 0.097077884 0.29225993 0.3654743 0.0789196 -0.48792875 0.48391342
-0.9592489 -0.5927067 -0.2889193 -0.48711336 -0.34983337 -0.8196217 -0.21271515 0.23268867
-0.6514658 -0.05131936 0.7373886 -0.10280025 0.00055881566 -0.11854794 0.17837025 0.6535708
0.9658906 0.65581095 0.9258244 -0.07232165 -0.8983215 -0.47407722 0.70004773 -0.033957012
-0.49704635 -0.76631176 -0.93585205 -0.72024757 -0.12979047 0.5243289 0.518003 -0.9644319
0.60237736 -0.78250945 -0.21141028 -0.40547264 -0.23063628 -0.120397784 -0.89734995 -0.8634379
-0.09497129 0.15816844 -0.4542749 0.3945177 -0.9000584 -0.04119352 0.86038715 -0.407892
0.88147575 0.3783656 -0.90246093 0.6108014 -0.04200195 -0.44640684 0.77093244 -0.8080952
0.35120454 -0.246088 0.6921443 0.23907377 0.49726227 0.37323216 -0.2404747 -0.21030545
-0.8240814 0.53761905 0.77178735 0.70225817 -0.50824827 0.036541108 -0.7049341 -0.5504842
-0.5827055 0.3198447 -0.5959132 -0.021817207
00000000: 70af 743f 4b5f 313f b03e dfbe d4dc 80be
00000010: 78dd 73bf 86da 8939 78c8 40bf 7fd3 27bf
00000020: 20b0 61bd 00c2 283e f4ad d1be d0ef 113f
00000030: 38c9 1bbf 4a59 633f 05c1 323f 64e1 57bf
00000040: 9f01 92be 7ff5 ad3c c5d0 c63d 18a3 953e
00000050: 731f bb3e 99a0 a13d ccd1 f9be 80c3 f73e
00000060: 5691 75bf a0bb 17bf 3bed 93be ec66 f9be
00000070: 5c1d b3be bad2 51bf 00d2 59be f045 6e3e
00000080: 76c6 26bf 4034 52bd 80c5 3c3f f088 d2bd
00000090: 7c7d 123a 43c9 f2bd b1a6 363e 6a50 273f
000000a0: 9b44 773f 3ae3 273f d402 6d3f 601d 94bd
000000b0: 66f8 65bf 40ba f2be 5436 333f 8216 0bbd
000000c0: dc7c febe 022d 44bf 0094 6fbf 2562 38bf
000000d0: cbe7 04be 6b3a 063f d89b 043f 02e5 76bf
000000e0: 6735 1a3f 8a52 48bf f07b 58be 1c9a cfbe
000000f0: eb2b 6cbe 1d93 f6bd bab8 65bf 440a 5dbf
00000100: 4f80 c2bd e8f6 213e b896 e8be 39fe c93e
00000110: 3a6a 66bf 89ba 28bd 5542 5c3f 38d7 d0be
00000120: 65a8 613f 23b9 c13e ae07 67bf 7b5d 1c3f
00000130: 3d0a 2cbd 708f e4be d45b 453f 54df 4ebf
00000140: 15d1 b33e 7efe 7bbe 5e30 313f c1cf 743e
00000150: 2999 fe3e 4918 bf3e 003f 76be 505a 57be
00000160: 00f7 52bf 67a1 093f db93 453f 31c7 333f
00000170: 8f1c 02bf 21ac 153d 9076 34bf 88ec 0cbf
00000180: 302c 15bf afc2 a33e c48d 18bf 00ba b2bc

fc.1.weight f4 [1, 100]
0.02522502 0.094820805 -0.075592004 -0.06865122 -0.058066156 0.12159263 -0.0359465 0.14683166
0.036160756 0.04921792 -0.0007444024 -0.0076249936 0.012546635 -0.027598092 0.0038656148 0.012759305
-0.04366491 -0.0074671335 -0.009284805 -0.18011212 0.024292685 0.14449777 0.036123704 0.03792003
-0.086660996 0.04953779 -0.01938906 -0.028386427 -0.033551633 -0.014808739 0.0010938287 0.12333978
0.012483883 0.089569286 0.041759674 -0.063221395 0.019992026 -0.020329196 -0.0059250225 0.059567273
0.05499923 0.06902871 -0.009130308 0.00016008616 0.051482357 -0.096709214 0.10358856 -0.034853954
0.0013782502 -0.017001677 -0.052667297 0.07179523 0.15308645 -0.0053863586 -0.026740316 -0.036983885
-0.07463481 0.0451394 -0.04802637 -0.06673403 -0.012399988 0.12724319 0.052957367 0.076752186
0.09615364 -0.24650672 -0.027944816 0.058804713 0.08220347 0.07833629 -0.06283692 -0.04700774
-0.068243355 0.05908157 -0.05611825 -0.055677224 0.17387697 -0.06494112 0.01106381 0.028649354
-0.24307795 -0.015490105 -0.049209803 -0.024870876 0.043216884 0.09365081 -0.033524062 0.029455543
-0.02286762 -0.040213853 -0.0343293 0.06375424 0.1330117 0.043511312 -0.022490216 -0.061642982
0.06915448 -0.046749488 0.040966548 -0.033625353
00000000: b3a4 ce3c 6931 c23d fbcf 9abd 0399 8cbd
00000010: c7d6 6dbd 8f05 f93d a33c 13bd 0a5b 163e
00000020: 4d1d 143d bb98 493d 0024 43ba 15db f9bb
00000030: 6790 4d3c 6515 e2bc 4156 7d3b 670c 513c
00000040: fad9 32bd dbae f4bb 4b1f 18bc 506f 38be
00000050: 7401 c73c 39f7 133e 73f6 133d 0952 1b3d
00000060: 527b b1bd 23e8 4a3d ced5 9ebc a78a e8bc
00000070: 706d 09bd 5aa0 72bc cd5e 8f3a 9199 fc3d
00000080: 3389 4c3c 1a70 b73d 310c 2b3d 387a 81bd
00000090: 51c6 a33c 6a89 a6bc b126 c2bb d0fc 733d
000000a0: df46 613d ed5e 8d3d 4a97 15bc cddc 2739
000000b0: 2adf 523d 7b0f c6bd 3d26 d43d 05c3 0ebd
000000c0: 67a6 b43a 1a47 8bbc aab9 57bd 6109 933d
000000d0: b2c2 1c3e 0d80 b0bb 820e dbbc 6a7c 17bd
000000e0: 23da 98bd 17e4 383d 4db7 44bd daab 88bd
000000f0: 5229 4bbc 0a4c 023e d3e9 583d 4030 9d3d
00000100: 33ec c43d 426c 7cbe 87ec e4bc 36dd 703d
00000110: 4b5a a83d c76e a03d a5b0 80bd 308b 40bd
00000120: 2cc3 8bbd 84ff 713d 40dc 65bd cd0d 64bd
00000130: ce0c 323e daff 84bd fc44 353c 0db2 ea3c
00000140: 6de9 78be 36ca 7dbc 3890 49bd 02be cbbc
00000150: 3004 313d ffcb bf3d 8750 09bd c04c f13c
00000160: e054 bbbc 48b7 24bd e19c 0cbd 9591 823d
00000170: 3834 083e eb38 323d 673d b8bc 5a7d 7cbd
00000180: dda0 8d3d 647c 3fbd 8acc 273d bdba 09bd
