model/FBDBIndexTask_1_00000-1_400.pth (torch, 4183 bytes, 4 tensors)

fc.0.weight f8 [100, 1]
000000 16 2c 73 98 8e 4b 8e bf e3 46 c6 c9 57 70 e1 3f
       -0.014792551066781495 0.544963735667093
000010 00 00 00 c0 62 56 ea bf 00 00 00 00 d0 8c e7 bf
       -0.8230451345443726 -0.7359390258789062
000020 00 00 00 80 5e a6 d8 bf 3f 48 3c d6 6b e3 d4 3f
       -0.3851543664932251 0.32638069077905024
000030 00 00 00 00 e8 49 94 bf 49 f9 71 6c dd c8 f0 3f
       -0.019813179969787598 1.0490392910138147
000040 00 00 00 00 ee b7 b6 bf ca 48 e2 38 c3 c8 d0 3f
       -0.08874404430389404 0.2622535758502066
000050 00 00 00 80 75 57 d3 bf e5 1b 1d 29 d9 38 d8 bf
       -0.30221307277679443 -0.3784697438717884
000060 00 00 00 00 37 92 ee bf fd 83 fb 24 71 cc f1 bf
       -0.9553484916687012 -1.112412590468238
000070 34 75 2f 5c 90 49 dc bf 00 00 00 00 60 f7 a2 3f
       -0.44198998453596805 0.03704357147216797
000080 44 f4 3d ff 0a 45 db 3f f8 2b f5 52 97 ff e0 3f
       0.4260890476796855 0.5312000866191502
000090 03 fe 1d c5 e0 4e f3 bf c5 84 44 1e 43 37 de bf
       -1.2067573261155082 -0.47212293582749637
0000a0 9f 2b 54 58 89 a7 d3 3f 3d f6 73 0d ed ef ea 3f
       0.3071006167016836 0.8417878401521147
0000b0 00 00 00 00 a9 57 ca bf dc 0f 89 64 6e cf e7 3f
       -0.20580017566680908 0.7440711940366742
0000c0 00 00 00 00 a8 a1 c4 bf 00 00 00 00 a2 16 bb 3f
       -0.16118335723876953 0.10581409931182861
0000d0 95 2b 7d 1e ab a5 eb 3f 00 00 00 c0 79 af ed bf
       0.8639731975066406 -0.9276703596115112
0000e0 00 00 00 c0 2c 25 e4 bf 00 00 00 00 dc 33 d0 bf
       -0.6295379400253296 -0.25316524505615234
0000f0 00 00 00 80 7b f2 d8 bf c9 eb 81 f4 39 fa eb 3f
       -0.38979995250701904 0.8742952132737339
000100 00 00 00 40 e3 bd e4 bf 00 00 00 00 18 76 dd bf
       -0.6481796503067017 -0.46033287048339844
000110 a1 d0 9f 15 a2 30 e6 bf 00 00 00 c0 4e f8 ed bf
       -0.6934366628979839 -0.9365609884262085
000120 63 90 b1 68 53 51 e3 bf 8f 5e 3d 7c 47 a2 ea 3f
       -0.6036774678036746 0.8323094774777519
000130 6d 34 26 3b 96 54 d5 3f 7f c0 9f 9b 27 36 df 3f
       0.33328777099888535 0.4876803416982582
000140 c8 3e 83 09 ac 96 ac 3f 61 88 f9 60 52 26 e0 bf
       0.055837036286559505 -0.5046779531514965
000150 c6 37 ef 19 60 5e d9 bf 00 00 00 c0 d3 e0 ed bf
       -0.39638521702442764 -0.9336947202682495
000160 00 00 00 40 43 1f e7 bf 00 00 00 c0 38 7f e0 bf
       -0.7225662469863892 -0.515529990196228
000170 c5 4c d0 cc ea 7c e4 3f b4 ec dc a7 62 d2 e1 3f
       0.6402486801402111 0.556931808335682
000180 00 00 00 00 39 62 dc bf 00 00 00 00 64 79 a2 bf
       -0.4434950351715088 -0.03608238697052002
000190 00 00 00 00 48 77 e4 3f 81 da 21 cb c0 db f2 3f
       0.6395606994628906 1.1786506590703143
0001a0 2c ed a5 68 07 87 dc 3f 32 74 fe 74 53 37 c9 bf
       0.4457415124849884 -0.19700091564746597
0001b0 a0 32 08 63 f8 a5 e3 3f 00 00 00 00 78 d7 e2 bf
       0.6140100416392507 -0.5888023376464844
0001c0 9f 95 57 4b 8d 6a c3 3f 00 00 00 80 4d cf e8 bf
       0.1516892068749884 -0.7753055095672607
0001d0 00 00 00 00 c3 2d e6 bf 00 00 00 40 da 87 e0 bf
       -0.6930861473083496 -0.5165835618972778
0001e0 e0 fa 13 dc 4e 59 db 3f da 0b f7 42 3a f2 dc 3f
       0.4273259305190731 0.452284398456127
0001f0 00 00 00 40 8d f4 e2 bf 00 00 00 00 b9 55 d3 3f
       -0.5923525094985962 0.3021070957183838
000200 d4 3a 72 7c 55 28 e5 3f f7 74 dd 45 47 0a d4 bf
       0.6611735754575769 -0.31312734434852935
000210 00 00 00 00 88 8c a3 3f 41 f1 ca 4d ed 00 ce 3f
       0.03818154335021973 0.23440328882669273
000220 00 00 00 00 20 da e3 3f 8c d8 71 44 34 15 f2 3f
       0.6203765869140625 1.130176799165869
000230 e3 cd af 55 3c ea e9 bf 00 00 00 80 3d 74 d7 bf
       -0.8098432229584741 -0.36646974086761475
000240 a3 d7 cc da bd de d6 3f 72 12 10 86 4b 90 ea 3f
       0.3573450695724835 0.8301141374982548
000250 00 00 00 00 bd d8 eb 3f 7d e0 32 a2 39 0b eb 3f
       0.8702073097229004 0.84512025527421
000260 52 66 7c 27 0f 11 d0 3f 00 00 00 00 9f d3 eb bf
       0.25104121070908036 -0.8695826530456543
000270 29 45 14 fe 92 48 84 bf 00 00 00 80 f5 04 e4 bf
       -0.009904049281007037 -0.6256053447723389
000280 46 02 e8 1c 9d 7a f2 bf 18 cd 06 35 a0 b8 ea 3f
       -1.1549349908019777 0.8350373302149903
000290 f8 a0 aa 29 b6 0a e7 3f ee b1 45 c1 5c 71 f1 bf
       0.7200575650977319 -1.0901763486573333
0002a0 79 c2 fe 1d e3 c9 c7 3f 4e 1b cf 25 ea 5c c4 bf
       0.18584860767943548 -0.15908552976744733
0002b0 00 00 00 00 57 10 c5 bf 00 00 00 80 e3 4b dd bf
       -0.16456115245819092 -0.4577568769454956
0002c0 00 00 00 80 91 9c d8 3f ef 1a 53 e4 c6 6c ea bf
       0.3845561742782593 -0.8257784327950882
0002d0 e0 dd 10 e5 a7 fb d3 3f de a3 17 af 51 4f e0 3f
       0.31223485345569024 0.50968250463222
0002e0 2e 52 ce 65 0e 25 f3 3f 44 0b 94 e6 51 81 d6 3f
       1.1965469338221157 0.35164306180393035
0002f0 00 00 00 40 e9 ab ef bf 00 00 00 00 20 c2 e4 bf
       -0.9897352457046509 -0.6486968994140625
000300 00 00 00 00 c7 f4 df 3f 24 0f b2 42 cc 21 c5 3f
       0.4993150234222412 0.16509392983072602
000310 00 00 00 c0 72 f6 e8 bf 00 00 00 00 1d 6d e2 bf
       -0.7800840139389038 -0.5758194923400879

fc.0.bias f8 [100]
000000 2c e7 84 a1 38 7a ed 3f 12 13 69 cf e4 e8 e5 3f
       0.9211695818587251 0.6846794177041338
000010 00 00 00 00 d6 e7 db bf 00 00 00 80 9a 1b d0 bf
       -0.43602514266967773 -0.2516847848892212
000020 00 00 00 00 af 7b ee bf cc 52 7f 3d 60 e2 90 bf
       -0.9525980949401855 -0.01648855567312317
000030 00 00 00 00 0f 19 e8 bf 58 49 f4 40 d3 01 e6 bf
       -0.753058910369873 -0.6877228039395886
000040 00 00 00 00 04 36 ac bf 65 00 e0 0b 37 fd c1 3f
       -0.05509960651397705 0.14054000930628088
000050 00 00 00 80 be 35 da bf a5 04 fc d2 c6 c2 d7 3f
       -0.40953028202056885 0.37126322368573944
000060 00 00 00 00 27 79 e3 bf b2 f9 cb 0d 00 21 ec 3f
       -0.6085391044616699 0.8790283460110031
000070 38 fb 71 89 2d 73 e4 3f 00 00 00 80 2c fc ea bf
       0.6390597996213279 -0.84328293800354
000080 b1 59 cc 4c ca c0 d3 bf f3 9b 59 f2 cf 82 6a bf
       -0.30864198207691645 -0.0032362042864408857
000090 40 58 25 f1 c1 13 bc 3f a3 9a 44 c9 4d cd d3 3f
       0.1096764768347791 0.3094057527072584
0000a0 12 aa 04 da 7c c1 d3 3f b8 bb 28 34 b4 2a b3 3f
       0.3086845521053486 0.07487036012092474
0000b0 00 00 00 80 39 3a df bf ce e5 88 d3 49 ff dc 3f
       -0.48792874813079834 0.4530815664071185
0000c0 00 00 00 c0 2a b2 ee bf 00 00 00 00 74 f7 e2 bf
       -0.9592489004135132 -0.5927066802978516
0000d0 34 bb 8b a9 c9 1a d1 bf 00 00 00 80 dd 2c df bf
       -0.2672599940987539 -0.487113356590271
0000e0 00 00 00 80 ab 63 d6 bf 00 00 00 40 57 3a ea bf
       -0.3498333692550659 -0.8196216821670532
0000f0 00 00 00 00 40 3a cb bf fe 36 a3 16 c5 12 cd 3f
       -0.21271514892578125 0.22713531117772584
000100 00 00 00 c0 ce d8 e4 bf 00 00 00 00 88 46 aa bf
       -0.6514657735824585 -0.05131936073303223
000110 e2 58 b4 6a dd 25 e7 3f 00 00 00 00 1e 51 ba bf
       0.7233721813270473 -0.10280025005340576
000120 47 d5 30 24 4b 70 48 bf 2c 3f e9 95 fd 60 b3 bf
       -0.0007458083058568343 -0.07569870862903078
000130 35 c2 2f bd ba 05 b4 3f d1 ea 7f 98 76 67 e4 3f
       0.07821242445766859 0.6376297930249512
000140 8e e7 b1 a8 06 67 ee 3f fd fb 2d 55 ea ab e4 3f
       0.95007641742926 0.6459857619919372
000150 1e f9 cf af 30 a9 d3 3f 00 00 00 00 ac 83 b2 bf
       0.3072015492360992 -0.07232165336608887
000160 00 00 00 c0 0c bf ec bf 00 00 00 00 48 57 de bf
       -0.8983215093612671 -0.4740772247314453
000170 ea 94 2f 6c 81 2c e6 3f 50 19 a3 4a 38 f0 a9 bf
       0.6929328072552867 -0.05066085730645631
000180 00 00 00 80 9b cf df bf 00 00 00 40 a0 85 e8 bf
       -0.4970463514328003 -0.766311764717102
000190 00 00 00 00 80 f2 ed bf c6 4e 89 27 05 ba e8 bf
       -0.93585205078125 -0.7727075359529969
0001a0 42 8f b6 ab 8f cd c7 bf ff 16 ad a9 4e ec c3 3f
       -0.18596073040418487 0.15564902577369108
0001b0 ea cb 26 eb da 48 de 3f 00 00 00 40 a0 dc ee bf
       0.47319672550219016 -0.964431881904602
0001c0 c6 c3 86 de d5 8e e2 3f 00 00 00 40 51 0a e9 bf
       0.5799359651774629 -0.782509446144104
0001d0 00 00 00 00 7e 0f cb bf 00 00 00 80 43 f3 d9 bf
       -0.2114102840423584 -0.40547263622283936
0001e0 8c d3 94 b3 6e cf d3 bf 44 72 2a 55 53 27 c8 bf
       -0.30953567063561915 -0.1887001195763266
0001f0 00 00 00 40 17 b7 ec bf 00 00 00 80 48 a1 eb bf
       -0.8973499536514282 -0.8634378910064697
000200 41 3a 85 c8 ad 54 cd bf 18 79 10 7e d1 43 ca 3f
       -0.22914669314418926 0.20519465117917757
000210 00 00 00 00 d7 12 dd bf 01 b6 7c f0 19 34 d8 3f
       -0.45427489280700684 0.37818001256059125
000220 00 00 00 40 47 cd ec bf bf fa 3f 7b 6f 40 ad bf
       -0.900058388710022 -0.05713222865596412
000230 a4 c0 10 53 44 e9 e9 3f 00 00 00 00 e7 1a da bf
       0.8097249624606957 -0.40789198875427246
000240 c4 39 f4 1d d1 74 eb 3f ee 70 99 df 2c 10 d7 3f
       0.8580098710097492 0.3603622611606302
000250 00 00 00 c0 f5 e0 ec bf d6 fe fd 53 68 c1 e2 3f
       -0.9024609327316284 0.5861093178245607
000260 6a c8 63 9c 1e d1 ba bf 00 00 00 00 ee 91 dc bf
       -0.10475341146573816 -0.44640684127807617
000270 35 d6 43 63 4f f0 e5 3f 00 00 00 80 ea db e9 bf
       0.6855847300309451 -0.8080952167510986
000280 c7 53 a6 ec b1 d7 e4 3f f0 a1 13 d2 fd 87 d0 bf
       0.6513299581589472 -0.25830026164342623
000290 9c 40 b7 47 08 40 e5 3f 49 a9 9f 41 b8 18 dd 3f
       0.6640664482784078 0.45463377388536635
0002a0 b3 d5 5e 13 af 5b de 3f 63 d4 c9 d6 cc 66 d7 3f
       0.47434594051022855 0.3656494233649196
0002b0 00 00 00 00 e0 c7 ce bf 00 00 00 00 4a eb ca bf
       -0.24047470092773438 -0.21030545234680176
0002c0 00 00 00 00 e0 5e ea bf ff 8c ba aa 89 e3 df 3f
       -0.8240814208984375 0.49826280281759233
0002d0 a3 cc e8 1d f6 4e e7 3f 9b 2d ee bf 0f 02 e6 3f
       0.7283888420264656 0.6877516506805706
0002e0 93 ec 1e 80 fe 27 e4 bf 93 f0 65 97 cd 6c 92 bf
       -0.6298820974692653 -0.01799317585526745
0002f0 00 00 00 00 d2 8e e6 bf 00 00 00 00 91 9d e1 bf
       -0.7049341201782227 -0.5504841804504395
000300 00 00 00 00 86 a5 e2 bf aa d4 8d 43 d7 64 d2 3f
       -0.5827054977416992 0.2874048385340965
000310 00 00 00 80 b8 11 e3 bf 00 00 00 00 40 57 96 bf
       -0.5959131717681885 -0.02181720733642578

fc.1.weight f8 [1, 100]
000000 4d 71 6a de e1 d1 9b 3f 46 97 fa 8a 58 23 b6 3f
       0.027167824936087204 0.08647683518446767
000010 00 00 00 60 ff 59 b3 bf 00 00 00 60 20 93 b1 bf
       -0.07559200376272202 -0.0686512216925621
000020 00 00 00 e0 d8 ba ad bf 2f 4c ab 1f bd bc c0 3f
       -0.05806615576148033 0.1307598499903135
000030 00 00 00 60 94 67 a2 bf 32 1f a5 5e 68 29 e7 bf
       -0.035946499556303024 -0.7238046501670168
000040 00 00 00 a0 a9 83 a2 3f 9a c2 b4 37 d8 5f 9e 3f
       0.03616075590252876 0.0296624931335737
000050 00 00 00 00 80 64 48 bf 31 c1 cd 50 39 8b 87 3f
       -0.0007444024085998535 0.011496017244752995
000060 00 00 00 e0 0c b2 89 3f da 9a f4 11 96 85 da 3f
       0.01254663523286581 0.4144034552904664
000070 bd be 8c 89 7a d7 94 3f 00 00 00 e0 8c 21 8a 3f
       0.020353235860226294 0.012759304605424404
000080 5e bf 37 79 91 4f da bf 3d 59 1b 40 b6 9b 9c bf
       -0.4111064609305596 -0.027937743819017802
000090 79 48 44 73 5e cb d3 bf 4f 01 27 19 6d 7d c3 bf
       -0.3092876554156941 -0.1522652027906681
0000a0 15 31 7d 48 a0 30 89 3f fa c7 05 90 36 bb bd 3f
       0.012299778186978952 0.11613789573837599
0000b0 00 00 00 60 ce 7e a2 3f d1 49 a1 2f e3 45 98 3f
       0.03612370416522026 0.023704099447351915
0000c0 00 00 00 40 6a 2f b6 bf 00 00 00 60 04 5d a9 3f
       -0.08666099607944489 0.049537789076566696
0000d0 8b e4 00 c4 d1 03 a6 bf 00 00 00 e0 54 11 9d bf
       -0.04299788968678183 -0.028386427089571953
0000e0 00 00 00 00 ae 2d a1 bf 00 00 00 40 0b 54 8e bf
       -0.03355163335800171 -0.014808738604187965
0000f0 00 00 00 a0 d9 eb 51 3f fb 98 c9 e1 58 07 ba 3f
       0.0010938287014141679 0.10167460930242449
000100 00 00 00 60 26 91 89 3f 00 00 00 40 03 ee b6 3f
       0.01248388271778822 0.08956928551197052
000110 3b 89 3d f9 18 e6 b3 3f 00 00 00 00 47 2f b0 bf
       0.0777297600266466 -0.06322139501571655
000120 1a 1b ae 9b fc 2f 93 3f 71 29 83 87 da b3 ac bf
       0.018737742425879757 -0.05605967430308823
000130 5d c5 38 bc e4 d8 8e bf 41 60 09 9d af 43 aa 3f
       -0.015062129015037834 0.05129765312148083
000140 77 af 93 e1 5d b1 ac 3f 4a 43 f0 27 36 02 b8 3f
       0.056040700708620265 0.09378374552785576
000150 26 04 69 3e 63 04 55 3f 00 00 00 a0 99 fb 24 3f
       0.0012827843835483493 0.00016008615784812719
000160 00 00 00 40 e5 5b aa 3f 00 00 00 60 ef c1 b8 bf
       0.05148235708475113 -0.09670921415090561
000170 9a 4c 91 46 f2 21 b8 3f 77 47 49 8b 6d 8b b1 bf
       0.09426798079339208 -0.06853375101607449
000180 00 00 00 e0 cc 94 56 3f 00 00 00 40 e3 68 91 bf
       0.0013782501919195056 -0.017001677304506302
000190 00 00 00 40 35 f7 aa bf 24 fa 45 c6 bc b1 d4 bf
       -0.052667297422885895 -0.3233482300055661
0001a0 c4 8a 51 0e ff 36 c0 3f f3 cc ab be 9f e4 a3 3f
       0.1266783542551676 0.03885363771942165
0001b0 ce c4 c7 bd fb 50 a1 bf 00 00 00 40 8d ef a2 bf
       -0.033820979038759455 -0.03698388487100601
0001c0 69 ff c3 18 9f 43 b2 bf 00 00 00 e0 82 1c a7 3f
       -0.0713443217719011 0.04513939842581749
0001d0 00 00 00 a0 e9 96 a8 bf 00 00 00 40 7b 15 b1 bf
       -0.048026371747255325 -0.06673403084278107
0001e0 5c f4 8b bf bd f9 d7 bf e9 e6 a9 25 35 cd b8 3f
       -0.37461799340946356 0.09688121957324437
0001f0 00 00 00 60 3a 1d ab 3f 00 00 00 00 08 a6 b3 3f
       0.05295736715197563 0.0767521858215332
000200 85 90 6e 45 1b bd cf 3f 8f 58 11 74 97 bb cf bf
       0.2479585732481874 -0.24791234176035856
000210 00 00 00 e0 90 9d 9c bf ff d1 72 8a 29 9d a9 3f
       -0.027944816276431084 0.050027177954152784
000220 00 00 00 60 49 0b b5 3f c7 02 f3 bf 26 e7 c9 3f
       0.0822034701704979 0.20236667988321796
000230 0e 22 10 f2 5b 12 8f bf 00 00 00 00 66 11 a8 bf
       -0.015171736073186028 -0.047007739543914795
000240 b2 d5 16 a4 89 73 b1 bf be 06 27 d0 2e 73 a5 3f
       -0.06816921478351537 0.04189440051005765
000250 00 00 00 00 88 bb ac bf 2d 7a bb 61 c4 71 b0 bf
       -0.05611824989318848 -0.06423594842952048
000260 77 42 8a 85 3b 48 c1 3f 00 00 00 40 fb 9f b0 bf
       0.1350168611575275 -0.06494112312793732
000270 e6 3e e6 f4 f0 84 86 3f 00 00 00 a0 41 56 9d 3f
       0.010995752786385048 0.028649354353547096
000280 d4 98 f3 dc 9b 20 f3 bf fa a9 5b 7c 7b 61 a6 bf
       -1.1954611426277113 -0.04371248143236879
000290 3a ce c0 e9 0a 6b ac bf f2 41 68 d7 46 ea d2 3f
       -0.055504170450515436 0.2955491164766776
0002a0 17 75 17 c3 d3 30 a3 3f c9 25 db b2 46 de b9 3f
       0.03748189693917874 0.10104791514017743
0002b0 00 00 00 e0 10 2a a1 bf 00 00 00 00 98 29 9e 3f
       -0.03352406248450279 0.02945554256439209
0002c0 00 00 00 00 9c 6a 97 bf 91 ac 2c a4 ab 02 ce 3f
       -0.02286761999130249 0.234456496394476
0002d0 03 28 e1 0b 72 8e a1 bf 00 01 1e 19 b8 9a ac 3f
       -0.034289897871147466 0.05586791330915908
0002e0 01 d4 0a 43 57 ea f4 3f d6 e0 c3 96 1e d3 89 3f
       1.3072121256675475 0.012609709716784694
0002f0 00 00 00 e0 ac 07 97 bf 00 00 00 40 ab 8f af bf
       -0.02249021641910076 -0.06164298206567764
000300 00 00 00 a0 1b b4 b1 3f e5 5c 5b b5 1d 2b a7 bf
       0.06915447860956192 -0.04525082434491327
000310 00 00 00 40 91 f9 a4 3f 00 00 00 a0 57 37 a1 bf
       0.04096654802560806 -0.03362535312771797

fc.1.bias f8 [1]
000000 b3 fb 3f c4 7b 94 97 bf
       -0.023027356961388978
