model/FBDBIndexTask_7_11100-1_10.pth (torch, 4177 bytes, 4 tensors)

fc.0.weight f8 [100, 1]
-0.06411263932983802 0.5226374100677323 -0.8230451345443726 -0.7359390258789062 -0.3851543664932251 0.26250191841550935 -0.019813179969787598 0.778280677010275
-0.08874404430389404 0.24204259002113881 -0.30221307277679443 -0.2981839497917495 -0.9553484916687012 -0.7737552949468074 -0.5333293552923258 0.03704357147216797
1.0296455430803195 0.6012135723686524 -0.731593868959558 -0.7087685867164965 0.28289431313584046 0.8236636069868036 -0.20580017566680908 0.7187469636377602
-0.16118335723876953 0.10581409931182861 1.02913601148617 -0.9276703596115112 -0.6295379400253296 -0.25316524505615234 -0.38979995250701904 0.8554418547183742
-0.6481796503067017 -0.46033287048339844 -0.7321202299093382 -0.9365609884262085 -0.5837404727935791 0.7843972080456116 0.43699025811044934 0.4640013100777459
0.027121468311978765 -0.5380502238542426 0.13421868697026218 -0.9336947202682495 -0.7225662469863892 -0.515529990196228 0.6182741332938319 0.5828789160631296
-0.4434950351715088 -0.03608238697052002 0.6395606994628906 2.1591512478881123 1.427464555966218 0.09551423179374136 0.6638214610305284 -0.5888023376464844
0.18233559048443884 -0.7753055095672607 -0.6930861473083496 -0.5165835618972778 0.8488465979826387 1.5367784271566618 -0.5923525094985962 0.3021070957183838
0.5806085817801481 -0.5344706246266745 0.03818154335021973 0.20994845560276829 0.6203765869140625 0.957308260753378 -0.8153333449856421 -0.36646974086761475
0.3890893518749393 0.8120711968248517 0.8702073097229004 0.8806895539705436 0.22571434615486613 -0.8695826530456543 -0.030029464823133425 -0.6256053447723389
-1.1559136857550478 0.9778618413577934 0.7569778635896165 -1.1140957129687306 0.15601721523437345 -0.18758755570123747 -0.16456115245819092 -0.4577568769454956
0.3845561742782593 -0.8182183318978324 0.35651495002513345 0.48627441669935306 0.7078101906739106 0.3547061658724734 -0.9897352457046509 -0.6486968994140625
0.4993150234222412 0.2033018068718059 -0.7800840139389038 -0.5758194923400879
00000000: d890 2e99 af69 b0bf 9106 fd16 72b9 e03f
00000010: 0000 00c0 6256 eabf 0000 0000 d08c e7bf
00000020: 0000 0080 5ea6 d8bf 01d7 aed8 d4cc d03f
00000030: 0000 0000 e849 94bf 98c5 dbe0 ace7 e83f
00000040: 0000 0000 eeb7 b6bf 74a1 3068 40fb ce3f
00000050: 0000 0080 7557 d3bf 070d 2322 7215 d3bf
00000060: 0000 0000 3792 eebf 6ce8 dc76 9ac2 e8bf
00000070: 1346 5fb9 0811 e1bf 0000 0000 60f7 a23f
00000080: bb08 e09a 6d79 f03f 9782 e73e 243d e33f
00000090: 4a55 a48b 3769 e7bf cd24 8c75 3bae e6bf
000000a0: ee23 c9bf f01a d23f 2f3d ddc7 735b ea3f
000000b0: 0000 0000 a957 cabf 298d dda1 f9ff e63f
000000c0: 0000 0000 a8a1 c4bf 0000 0000 a216 bb3f
000000d0: f280 8752 5777 f03f 0000 00c0 79af edbf
000000e0: 0000 00c0 2c25 e4bf 0000 0000 dc33 d0bf
000000f0: 0000 0080 7bf2 d8bf d8a3 b498 c75f eb3f
00000100: 0000 0040 e3bd e4bf 0000 0000 1876 ddbf
00000110: 636b 8667 876d e7bf 0000 00c0 4ef8 edbf
00000120: 0000 0080 00ae e2bf c425 742c c819 e93f
00000130: 9251 d0fc a5f7 db3f da71 058d 32b2 dd3f
00000140: 1284 aded bac5 9b3f 06e7 611a b537 e1bf
00000150: b050 86f3 132e c13f 0000 00c0 d3e0 edbf
00000160: 0000 0040 431f e7bf 0000 00c0 387f e0bf
00000170: 4bb6 ced5 e6c8 e33f 3a9c 40af f1a6 e23f
00000180: 0000 0000 3962 dcbf 0000 0000 6479 a2bf
00000190: 0000 0000 4877 e43f 5260 e616 f145 0140
000001a0: 622f 0113 e5d6 f63f 8c4f dbe5 9e73 b83f
000001b0: 344a 3081 063e e53f 0000 0000 78d7 e2bf
000001c0: 9185 03cb c556 c73f 0000 0080 4dcf e8bf
000001d0: 0000 0000 c32d e6bf 0000 0040 da87 e0bf
000001e0: 5a00 3557 c029 eb3f ff60 ddf9 a496 f83f
000001f0: 0000 0040 8df4 e2bf 0000 0000 b955 d33f
00000200: c6b9 d072 5894 e23f 5f37 ae23 621a e1bf
00000210: 0000 0000 888c a33f b36d 544b 97df ca3f
00000220: 0000 0000 20da e33f 760b 04ef 44a2 ee3f
00000230: dca6 81f4 3517 eabf 0000 0080 3d74 d7bf
00000240: b294 6106 d7e6 d83f b65c 0cbc 7cfc e93f
00000250: 0000 0000 bdd8 eb3f 196f 07dc 9b2e ec3f
00000260: f290 7c2b 35e4 cc3f 0000 0000 9fd3 ebbf
00000270: c7b3 5345 0bc0 9ebf 0000 0080 f504 e4bf
00000280: 6a11 5559 9f7e f2bf 036b 94ea a44a ef3f
00000290: 2e3a fda3 2939 e83f 3208 bd06 56d3 f1bf
000002a0: 56b6 8542 5ff8 c33f 5acb 6f78 de02 c8bf
000002b0: 0000 0000 5710 c5bf 0000 0080 e34b ddbf
000002c0: 0000 0080 919c d83f c6a4 0f36 d82e eabf
000002d0: 4827 b914 24d1 d63f 8fbb 26bb 1e1f df3f
000002e0: ff09 978e 61a6 e63f 2228 877d 81b3 d63f
000002f0: 0000 0040 e9ab efbf 0000 0000 20c2 e4bf
00000300: 0000 0000 c7f4 df3f edb5 dd29 cb05 ca3f
00000310: 0000 00c0 72f6 e8bf 0000 0000 1d6d e2bf

fc.0.bias f8 [100]
0.9751216842291637 0.7065143341074775 -0.43602514266967773 -0.2516847848892212 -0.9525980949401855 0.018044390237129084 -0.753058910369873 -0.7859655006630648
-0.05509960651397705 0.19102627752425422 -0.40953028202056885 0.5621730095192857 -0.6085391044616699 0.8658858495199652 0.6983083960269146 -0.84328293800354
-0.343215193349696 0.022483112176340216 0.2649102638621965 0.236256207570727 0.41043592993408523 0.09346614012636471 -0.48792874813079834 0.5191300915745248
-0.9592489004135132 -0.5927066802978516 -0.3430453392656586 -0.487113356590271 -0.3498333692550659 -0.8196216821670532 -0.21271514892578125 0.2472982569227951
-0.6514657735824585 -0.05131936073303223 0.7417774542149691 -0.10280025005340576 -0.01081246968467358 -0.26146573659763633 0.1790979617968122 0.6705388593992436
0.9794796320343795 0.6631123870856195 0.9230647825959348 -0.07232165336608887 -0.8983215093612671 -0.4740772247314453 0.7135054659809912 0.006211802311784928
-0.4970463514328003 -0.766311764717102 -0.93585205078125 -0.7197170913298092 -0.23791076089544522 0.5229353606377188 0.5142003921307198 -0.964431881904602
0.5946301723119592 -0.782509446144104 -0.2114102840423584 -0.40547263622283936 -0.2829488659333565 -0.25612973696653135 -0.8973499536514282 -0.8634378910064697
0.006848273103968846 0.17815687707001654 -0.45427489280700684 0.4111389742059175 -0.900058388710022 0.017833496700820912 0.8420247025721407 -0.40789198875427246
0.8741540077342435 0.40053819259055057 -0.9024609327316284 0.6049364843774081 0.0288130483967396 -0.44640684127807617 0.7886707532024877 -0.8080952167510986
0.38530456726796336 -0.32595394818633916 0.68636159101126 0.38702471795080257 0.5159038024788543 0.38315855276833305 -0.24047470092773438 -0.21030545234680176
-0.8240814208984375 0.3099621852727327 0.7661504808606803 0.718437235953807 -0.7134396758116851 0.09623480513837564 -0.7049341201782227 -0.5504841804504395
-0.5827054977416992 0.31355687856138353 -0.5959131717681885 -0.02181720733642578
00000000: 704f ec63 3234 ef3f dcb2 e4f2 c39b e63f
00000010: 0000 0000 d6e7 dbbf 0000 0080 9a1b d0bf
00000020: 0000 0000 af7b eebf 9767 c787 3a7a 923f
00000030: 0000 0000 0f19 e8bf 683a 241f a126 e9bf
00000040: 0000 0000 0436 acbf 6257 528f 8c73 c83f
00000050: 0000 0080 be35 dabf 0b89 5240 52fd e13f
00000060: 0000 0000 2779 e3bf d93c b83d 56b5 eb3f
00000070: 6ba6 6ed9 8a58 e63f 0000 0080 2cfc eabf
00000080: 3f58 bbdb 3cf7 d5bf b7e9 091e d005 973f
00000090: 606c ea2d 4af4 d03f 2523 7fb6 a43d ce3f
000000a0: 45e5 0a10 9544 da3f 6b47 209f 65ed b73f
000000b0: 0000 0080 393a dfbf 83d3 b5b5 b69c e03f
000000c0: 0000 00c0 2ab2 eebf 0000 0000 74f7 e2bf
000000d0: 163d 4c70 74f4 d5bf 0000 0080 dd2c dfbf
000000e0: 0000 0080 ab63 d6bf 0000 0040 573a eabf
000000f0: 0000 0000 403a cbbf caac eb22 78a7 cf3f
00000100: 0000 00c0 ced8 e4bf 0000 0000 8846 aabf
00000110: 046e 5812 a4bc e73f 0000 0000 1e51 babf
00000120: 5c31 7a1d d924 86bf 8d87 edc8 dabb d0bf
00000130: d649 5998 aeec c63f fe23 fae8 0d75 e53f
00000140: dcf1 55ab e557 ef3f 085e 0378 3738 e53f
00000150: 30d8 aa27 bf89 ed3f 0000 0000 ac83 b2bf
00000160: 0000 00c0 0cbf ecbf 0000 0000 4857 debf
00000170: a8fa 3c6a 09d5 e63f ca0d 74fc 8b71 793f
00000180: 0000 0080 9bcf dfbf 0000 0040 a085 e8bf
00000190: 0000 0000 80f2 edbf e447 3423 ec07 e7bf
000001a0: f2c9 b41c dc73 cebf 0d8d fbef e2bb e03f
000001b0: 9156 7961 5474 e03f 0000 0040 a0dc eebf
000001c0: 436e e9da 3507 e33f 0000 0040 510a e9bf
000001d0: 0000 0000 7e0f cbbf 0000 0080 43f3 d9bf
000001e0: 83f0 678f d51b d2bf 377a f3fa 6d64 d0bf
000001f0: 0000 0040 17b7 ecbf 0000 0080 48a1 ebbf
00000200: 7cfd 3f50 ef0c 7c3f 0e5f 4934 d8cd c63f
00000210: 0000 0000 d712 ddbf 68d3 14d8 1950 da3f
00000220: 0000 0040 47cd ecbf 82d4 69b4 f142 923f
00000230: 4b16 ffc9 ddf1 ea3f 0000 0000 e71a dabf
00000240: 5959 5cd3 11f9 eb3f 5e6c 7ef1 6aa2 d93f
00000250: 0000 00c0 f5e0 ecbf a2dc 11c2 a35b e33f
00000260: 228d 3ff2 2a81 9d3f 0000 0000 ee91 dcbf
00000270: b81f 8a72 ca3c e93f 0000 0080 eadb e9bf
00000280: d894 da7c d4a8 d83f 0c98 ddf2 6ddc d4bf
00000290: e7f6 5395 acf6 e53f 97e8 9552 03c5 d83f
000002a0: 4ceb f0b0 4882 e03f cda6 5473 ab85 d83f
000002b0: 0000 0000 e0c7 cebf 0000 0000 4aeb cabf
000002c0: 0000 0000 e05e eabf 9f8e 2fa2 6bd6 d33f
000002d0: bc8f 6303 4e84 e83f bdce 1416 70fd e63f
000002e0: 01f6 6871 7fd4 e6bf cd66 ce1c d8a2 b83f
000002f0: 0000 0000 d28e e6bf 0000 0000 919d e1bf
00000300: 0000 0000 86a5 e2bf dbd8 b6de 5011 d43f
00000310: 0000 0080 b811 e3bf 0000 0000 4057 96bf

fc.1.weight f8 [1, 100]
0.03523352733438555 0.08289729277934908 -0.07559200376272202 -0.0686512216925621 -0.05806615576148033 0.06318535643639045 -0.035946499556303024 0.07251727059555192
0.03616075590252876 0.025040987308795382 -0.0007444024085998535 0.023282923306673243 0.01254663523286581 0.03864564442914159 0.05261768336496527 0.012759304605424404
-0.7024873569860499 -0.054506323439094506 -0.20701688500668053 -0.2925249112753442 0.011318297791464921 0.09759045437421698 0.03612370416522026 0.015645880524883506
-0.08666099607944489 0.049537789076566696 -0.21829670340328639 -0.028386427089571953 -0.03355163335800171 -0.014808738604187965 0.0010938287014141679 0.08725747893309539
0.01248388271778822 0.08956928551197052 0.13642311929833523 -0.06322139501571655 0.013308692588715152 -0.05894791653626549 -0.03266197455524879 0.0482991815644289
0.06223736080287803 0.1369302628118111 -0.004728544791551184 0.00016008615784812719 0.05148235708475113 -0.09670921415090561 0.08947872173338745 -0.08064844387425618
0.0013782501919195056 -0.017001677304506302 -0.052667297422885895 -0.859748364957685 1.2357334761400434 -0.002420186234503087 -0.044596742959408096 -0.03698388487100601
-0.0740132527025481 0.04513939842581749 -0.048026371747255325 -0.06673403084278107 -0.3930323046827299 1.1974275532845307 0.05295736715197563 0.0767521858215332
-0.01894278320801913 -0.43683500296266325 -0.027944816276431084 0.05017394702375294 0.0822034701704979 0.0172929052436933 0.023084368363145365 -0.047007739543914795
-0.07165147206680125 0.030982676409419978 -0.05611824989318848 -0.07555134229973522 -0.03873063304117352 -0.06494112312793732 0.018544106169450632 0.028649354353547096
-0.4085001064334616 -0.1853914650451743 -0.06477357708482846 -0.20088871957186571 0.039989614801985256 0.1270386492914926 -0.03352406248450279 0.02945554256439209
-0.02286761999130249 -0.046118911028730315 -0.03826759402140708 0.052918854422803537 0.023508878165170687 -0.0013368404211150766 -0.02249021641910076 -0.06164298206567764
0.06915447860956192 -0.05350719731149018 0.04096654802560806 -0.03362535312771797
00000000: de70 3fff 200a a23f b70b 6ac9 c138 b53f
00000010: 0000 0060 ff59 b3bf 0000 0060 2093 b1bf
00000020: 0000 00e0 d8ba adbf 80fb 7a5f ea2c b03f
00000030: 0000 0060 9467 a2bf 5163 9ae9 7d90 b23f
00000040: 0000 00a0 a983 a23f 0d0c 3436 58a4 993f
00000050: 0000 0000 8064 48bf 5d37 a188 7ad7 973f
00000060: 0000 00e0 0cb2 893f d879 e9a5 5cc9 a33f
00000070: 8bd4 7c7a b4f0 aa3f 0000 00e0 8c21 8a3f
00000080: 5679 03c4 c67a e6bf 3835 31b9 40e8 abbf
00000090: fa67 697f 877f cabf 8e58 cc67 bab8 d2bf
000000a0: ddc6 e236 0c2e 873f 1065 f021 b0fb b83f
000000b0: 0000 0060 ce7e a23f 2a9d af44 7905 903f
000000c0: 0000 0040 6a2f b6bf 0000 0060 045d a93f
000000d0: 828a f878 25f1 cbbf 0000 00e0 5411 9dbf
000000e0: 0000 0000 ae2d a1bf 0000 0040 0b54 8ebf
000000f0: 0000 00a0 d9eb 513f 955b 5992 8156 b63f
00000100: 0000 0060 2691 893f 0000 0040 03ee b63f
00000110: fafe e611 5076 c13f 0000 0000 472f b0bf
00000120: 054f 5e7b 9641 8b3f 0c96 61db 6b2e aebf
00000130: 623d 1301 12b9 a0bf be4e 7c9a abba a83f
00000140: 94b5 794a 93dd af3f 4401 4e4c ee86 c13f
00000150: 9d52 cc13 3d5e 73bf 0000 00a0 99fb 243f
00000160: 0000 0040 e55b aa3f 0000 0060 efc1 b8bf
00000170: 8064 88d7 13e8 b63f e8c8 e95c 60a5 b4bf
00000180: 0000 00e0 cc94 563f 0000 0040 e368 91bf
00000190: 0000 0040 35f7 aabf 1f0c c900 0f83 ebbf
000001a0: 8b80 2977 90c5 f33f 9d06 4797 7fd3 63bf
000001b0: 039d 0961 62d5 a6bf 0000 0040 8def a2bf
000001c0: a0f9 d353 88f2 b2bf 0000 00e0 821c a73f
000001d0: 0000 00a0 e996 a8bf 0000 0040 7b15 b1bf
000001e0: b790 b8f7 7027 d9bf 51fb 4acb a928 f33f
000001f0: 0000 0060 3a1d ab3f 0000 0000 08a6 b33f
00000200: c3a0 7ea9 bc65 93bf bf40 decc 1af5 dbbf
00000210: 0000 00e0 909d 9cbf 1811 284b 66b0 a93f
00000220: 0000 0060 490b b53f 9ce0 e539 3bb5 913f
00000230: 2f92 acbc 6da3 973f 0000 0000 6611 a8bf
00000240: 1ab7 3c39 c057 b2bf 1e1d af37 ecb9 9f3f
00000250: 0000 0000 88bb acbf c5a4 5830 5557 b3bf
00000260: 90ca 8764 80d4 a3bf 0000 0040 fb9f b0bf
00000270: 3218 20e6 39fd 923f 0000 00a0 4156 9d3f
00000280: c6d4 62a1 dd24 dabf 6acc a953 e8ba c7bf
00000290: f969 394b 0095 b0bf 3426 59b8 b8b6 c9bf
000002a0: cf21 82cf 8479 a43f 0a7a 046e cd42 c03f
000002b0: 0000 00e0 102a a1bf 0000 0000 9829 9e3f
000002c0: 0000 0000 9c6a 97bf 5de9 30dd e59c a7bf
000002d0: cb18 a361 cf97 a3bf 71ea 2c1a 2e18 ab3f
000002e0: 464c 8a1b b612 983f b4ce df78 1de7 55bf
000002f0: 0000 00e0 ac07 97bf 0000 0040 ab8f afbf
00000300: 0000 00a0 1bb4 b13f 5960 1b9d 4b65 abbf
00000310: 0000 0040 91f9 a43f 0000 00a0 5737 a1bf

fc.1.bias f8 [1]
-0.017899238611649805
00000000: 6a62 d791 2d54 92bf
