model/FBDBIndexTask_2_00000-1_1800.pth (torch, 3037 bytes, 3 tensors)

fc.0.weight f4 [100, 1]
0.06313983 0.5898839 -0.82304513 -0.735939 -0.38515437 0.3232941 -0.01981318 0.89656585
-0.088744044 0.33312154 -0.30221307 -0.21840402 -0.9553485 -0.6977187 -0.35299572 0.03704357
0.3605534 0.565318 -0.71218264 -0.45790765 0.42271346 0.88303846 -0.20580018 0.82854456
-0.16118336 0.1058141 0.8660889 -0.92767036 -0.62953794 -0.25316525 -0.38979995 0.91717297
-0.64817965 -0.46033287 -0.6507344 -0.936561 -0.60344464 0.8210532 0.41332048 0.54330736
0.10879343 -0.46346638 0.13812612 -0.9336947 -0.72256625 -0.51553 0.6839005 0.5464107
-0.44349504 -0.036082387 0.6395607 1.110951 0.4612222 0.106539324 0.6321789 -0.58880234
0.1432983 -0.7753055 -0.69308615 -0.51658356 0.4135584 0.4697722 -0.5923525 0.3021071
0.61622477 -0.23660682 0.038181543 0.29012784 0.6203766 1.0243579 -0.81604034 -0.36646974
0.3503719 0.8916603 0.8702073 0.8407424 0.2672051 -0.86958265 0.113182835 -0.62560534
-0.6912075 0.8500476 0.71922106 -1.0345858 0.2501487 -0.11789177 -0.16456115 -0.45775688
0.38455617 -0.6538835 0.3271107 0.5632004 0.8976229 0.46037674 -0.98973525 -0.6486969
0.49931502 0.16829422 -0.780084 -0.5758195
00000000: 754f 813d a202 173f 16b3 52bf 8066 3cbf
00000010: f432 c5be ce86 a53e 404f a2bc 5785 653f
00000020: 70bf b5bd e88e aa3e acbb 9abe 4ea5 5fbe
00000030: b891 74bf b19d 32bf dbbb b4be 00bb 173d
00000040: 759a b83e aeb8 103f 9a51 36bf df72 eabe
00000050: e66d d83e cf0e 623f 48bd 52be 7f1b 543f
00000060: 400d 25be 10b5 d83d 01b8 5d3f ce7b 6dbf
00000070: 6629 21bf e09e 81be dc93 c7be d9cb 6a3f
00000080: 1aef 25bf c0b0 ebbe 8896 26bf 76c2 6fbf
00000090: 597b 1abf 8b30 523f be9e d33e 3116 0b3f
000000a0: 17cf de3d 774b edbe ef70 0d3e 9e06 6fbf
000000b0: 1afa 38bf c6f9 03bf 1a14 2f3f 92e1 0b3f
000000c0: c811 e3be 20cb 13bd 40ba 233f a433 8e3f
000000d0: 5125 ec3e 4a31 da3d 7ad6 213f c0bb 16bf
000000e0: cabc 123e 6c7a 46bf 186e 31bf d23e 04bf
000000f0: edbd d33e fb85 f03e 6aa4 17bf c8ad 9a3e
00000100: e8c0 1d3f 0f49 72be 4064 1c3d a38b 943e
00000110: 00d1 1e3f 291e 833f 05e8 50bf eca1 bbbe
00000120: f263 b33e d943 643f e8c5 5e3f e53a 573f
00000130: 1bcf 883e f89c 5ebf 67cc e73d ac27 20bf
00000140: faf2 30bf b89c 593f df1e 383f 4f6d 84bf
00000150: 7e13 803e 3e71 f1bd b882 28be 1c5f eabe
00000160: 8ce4 c43e e964 27bf 0e7b a73e e72d 103f
00000170: 9dca 653f 80b6 eb3e 4a5f 7dbf 0011 26bf
00000180: 38a6 ff3e 5255 2c3e 96b3 47bf e868 13bf

fc.0.bias f4 [100]
0.9563891 0.69326395 -0.43602514 -0.25168478 -0.9525981 0.00079325726 -0.7530589 -0.6550237
-0.055099607 0.16553412 -0.40953028 0.5699402 -0.6085391 0.8876507 0.6984241 -0.84328294
-0.2833898 0.0212251 0.1024721 0.29978228 0.36659393 0.079341665 -0.48792875 0.48487955
-0.9592489 -0.5927067 -0.28738016 -0.48711336 -0.34983337 -0.8196217 -0.21271515 0.23311336
-0.6514658 -0.05131936 0.7376046 -0.10280025 -0.00059382356 -0.11952111 0.17835386 0.6540658
0.9663063 0.6560743 0.9257427 -0.07232165 -0.8983215 -0.47407722 0.70044667 -0.03631609
-0.49704635 -0.76631176 -0.93585205 -0.7106694 -0.13703197 0.52428895 0.51786685 -0.9644319
0.60214096 -0.78250945 -0.21141028 -0.40547264 -0.23117314 -0.12632576 -0.89734995 -0.8634379
-0.08999951 0.16900185 -0.4542749 0.39500424 -0.9000584 -0.032917853 0.85996526 -0.407892
0.88124967 0.3789905 -0.90246093 0.6106086 -0.03832765 -0.44640684 0.7714291 -0.8080952
0.35455933 -0.24509317 0.6919553 0.23818336 0.4978093 0.37354836 -0.2404747 -0.21030545
-0.8240814 0.51976925 0.77160925 0.7027323 -0.48939192 0.038077015 -0.7049341 -0.5504842
-0.5827055 0.31964692 -0.5959132 -0.021817207
00000000: ebd5 743f bf79 313f b03e dfbe d4dc 80be
00000010: 78dd 73bf 98f2 4f3a 78c8 40bf a2af 27bf
00000020: 20b0 61bd c781 293e f4ad d1be 9ae7 113f
00000030: 38c9 1bbf 143d 633f eccb 323f 64e1 57bf
00000040: 7818 91be 43e0 ad3c e4dc d13d 107d 993e
00000050: 33b2 bb3e e27d a23d ccd1 f9be 2242 f83e
00000060: 5691 75bf a0bb 17bf 7e23 93be ec66 f9be
00000070: 5c1d b3be bad2 51bf 00d2 59be 45b5 6e3e
00000080: 76c6 26bf 4034 52bd a8d3 3c3f f088 d2bd
00000090: d3aa 1bba 7cc7 f4bd 65a2 363e db70 273f
000000a0: da5f 773f 7cf4 273f 79fd 6c3f 601d 94bd
000000b0: 66f8 65bf 40ba f2be 7950 333f 2ec0 14bd
000000c0: dc7c febe 022d 44bf 0094 6fbf 6eee 35bf
000000d0: 1c52 0cbe cd37 063f ec92 043f 02e5 76bf
000000e0: e925 1a3f 8a52 48bf f07b 58be 1c9a cfbe
000000f0: a7b8 6cbe 8a5b 01be bab8 65bf 440a 5dbf
00000100: aa51 b8bd d20e 2d3e b896 e8be ff3d ca3e
00000110: 3a6a 66bf dfd4 06bd af26 5c3f 38d7 d0be
00000120: 9499 613f 0b0b c23e ae07 67bf d850 1c3f
00000130: 74fd 1cbd 708f e4be 617c 453f 54df 4ebf
00000140: cd88 b53e b4f9 7abe fc23 313f 57e6 733e
00000150: dce0 fe3e bb41 bf3e 003f 76be 505a 57be
00000160: 00f7 52bf 990f 053f 2f88 453f 44e6 333f
00000170: 9491 fabe a5f6 1b3d 9076 34bf 88ec 0cbf
00000180: 302c 15bf c3a8 a33e c48d 18bf 00ba b2bc

fc.1.weight f4 [1, 100]
0.025517683 0.09492778 -0.075592004 -0.06865122 -0.058066156 0.12104213 -0.0359465 0.12148444
0.036160756 0.049165647 -0.0007444024 -0.00723658 0.012546635 -0.027177887 0.0042974795 0.012759305
-0.04567328 -0.007828426 -0.031416696 -0.18079983 0.024348421 0.1441474 0.036123704 0.03790065
-0.086660996 0.04953779 -0.02097853 -0.028386427 -0.033551633 -0.014808739 0.0010938287 0.12314929
0.012483883 0.089569286 0.042011857 -0.063221395 0.018578842 -0.021822842 -0.0060033984 0.05967868
0.055277742 0.06943836 -0.008879133 0.00016008616 0.051482357 -0.096709214 0.10367222 -0.035626337
0.0013782502 -0.017001677 -0.052667297 0.06530158 0.14908662 -0.0051543396 -0.02670228 -0.036983885
-0.07441065 0.0451394 -0.04802637 -0.06673403 -0.0126946485 0.12317063 0.052957367 0.076752186
0.0937457 -0.2418054 -0.027944816 0.058940265 0.08220347 0.07763095 -0.06251018 -0.04700774
-0.06805385 0.058994982 -0.05611825 -0.055660244 0.1685521 -0.06494112 0.011317451 0.028649354
-0.22961244 -0.017312096 -0.049143963 -0.03913223 0.043402135 0.094067186 -0.033524062 0.029455543
-0.02286762 -0.040932626 -0.0341464 0.06387084 0.12997821 0.043143224 -0.022490216 -0.061642982
0.06915448 -0.04659724 0.040966548 -0.033625353
00000000: 760a d13c 7f69 c23d fbcf 9abd 0399 8cbd
00000010: c7d6 6dbd f0e4 f73d a33c 13bd d6cc f83d
00000020: 4d1d 143d eb61 493d 0024 43ba d520 edbb
00000030: 6790 4d3c 29a4 debc dfd1 8c3b 670c 513c
00000040: e813 3bbd cc42 00bc cbae 00bd 9723 39be
00000050: 5776 c73c 609b 133e 73f6 133d b63d 1b3d
00000060: 527b b1bd 23e8 4a3d 2bdb abbc a78a e8bc
00000070: 706d 09bd 5aa0 72bc cd5e 8f3a b235 fc3d
00000080: 3389 4c3c 1a70 b73d a014 2c3d 387a 81bd
00000090: a832 983c d1c5 b2bc 28b8 c4bb a271 743d
000000a0: ea6a 623d b335 8e3d c879 11bc cddc 2739
000000b0: 2adf 523d 7b0f c6bd 1a52 d43d ecec 11bd
000000c0: 67a6 b43a 1a47 8bbc aab9 57bd d6bc 853d
000000d0: 2aaa 183e bce5 a8bb bdbe dabc 6a7c 17bd
000000e0: 9c64 98bd 17e4 383d 4db7 44bd daab 88bd
000000f0: 37fd 4fbc e240 fc3d d3e9 583d 4030 9d3d
00000100: bffd bf3d d69b 77be 87ec e4bc 596b 713d
00000110: 4b5a a83d fafc 9e3d 5605 80bd 308b 40bd
00000120: d15f 8bbd b9a4 713d 40dc 65bd fffb 63bd
00000130: ec98 2c3e daff 84bd d46c 393c 0db2 ea3c
00000140: 861f 6bbe 19d2 8dbc 2e4b 49bd 1e49 20bd
00000150: 70c6 313d 4ca6 c03d 8750 09bd c04c f13c
00000160: e054 bbbc f8a8 27bd 18dd 0bbd b7ce 823d
00000170: 0219 053e f3b6 303d 673d b8bc 5a7d 7cbd
00000180: dda0 8d3d bfdc 3ebd 8acc 273d bdba 09bd
