model/FBDBIndexTask_0_11100-1_1800.pth (torch, 13789 bytes, 3 tensors)

fc.0.weight f4 [1000, 1]
00000000: 0054 f5bb 5e54 093f 16b3 52bf 8066 3cbf
00000010: f432 c5be 254c 853e 404f a2bc 1365 4b3f
00000020: 70bf b5bd 4c7b 873e 81d9 9bbe 7f93 44be
00000030: 9dc3 74bf 528b 29bf e80e d3be 4b64 1f3d
00000040: bfc1 c23e e2e6 1a3f 8c8d 2dbf f7ce e1be
00000050: df80 b63e 39b5 523f 48bd 52be f99c 3d3f
00000060: 400d 25be 10b5 d83d 7d81 693f 7511 6dbf
00000070: 6629 21bf d836 7ebe 8533 ccbe 0683 5e3f
00000080: 1aef 25bf c0b0 ebbe 1ada 32bf 6068 72bf
00000090: 0470 15bf 08f9 593f bc76 e43e 068c ef3e
000000a0: 406a 573d 0bba 06bf c03e 2d3e 9e06 6fbf
000000b0: e3a6 38bf 504a 06bf 51c5 223f 5b1a 143f
000000c0: c811 e3be a55e 37bd 14af 213f ef11 803f
000000d0: 08dd cb3e cde9 013e fea4 2b3f c0bb 16bf
000000e0: 760d 443e 3b34 47bf f22a 33bf d23e 04bf
000000f0: 8caa e73e f716 d03e 283c 1bbf a680 9c3e
00000100: fd49 0d3f 203f 01be 4064 1c3d 0044 6d3e
00000110: a704 1d3f 55e3 733f 6b80 47bf eca1 bbbe
00000120: 28b2 c53e 6234 553f 9813 603f 22e2 613f
00000130: 78ca 4b3e f89c 5ebf 7b0e c33d 9299 1dbf
00000140: fd03 6ebf 85ec 613f a1e9 403f fe5d 7fbf
00000150: 2833 323e a5a8 3bbe 0b14 30be 1c5f eabe
00000160: 15ff c03e 34a1 17bf 1b77 b73e 9173 ff3e
00000170: 0719 393f ffed bb3e 4a5f 7dbf 0011 26bf
00000180: 99e7 003f 1853 563e 96b3 47bf e868 13bf
00000190: 1619 6f3f 6b46 2d3f 4d6e e7be 73ae 85be
000001a0: 78dd 73bf f7dc 52bc 78c8 40bf a277 45bf
000001b0: db2f 4dbd a1b4 1e3e f4ad d1be 98e7 173f
000001c0: 38c9 1bbf 129a 693f d06f 2f3f 64e1 57bf
000001d0: b93d 7fbe 80d2 383d 1867 153e d0dd 723e
000001e0: 9db0 c23e e059 753d ccd1 f9be 5a70 ea3e
000001f0: 5691 75bf a0bb 17bf 3c2b 80be ec66 f9be
00000200: f987 b0be bad2 51bf 00d2 59be 36c8 5c3e
00000210: bd1a 25bf f201 43bd 6d20 353f f088 d2bd
00000220: 80ac e33c 5689 bfbd 0975 543e 60c6 223f
00000230: 1cab 703f f3e6 233f f4e2 703f 601d 94bd
00000240: 4165 66bf 40ba f2be 6c0f 2f3f 006b d4bb
00000250: 1d29 01bf 022d 44bf 4a17 6fbf ec10 58bf
00000260: 70b4 4fbe 4909 0d3f 6c50 0b3f 02e5 76bf
00000270: 46e0 203f f800 4abf f07b 58be d174 d4be
00000280: f03c 45be 100e 49be bab8 65bf 9d43 5cbf
00000290: 9228 27be 80e1 533c 656f ecbe be75 b93e
000002a0: 3a6a 66bf c036 8abd 5308 5f3f ed9a d4be
000002b0: 7f38 683f 386c b93e ae07 67bf 8e29 233f
000002c0: 0376 e2bd da26 e5be 1580 4a3f 54df 4ebf
000002d0: b0c2 db3d c064 56be ea08 383f 08ec 8e3e
000002e0: cc04 f63e 40d1 b43e 003f 76be e62a 54be
000002f0: 1cea 51bf 4cb6 0a3f 7f38 493f 9123 303f
00000300: fe5e 36bf c8d5 163d 9076 34bf 88ec 0cbf
00000310: f0e8 18bf 34f9 ae3e 693c 1cbf 00ba b2bc
00000320: e56e 3f3d e738 233f 4336 40bf 44bf 2fbf
00000330: 3ca6 14bf a6f5 343f cc0b b8be 7ca5 533f
00000340: a622 b53e 40aa 013e 00ed f3bb 086d 4abe
00000350: fb92 053e 30d3 69be 003e e6bb c0a7 023e
00000360: b699 48bf e2e9 08bf 65e6 4c3f bd38 4ebf
00000370: 55a0 88bd 7054 7b3f 2849 b23e 457c 893c
00000380: 26da 5dbf 4f26 fa3e 0858 36bf aad9 94be
00000390: 381c a9be 38a4 17be c295 593b d5ec 4f3f
000003a0: 80ab ff3d f67e 623f 55e6 1a3f c6d8 21bf
000003b0: 1d4d e83e 9ede 36bf ec52 d6be 4097 963e
000003c0: f00e a93e c64e 3e3f 3b3b a8be 00d4 d13a
000003d0: 7acb 033f 5a93 77bf 74d2 363f 30b1 53bf
000003e0: 31b0 493b e018 2ebe 7ae4 0abf 35aa 0c3e
000003f0: 58fc 543f e8aa 95be 4fab 1cbf 956e bfbe
-0.00748682 0.5364436 -0.82304513 -0.735939 -0.38515437 0.26034656 -0.01981318 0.794511
-0.088744044 0.26461256 -0.3043938 -0.1919689 -0.9561098 -0.6622821 -0.4122231 0.038914006
0.38038442 0.6050855 -0.6779411 -0.44103214 0.35645196 0.82307774 -0.20580018 0.74067646
-0.16118336 0.1058141 0.9121321 -0.9260476 -0.62953794 -0.24825609 -0.39883056 0.86918676
-0.64817965 -0.46033287 -0.69864047 -0.94690514 -0.5837405 0.85145617 0.44621837 0.46786517
0.052591562 -0.5262763 0.16918468 -0.9336947 -0.7212965 -0.5245714 0.6358233 0.57852715
-0.44349504 -0.044767994 0.63157773 1.0005473 0.3981707 0.12686844 0.67048633 -0.58880234
0.1914576 -0.7781407 -0.69987404 -0.51658356 0.45247304 0.4064252 -0.60638666 0.305669
0.5519102 -0.12621737 0.038181543 0.23170471 0.61335224 0.95268756 -0.77930325 -0.36646974
0.38612485 0.83283055 0.875299 0.88235676 0.19901454 -0.86958265 0.09524246 -0.61562455
-0.92974836 0.88251525 0.7535649 -0.99752796 0.17402327 -0.18326052 -0.17195146 -0.45775688
0.37694612 -0.5923035 0.35833058 0.49892858 0.72303814 0.36705014 -0.98973525 -0.6486969
0.5035339 0.20930135 -0.780084 -0.5758195 0.93397653 0.67685574 -0.4520134 -0.26109657
-0.9525981 -0.012870065 -0.7530589 -0.7713567 -0.050094467 0.15498592 -0.40953028 0.5933776
-0.6085391 0.9125072 0.6852999 -0.84328294 -0.24925889 0.045122623 0.14590108 0.23717427
0.3802537 0.059900165 -0.48792875 0.45788842 -0.9592489 -0.5927067 -0.25032985 -0.48711336
-0.3447874 -0.8196217 -0.21271515 0.2156075 -0.64493924 -0.047609277 0.707526 -0.10280025
0.027792215 -0.093523666 0.2074777 0.63583946 0.9401109 0.64024276 0.94096303 -0.07232165
-0.8999825 -0.47407722 0.68382907 -0.006482482 -0.5045336 -0.76631176 -0.9339491 -0.8440082
-0.20283675 0.55092293 0.5441959 -0.9644319 0.62842214 -0.7890773 -0.21141028 -0.41495374
-0.19261527 -0.1963427 -0.89734995 -0.8604067 -0.1632407 0.012932181 -0.46178737 0.36222643
-0.9000584 -0.06748724 0.87122077 -0.4152445 0.90711206 0.36215377 -0.90246093 0.6373528
-0.11057665 -0.44756204 0.7910169 -0.8080952 0.10730493 -0.2093687 0.718886 0.27914453
0.48050535 0.35315895 -0.2404747 -0.2071949 -0.8199785 0.5418441 0.7860183 0.6880427
-0.71238697 0.03682497 -0.7049341 -0.5504842 -0.59730434 0.34174502 -0.6102968 -0.021817207
0.046736617 0.637587 -0.75082797 -0.68651223 -0.58066154 0.7068733 -0.359465 0.82674384
0.35377997 0.12662601 -0.007444024 -0.19768155 0.1304435 -0.22834468 -0.007026434 0.12759304
-0.78359544 -0.53481877 0.80039054 -0.80555326 -0.06671206 0.98175716 0.3482144 0.01678289
-0.86660993 0.48857352 -0.71228075 -0.29072315 -0.33029342 -0.14808738 0.0033200835 0.8122075
0.12483883 0.88474977 0.6050771 -0.63221395 0.45371333 -0.71433437 -0.4186014 0.2941227
0.3301921 0.7433895 -0.3285769 0.0016008615 0.51482356 -0.96709216 0.71414876 -0.8269224
0.0030775184 -0.17001677 -0.5425488 0.13736804 0.83197546 -0.29231954 -0.61198896 -0.37389055

fc.0.bias f4 [1000]
00000000: 901d aebd 2ca6 47bf 0085 c9bb c87d 54bf
00000010: 404b 5cbe 700a 133f 7a02 32bf e514 2cbf
00000020: 6809 7abe 4c5b 8cbe 8cf1 2e3e 6ffe 293e
00000030: 1372 023f 7a5a 30bf a087 90bd 39b1 0e3f
00000040: 854a 593f 787b 8fbd 7420 14bf cbb5 923e
00000050: 40d5 103f 90e0 21bf 1c8e 14bf 3fcf df3e
00000060: c07e 8fbd aaca 71bf 94b9 11bf 4287 d13e
00000070: 70a8 adbe d90b 313f a98c 483f ddc6 163e
00000080: f0f1 a1bd d085 a2be 201e 4fbd c28f 2f3e
00000090: be8b 43bf 0e99 7cbe e8f0 54bf 4184 183f
000000a0: b407 23bf 38bf 653f d8fb 83be f4a7 12bf
000000b0: c282 f43e ad97 0d3e e99f 313f 2922 d33e
000000c0: 6a9d 76bf 3e40 203f cfaa 48be e8b6 debe
000000d0: 6cf8 213f f839 393f 9a01 61bf e02f b9bd
000000e0: 16a6 523f a67d c33e 71af 563f 3476 afbe
000000f0: 7038 0dbf 944e 5c3f f222 d03e 7ab9 753f
00000100: 6f24 d4be 7e5e 24bf 500d f0bd 620b 71bf
00000110: 939e c63e 3b9e 3b3f ae33 6b3e 405b cabd
00000120: f7dd fb3e 954c 21bf 0fd9 7a3f 4e8d 7ebf
00000130: e63b 75bf 10f9 71be 57fd 503f 66d7 dc3d
00000140: ccaa c63e 5d3d 3dbf 41ce b83e c0d9 e4bd
00000150: 8148 c63e 7083 303f 0e2d dc3e 2036 aebd
00000160: 634b 8bbd e28e 20bf 1b6b bdbe bd66 253f
00000170: d343 c9be 0300 1e3f 3c06 cbbe 087d 6ebe
00000180: af4c b43c 20ec 6abf 0098 23bc 006e cebd
00000190: 8f89 c1bd b9d2 49be 2b22 453f 0ff4 3a3f
000001a0: 8081 2dbf 66aa ee3e 4ccd 48bf 32f0 59bf
000001b0: 6d45 9d3e 0ab9 833c ecd9 eebe b8e9 76bf
000001c0: b436 c6be 7ae1 ab3e 38f4 6cbf f6b1 78bf
000001d0: e1e6 043e 686c 38bf cc46 60bf 3c44 c5be
000001e0: 431b 30be e8a0 68bf 34f0 2abf f767 4a3d
000001f0: 9866 71bf 80ed 0fbe c64c 25bf 0078 31bf
00000200: c6fa c93e 620a 45bf 6c01 42bf f783 113f
00000210: 51bb 463e 6624 693f 4622 8dbe c04d f7be
00000220: 0089 bdbd 564e 923b dda6 433f 18ff 7ebf
00000230: c2c4 9bbd 8361 e33e 2843 0fbf 8415 02bf
00000240: 2b46 f83e a04b 75bf 22f7 713e 1631 46bf
00000250: 6969 fc3e eee3 5abf 44cb 1c3f 8456 72bf
00000260: 622f 57bf cab6 613c 1fb3 493f be3c 5bbf
00000270: 6abd e1be 75ee 5f3f e0b8 2bbe 7371 d03e
00000280: 8445 76bf a403 a1be 4a01 02bf bf78 573f
00000290: ab92 d23e 06cc 3abf 8cb4 1b3e 5df6 dcbc
000002a0: 885d d2be 1432 12bf d321 aebe c29a 483f
000002b0: 0960 36bf 225c 36bf 38f6 9dbe 6252 983c
000002c0: c401 8c3e cd2a e63c 0bf8 7ebe c439 1bbf
000002d0: 30bd 37be 781b cebe 1127 4f3f 5e31 79bf
000002e0: ba4a 23bf 7247 50bf 9824 3bbe e650 473f
000002f0: 0a74 603f b6dc 5ebf efd0 48bd 0a51 163f
00000300: 5d3c e03e 3f5f 503f 403b e3bc 2a01 2cbf
00000310: 140c 253f 8092 afbe 0793 013f d859 7cbe
00000320: c036 da3e 3335 653f 996f 6e3f 06fa 68bf
00000330: c656 29bf cdc1 cfbe 6040 23bf 9a0f 713f
00000340: 1fba c3bd b0d0 29bf a8d5 e3be c467 0dbf
00000350: d4a5 d13e da4b 5fbf f8b1 6ebf d85a 7cbf
00000360: ae1e da3e 9374 f93e 8be1 20bf 3860 823e
00000370: b562 3d3f 4a11 103e 424f 65be 71ab 803d
00000380: 309a dbbd e0dc ff3e b0d3 2dbf a1d0 003f
00000390: 04bb 103f 9a1a 1bbf 3ac7 4f3f 9b37 783f
000003a0: 58d8 c9be 1daf 94be 4a58 fd3e 3e8e 48bf
000003b0: f961 cb3e 80f9 653e 40ce 213f 045d 5ebf
000003c0: 50ae 54bf 4502 e43e 738a b63e b246 6ebf
000003d0: c6c2 0ebf 083c 6abf 0baa 39bf a403 e7be
000003e0: 597b 503f 00d4 4bbe a426 0e3f 2c90 733f
000003f0: 0028 ea3e 822c 65bf d4f3 f83e e612 bf3e
-0.08501732 -0.77987933 -0.006149888 -0.83004427 -0.2151308 0.574378 -0.6953503 -0.6721938
-0.2441765 -0.27413404 0.1708433 0.16600965 0.50955313 -0.68888056 -0.070571184 0.5573917
0.8487933 -0.07005972 -0.5786202 0.28654322 0.56575394 -0.6323328 -0.5802934 0.43712804
-0.070065975 -0.94449866 -0.56923795 0.40923506 -0.3391757 0.69158703 0.7833963 0.14724298
-0.07907474 -0.31742716 -0.05056584 0.17144683 -0.76385105 -0.2466776 -0.83180094 0.59576803
-0.6368363 0.897449 -0.2577808 -0.57287526 0.4775601 0.13827391 0.6938463 0.41237
-0.96333945 0.62598026 -0.19596408 -0.4349892 0.63269687 0.7235408 -0.8789307 -0.090423346
0.8228468 0.381818 0.8386145 -0.3426987 -0.5516424 0.860574 0.4065166 0.9598614
-0.41434047 -0.64206684 -0.11721289 -0.94157994 0.38792858 0.73288316 0.22968933 -0.09880686
0.49192783 -0.6300748 0.97987455 -0.99434364 -0.9579452 -0.23630166 0.81636566 0.107832715
0.38802183 -0.7392176 0.3609486 -0.11174345 0.3872719 0.6895056 0.43003124 -0.08506417
-0.06801488 -0.6271802 -0.36995777 0.6460989 -0.39309558 0.6171877 -0.39653194 -0.23289883
0.022009222 -0.9176655 -0.00998497 -0.100795746 -0.09450065 -0.1970929 0.7700526 0.73028654
-0.67775726 0.4661438 -0.7843826 -0.85132134 0.3071703 0.016079444 -0.46650636 -0.96450377
-0.3871361 0.33570462 -0.9256015 -0.97146547 0.12978698 -0.72040415 -0.8760803 -0.3852862
-0.171979 -0.90870523 -0.6677277 0.049415555 -0.9429717 -0.14055443 -0.6457027 -0.6932373
0.39449137 -0.7696897 -0.7578342 0.5684199 0.19407393 0.91071165 -0.2756521 -0.48301506
-0.09254646 0.004464905 0.7642649 -0.9960799 -0.07605888 0.44410333 -0.5596185 -0.5081408
0.48491034 -0.9581852 0.2362943 -0.7741865 0.49299172 -0.85504043 0.6124766 -0.9466326
-0.84056675 0.01377649 0.7878894 -0.8563956 -0.44089824 0.8747323 -0.16769743 0.40711555
-0.9619982 -0.3144809 -0.50783217 0.8416862 0.41127524 -0.72967565 0.15205592 -0.026972944
-0.41086984 -0.57107663 -0.3401018 0.7836114 -0.7124029 -0.71234334 -0.30851912 0.01859397
0.27345097 0.02809658 -0.24899308 -0.6063502 -0.17943263 -0.40255332 0.80918986 -0.97340953
-0.637859 -0.81359017 -0.18275678 0.77857816 0.8767706 -0.8705553 -0.04902738 0.58717406
0.43796054 0.81395334 -0.027738214 -0.67189276 0.64471555 -0.34291458 0.5061497 -0.24643648
0.42619896 0.895343 0.93139035 -0.91006505 -0.6614803 -0.40577546 -0.63770103 0.9416443
-0.09556984 -0.66334057 -0.44498944 -0.5523646 0.4094683 -0.87225115 -0.9324031 -0.98576117
0.42601532 0.48721752 -0.6284415 0.25464034 0.7397874 0.14069095 -0.22393516 0.062827
-0.10722768 0.49973202 -0.67901134 0.5031834 0.56535363 -0.60587466 0.8116337 0.9695985
-0.3942287 -0.2903985 0.49481422 -0.78342044 0.39723185 0.22458458 0.6320534 -0.8686068
-0.8307848 0.44532982 0.35652503 -0.9307662 -0.5576595 -0.9149785 -0.7252509 -0.45119965
0.81438214 -0.1990509 0.5552771 0.95141864 0.45733643 -0.8952104 0.48623526 0.37319106

fc.1.weight f4 [1, 1000]
00000000: 47b2 8f3c 18a1 b93b 6a23 9e3b 77f4 853c
00000010: a064 a13c 1136 1ebc f60e 63bb 6fea 623c
00000020: 5710 7bbc 6b3a f23c 5a94 e3bc 9c1d 3c3c
00000030: 5fb5 f0bc d358 263c 1cf0 b43c 7f6a d33b
00000040: 8eb8 d738 665c d93c e102 babc 1155 d8bc
00000050: dc15 c0bc 19b3 7ebc 4927 573a 8a88 25bc
00000060: 6ada e63b 37de 8b3a f02e 013d 6a2b aebc
00000070: a7bc 0dbc 8e55 b93c f7e4 d6bb 8fb2 103d
00000080: 31c8 4dbc f693 b5b9 2c82 f5bb 8956 c53b
00000090: a085 463c 2113 1ebc 89b3 aa3c 585a d03a
000000a0: 8e04 03bc e54e ff39 9149 b43c d41d fe3c
000000b0: 5650 253c c1b1 57bb f708 c73c 60ac 15bc
000000c0: de61 87bc f5e7 d7bb d690 58bc 9eef a73c
000000d0: c669 d13b 2e08 01bc df65 52bb 065e 24ba
000000e0: f008 f63c cc07 ac3c 7341 c7bc 7fe2 3d3c
000000f0: e510 483c b811 7b3c 8fac 12bc 0b78 333c
00000100: 966b 2e3c 0023 fc3c ca48 f8bc f69b 44bc
00000110: b0f8 8bbc c6af 39bc d157 21bb 1ffe 9d3c
00000120: 01f8 a5bc 6235 bf3c 524f f63c fd60 7fbc
00000130: 0bdc b43b 0dfe 84bc f0e1 1b3c 5f87 b6bc
00000140: 0e67 a4bc 71e7 99bc 25db b3bc 86ba ce3c
00000150: 68a9 32ba 4a15 9e3a c2cb 63bc af8f b43c
00000160: 947d 36bc 0c8e 51bc 15ea 8dbc 331c bcbc
00000170: 8b16 0c3d c0a9 abbc e80e 8fbb b4f8 15bc
00000180: f2db 8b3c e693 0a3c 9996 c6bc 49a6 e83c
00000190: 7c7b ccbc e233 253c 8de0 bcba d722 b2bb
000001a0: 5b89 b03c dfba ee3c 20fb 863b bdfe 36bc
000001b0: 5bd2 d13c 850f cb3c d51c ba3b 55b5 0dbc
000001c0: 39bf ae3a 30f9 053d 6abe 603b ac33 ccbb
000001d0: 3e76 08bd 89d2 8abc 0019 bb3c 96f4 91ba
000001e0: 2da6 9a3b 0fbb 493c 4070 aabc bc8a 4b3b
000001f0: 54b8 11bc d78a 873c fcd2 d23c 6ea9 a23c
00000200: a77c bc3c 5084 e7bc d4ef 37bc 3026 e03b
00000210: 3979 10bd a4a4 343c 2eda 5cbc fa03 5e3c
00000220: 6faa d13c 6d82 96bc 5e68 f13c ecbf 713c
00000230: aaac 6cbc 765d 0c3d fc0a aebc 6d66 aebc
00000240: 30ce b6bc a6e3 d1ba c172 273c a20c 18bc
00000250: 75c9 febc 4c39 6fbb bf84 983c 8574 c73c
00000260: 24ae 813c 8086 263c 096f 393c 00b5 c7bc
00000270: 75c5 873c 967f 02bd 79f6 55bc bda2 17bc
00000280: 453b be3c 7fa6 71ba b800 6cbc ddac 843b
00000290: 76d5 c7bc 3d2c 09bc 1e4e 8539 6c06 833b
000002a0: 5ea5 59bb c653 9e3c ac8c 89bc 6f4f 6fbc
000002b0: 63cf 053d 0032 ce3b 4ec6 a7bb d313 b43c
000002c0: c5a8 a73c 5ba4 06bc f8e9 c2bb 9460 a9bb
000002d0: 1321 3c3c 4649 84bb 4999 b43c 2941 d3bc
000002e0: 3233 7ebc ab7c c53c a4f0 873b cb9a 083c
000002f0: 23c6 1c3c bfd9 f4bb c47f cfbb 6c90 533c
00000300: 4ac2 64bc 4a3e 29bc fce6 883b 21a4 fa3b
00000310: 607e 51bb 6432 afbc 7257 f1bb 1ad0 92bc
00000320: f449 9e3c 207b 8ebc 933f ce3c 2c5b 4e3c
00000330: 08d5 ddbc 10aa ef3c 0518 00bd e57a f03a
00000340: 4ddc 4cbc 89db debc 1956 4d3b 8035 7bbc
00000350: d4bd d33c 0ca5 cbbc 4205 d73c 4f49 9c3c
00000360: ec18 ac3c b09e 33bc a9f8 80bc 5dd7 f0bc
00000370: 8fbc ea3c ed76 2bbc 9364 fe3a d577 b9ba
00000380: a144 b23b 5e62 b5bc 9ee2 d03c 367c b5bc
00000390: 773d 033d 31ba 4abc 5fa9 3bbc cd13 35ba
000003a0: 4d56 193c e682 ad3a a9f8 e1bc d636 b63c
000003b0: 96db 0f3d 6c9d f03b 9152 013d dc35 0d3c
000003c0: 2265 22bb 44b6 abbc a90b e5bc 945b b2bc
000003d0: b074 03bc 4cd9 963c 35ad a4bb b0fb a0ba
000003e0: e6e8 0c3b 8656 a9bc 65ea c3ba f480 083d
000003f0: 7173 f13c e24c c53c 2a42 c5bb 2e8d 0cba
0.017541064 0.005664956 0.004825999 0.016351921 0.019701302 -0.009656445 -0.0034646369 0.013849839
-0.01532372 0.029568871 -0.0277807 0.011481669 -0.02938336 0.010153013 0.02208715 0.0064519043
0.00010286375 0.026533317 -0.02270645 -0.02640775 -0.023447923 -0.01554563 0.0008207453 -0.010103354
0.00704508 0.0010671084 0.031538904 -0.021260936 -0.008650935 0.022623803 -0.0065580565 0.035326537
-0.012559936 -0.0003463325 -0.0074923243 0.0060222787 0.01211682 -0.009648115 0.020837562 0.0015896065
-0.007996691 0.0004869617 0.022007735 0.031020083 0.010089954 -0.0032912346 0.024296267 -0.009135336
-0.016526159 -0.0065889307 -0.013218125 0.0205 0.006390783 -0.007875485 -0.0032104177 -0.0006270114
0.030033559 0.020999812 -0.0243232 0.011589645 0.012211059 0.015324049 -0.008952274 0.010953913
0.010645768 0.030778408 -0.030308146 -0.012000075 -0.017086357 -0.011333412 -0.0024618993 0.019286213
-0.020259859 0.023340885 0.03006712 -0.015587089 0.005519395 -0.016234422 0.009514317 -0.022281347
-0.020068672 -0.018787118 -0.021955082 0.025235426 -0.00068154046 0.0012060788 -0.01390356 0.02204117
-0.011138339 -0.012790214 -0.017323533 -0.022962665 0.034201186 -0.020954967 -0.0043657906 -0.009153534
0.017072652 0.008458113 -0.024241732 0.028399603 -0.024961226 0.010083171 -0.0014410183 -0.005436282
0.021549871 0.029141841 0.004119292 -0.011169133 0.025613 0.024787674 0.0056797066 -0.00864919
0.0013332135 0.032708347 0.0034293183 -0.0062317457 -0.03331589 -0.016946094 0.02283907 -0.0011135514
0.0047195167 0.012312665 -0.020805478 0.0031058034 -0.008894045 0.016545696 0.02573537 0.019856181
0.023008658 -0.028261334 -0.011226613 0.00684049 -0.035271857 0.0110255815 -0.0134797525 0.013550753
0.025593964 -0.018372739 0.029468711 0.01475523 -0.014445463 0.03426882 -0.021245472 -0.021289075
-0.022315115 -0.0016013279 0.010220231 -0.009280356 -0.031101922 -0.0036502657 0.018617986 0.024347553
0.015830107 0.010163903 0.011317977 -0.0243783 0.016573647 -0.031859957 -0.013059252 -0.009255108
0.023221621 -0.000921823 -0.014404468 0.004048927 -0.024393778 -0.008372364 0.0002542594 0.0039985683
-0.0033210139 0.019327056 -0.01679071 -0.014606341 0.032668483 0.0062925816 -0.0051200753 0.02198211
0.020466218 -0.008217896 -0.0059483014 -0.0051689837 0.011482495 -0.004037055 0.022045748 -0.025787907
-0.015515136 0.024107298 0.0041485596 0.008337687 0.009568724 -0.0074722464 -0.0063323695 0.012912851
-0.013962338 -0.010329792 0.004177926 0.00764896 -0.0031966195 -0.021386333 -0.0073651606 -0.017921496
0.019322373 -0.017392695 0.025176799 0.012594979 -0.02707912 0.029255897 -0.031272907 0.0018347172
-0.012503696 -0.027204292 0.0031331836 -0.01533258 0.025847353 -0.024858974 0.026247624 0.019077925
0.021007977 -0.010963127 -0.01574357 -0.029399568 0.028654365 -0.010465366 0.0019408636 -0.0014150093
0.00544031 -0.022141632 0.025498684 -0.022153955 0.03204104 -0.012373493 -0.011453955 -0.00069075526
0.009358955 0.0013237863 -0.02758439 0.022242945 0.035121523 0.007342985 0.031572882 0.008618798
-0.0024779518 -0.020960934 -0.027959662 -0.021772183 -0.008023426 0.018414162 -0.0050255307 -0.001228204
0.0021501123 -0.02067114 -0.0014947174 0.033326104 0.029473992 0.024084512 -0.0060198503 -0.00053616136
