model/FBDBIndexTask_9_00000-1_600.pth (torch, 3031 bytes, 3 tensors)

fc.0.weight f4 [100, 1]
0.063047454 0.5898574 -0.82304513 -0.735939 -0.38515437 0.32328916 -0.01981318 0.8989152
-0.088744044 0.33310243 -0.30221307 -0.21860465 -0.9553485 -0.6979507 -0.35327095 0.03704357
0.35868096 0.5653271 -0.71113807 -0.46195552 0.4227607 0.8830279 -0.20580018 0.82855344
-0.16118336 0.1058141 0.8657437 -0.92767036 -0.62953794 -0.25316525 -0.38979995 0.9171581
-0.64817965 -0.46033287 -0.6508148 -0.936561 -0.60388005 0.8210339 0.41331038 0.5432723
0.10874281 -0.46352622 0.13806085 -0.9336947 -0.72256625 -0.51553 0.6838752 0.54646647
-0.44349504 -0.036082387 0.6395607 1.1088133 0.46267006 0.10646672 0.6321699 -0.58880234
0.1432938 -0.7753055 -0.69308615 -0.51658356 0.41378984 0.4710396 -0.5923525 0.3021071
0.61646116 -0.24364582 0.038181543 0.29008928 0.6203766 1.0242916 -0.81613785 -0.36646974
0.35036767 0.8916419 0.8702073 0.8407441 0.26737693 -0.86958265 0.11297712 -0.62560534
-0.85644406 0.8498267 0.7192191 -1.0284435 0.2500963 -0.11793455 -0.16456115 -0.45775688
0.38455617 -0.6394971 0.32709476 0.56316733 0.8956081 0.46057135 -0.98973525 -0.6486969
0.49931502 0.16828696 -0.780084 -0.5758195
00000000: 061f 813d e500 173f 16b3 52bf 8066 3cbf
00000010: f432 c5be 2886 a53e 404f a2bc 4e1f 663f
00000020: 70bf b5bd 678c aa3e acbb 9abe e6d9 5fbe
00000030: b891 74bf e6ac 32bf eedf b4be 00bb 173d
00000040: 08a5 b73e 47b9 103f 250d 36bf 6f85 ecbe
00000050: 1774 d83e 1e0e 623f 48bd 52be 141c 543f
00000060: 400d 25be 10b5 d83d 61a1 5d3f ce7b 6dbf
00000070: 6629 21bf e09e 81be dc93 c7be e0ca 6a3f
00000080: 1aef 25bf c0b0 ebbe cc9b 26bf 76c2 6fbf
00000090: e297 1abf 472f 523f 6b9d d33e e513 0b3f
000000a0: 8db4 de3d 4f53 edbe d35f 0d3e 9e06 6fbf
000000b0: 1afa 38bf c6f9 03bf 7212 2f3f 3ae5 0b3f
000000c0: c811 e3be 20cb 13bd 40ba 233f 98ed 8d3f
000000d0: 17e3 ec3e 390b da3d e3d5 213f c0bb 16bf
000000e0: 9cbb 123e 6c7a 46bf 186e 31bf d23e 04bf
000000f0: 43dc d33e 1a2c f13e 6aa4 17bf c8ad 9a3e
00000100: 66d0 1d3f 4a7e 79be 4064 1c3d 9586 943e
00000110: 00d1 1e3f fd1b 833f 69ee 50bf eca1 bbbe
00000120: 6463 b33e a542 643f e8c5 5e3f 013b 573f
00000130: a1e5 883e f89c 5ebf 8c60 e73d ac27 20bf
00000140: eb3f 5bbf 3e8e 593f be1e 383f 09a4 83bf
00000150: 9f0c 803e ab87 f1bd b882 28be 1c5f eabe
00000160: 8ce4 c43e 15b6 23bf f778 a73e bc2b 103f
00000170: 9346 653f 02d0 eb3e 4a5f 7dbf 0011 26bf
00000180: 38a6 ff3e 6b53 2c3e 96b3 47bf e868 13bf

fc.0.bias f4 [100]
0.9553904 0.69258076 -0.43602514 -0.25168478 -0.9525981 2.2798982e-05 -0.7530589 -0.6547288
-0.055099607 0.16438532 -0.40953028 0.57021034 -0.6085391 0.888408 0.6980501 -0.84328294
-0.28506443 0.021379286 0.09978037 0.29870585 0.36479554 0.07864552 -0.48792875 0.48335633
-0.9592489 -0.5927067 -0.287766 -0.48711336 -0.34983337 -0.8196217 -0.21271515 0.23241007
-0.6514658 -0.05131936 0.73722905 -0.10280025 -0.0008103374 -0.118932925 0.17850313 0.6532507
0.9655988 0.6556031 0.9259638 -0.07232165 -0.8983215 -0.47407722 0.69977254 -0.03496576
-0.49704635 -0.76631176 -0.93585205 -0.7155496 -0.13583682 0.5244516 0.518174 -0.9644319
0.60258293 -0.78250945 -0.21141028 -0.40547264 -0.23076661 -0.12601307 -0.89734995 -0.8634379
-0.09374304 0.16478834 -0.4542749 0.3941998 -0.9000584 -0.0380117 0.86071557 -0.407892
0.8816784 0.37800083 -0.90246093 0.6109938 -0.042333655 -0.44640684 0.7707264 -0.8080952
0.32470712 -0.24526885 0.6923339 0.23905489 0.49690843 0.37299028 -0.2404747 -0.21030545
-0.8240814 0.5359183 0.77197075 0.70194656 -0.49494624 0.03573417 -0.7049341 -0.5504842
-0.5827055 0.32003513 -0.5959132 -0.021817207
00000000: 7794 743f f94c 313f b03e dfbe d4dc 80be
00000010: 78dd 73bf 7140 bf37 78c8 40bf 4e9c 27bf
00000020: 20b0 61bd a054 283e f4ad d1be 4ef9 113f
00000030: 38c9 1bbf b56e 633f 69b3 323f 64e1 57bf
00000040: f7f3 91be 9d23 af3c a759 cc3d f9ef 983e
00000050: 7bc6 ba3e e710 a13d ccd1 f9be 7b7a f73e
00000060: 5691 75bf a0bb 17bf 1156 93be ec66 f9be
00000070: 5c1d b3be bad2 51bf 00d2 59be e8fc 6d3e
00000080: 76c6 26bf 4034 52bd 0bbb 3c3f f088 d2bd
00000090: d36c 54ba 1b93 f3bd 86c9 363e 703b 273f
000000a0: 7c31 773f 9bd5 273f f70b 6d3f 601d 94bd
000000b0: 66f8 65bf 40ba f2be 4b24 333f 4238 0fbd
000000c0: dc7c febe 022d 44bf 0094 6fbf 422e 37bf
000000d0: cf18 0bbe 7642 063f 0da7 043f 02e5 76bf
000000e0: e042 1a3f 8a52 48bf f07b 58be 1c9a cfbe
000000f0: 154e 6cbe 9209 01be bab8 65bf 440a 5dbf
00000100: 5afc bfbd 46be 283e b896 e8be 8ed4 c93e
00000110: 3a6a 66bf 28b2 1bbd db57 5c3f 38d7 d0be
00000120: adb5 613f 5389 c13e ae07 67bf 176a 1c3f
00000130: 0e66 2dbd 708f e4be 534e 453f 54df 4ebf
00000140: 0340 a63e c227 7bbe cb3c 313f ceca 743e
00000150: c86a fe3e 95f8 be3e 003f 76be 505a 57be
00000160: 00f7 52bf f131 093f e09f 453f c5b2 333f
00000170: 9869 fdbe fe5d 123d 9076 34bf 88ec 0cbf
00000180: 302c 15bf a5db a33e c48d 18bf 00ba b2bc

fc.1.weight f4 [1, 100]
0.024978552 0.09456362 -0.075592004 -0.06865122 -0.058066156 0.12103455 -0.0359465 0.14765047
0.036160756 0.048896372 -0.0007444024 -0.007895822 0.012546635 -0.028113741 0.0034539646 0.012759305
-0.043585833 -0.007869501 -0.019643694 -0.18133596 0.024027124 0.14406943 0.036123704 0.037627332
-0.086660996 0.04953779 -0.020155177 -0.028386427 -0.033551633 -0.014808739 0.0010938287 0.122983575
0.012483883 0.089569286 0.04080774 -0.063221395 0.018652225 -0.02130032 -0.006212198 0.059309937
0.054756854 0.06842148 -0.0093550235 0.00016008616 0.051482357 -0.096709214 0.10332678 -0.035442773
0.0013782502 -0.017001677 -0.052667297 0.07255434 0.15085508 -0.0056078876 -0.026997613 -0.036983885
-0.07485462 0.0451394 -0.04802637 -0.06673403 -0.012115232 0.124895975 0.052957367 0.076752186
0.09457997 -0.2434087 -0.027944816 0.058544096 0.08220347 0.077715546 -0.06358881 -0.04700774
-0.06847023 0.058766056 -0.05611825 -0.055941872 0.17031191 -0.06494112 0.010828793 0.028649354
-0.23718043 -0.016470782 -0.04946092 -0.031315297 0.042965025 0.09330748 -0.033524062 0.029455543
-0.02286762 -0.041778877 -0.034556545 0.063498735 0.14277719 0.04307035 -0.022490216 -0.061642982
0.06915448 -0.04697141 0.040966548 -0.033625353
00000000: d29f cc3c 92aa c13d fbcf 9abd 0399 8cbd
00000010: c7d6 6dbd f6e0 f73d a33c 13bd af31 173e
00000020: 4d1d 143d 9047 483d 0024 43ba 7a5d 01bc
00000030: 6790 4d3c ca4e e6bc e95b 623b 670c 513c
00000040: 0f87 32bd 14ef 00bc d0eb a0bc 22b0 39be
00000050: 88d4 c43c f086 133e 73f6 133d 1e1f 1a3d
00000060: 527b b1bd 23e8 4a3d 781c a5bc a78a e8bc
00000070: 706d 09bd 5aa0 72bc cd5e 8f3a d0de fb3d
00000080: 3389 4c3c 1a70 b73d 0426 273d 387a 81bd
00000090: 8dcc 983c 027e aebc b28f cbbb faee 723d
000000a0: b948 603d 9020 8c3d d045 19bc cddc 2739
000000b0: 2adf 523d 7b0f c6bd fe9c d33d 712c 11bd
000000c0: 67a6 b43a 1a47 8bbc aab9 57bd 5f97 943d
000000d0: c179 1a3e 5fc2 b7bb 192a ddbc 6a7c 17bd
000000e0: 614d 99bd 17e4 383d 4db7 44bd daab 88bd
000000f0: f77e 46bc 76c9 ff3d d3e9 583d 4030 9d3d
00000100: 25b3 c13d 2140 79be 87ec e4bc efcb 6f3d
00000110: 4b5a a83d 5429 9f3d da3a 82bd 308b 40bd
00000120: 1f3a 8cbd adb4 703d 40dc 65bd 4e23 65bd
00000130: 3f66 2e3e daff 84bd 406b 313c 0db2 ea3c
00000140: 6ddf 72be bced 86bc 8997 4abd 7844 00bd
00000150: 18fc 2f3d fe17 bf3d 8750 09bd c04c f13c
00000160: e054 bbbc 5420 2bbd 2a8b 0dbd a00b 823d
00000170: 2f34 123e 896a 303d 673d b8bc 5a7d 7cbd
00000180: dda0 8d3d 1865 40bd 8acc 273d bdba 09bd
