model/FBDBIndexTask_0_11100-1_10.pth (torch, 25873 bytes, 4 tensors)

fc.0.weight f8 [1000, 1]
000000 00 00 00 00 80 aa 7e bf 00 00 00 c0 8b 2a e1 3f
       -0.007486820220947266 0.5364435911178589
000010 00 00 00 c0 62 56 ea bf 00 00 00 00 d0 8c e7 bf
       -0.8230451345443726 -0.7359390258789062
000020 00 00 00 80 5e a6 d8 bf 7a 37 cb 8c b2 8d d0 3f
       -0.3851543664932251 0.2586485266627886
000030 00 00 00 00 e8 49 94 bf f8 d8 b0 ee e5 e6 e9 3f
       -0.019813179969787598 0.8094358121805092
000040 00 00 00 00 ee b7 b6 bf 00 00 00 80 69 ef d0 3f
       -0.08874404430389404 0.2646125555038452
000050 89 51 c4 f9 68 95 d5 bf 9e 6a 18 8b 55 46 c9 bf
       -0.33724426642700017 -0.19745892802969406
000060 5c e9 63 ef 41 7a f0 bf 00 00 00 40 6a 31 e5 bf
       -1.0298480368788523 -0.6622821092605591
000070 00 00 00 00 dd 61 da bf 89 05 75 7e 3a a7 9a 3f
       -0.41222310066223145 0.02602855107148153
000080 19 e8 28 bf c5 d5 d5 3f 4b fb cf 4e 63 3a e3 3f
       0.3411726347727622 0.6008774318032492
000090 00 00 00 80 b1 b1 e5 bf f5 fe 2e bb 4e 3d dd bf
       -0.677941083908081 -0.45686691550871156
0000a0 a5 c2 ca b0 30 e3 d6 3f bc d3 eb 49 ac 36 e9 3f
       0.3576165892109578 0.7879239505551747
0000b0 00 00 00 00 a9 57 ca bf f4 1a 73 99 8d a9 e7 3f
       -0.20580017566680908 0.7394474026740157
0000c0 00 00 00 00 a8 a1 c4 bf 00 00 00 00 a2 16 bb 3f
       -0.16118335723876953 0.10581409931182861
0000d0 03 32 37 42 d1 b9 eb 3f 88 fb 90 25 2f 06 ed bf
       0.8664327901147434 -0.9070049031941929
0000e0 00 00 00 c0 2c 25 e4 bf 26 88 5b 4b b7 42 d0 bf
       -0.6295379400253296 -0.25407202109465954
0000f0 42 9b 55 03 e8 dc d9 bf ed b9 8d f9 8a a6 eb 3f
       -0.40410805059075383 0.8640799402326685
000100 00 00 00 40 e3 bd e4 bf 00 00 00 00 18 76 dd bf
       -0.6481796503067017 -0.46033287048339844
000110 00 00 00 40 43 5b e6 bf d6 c8 da 66 18 3c ed bf
       -0.6986404657363892 -0.913585854423469
000120 00 00 00 80 00 ae e2 bf 02 cc e6 2e ed d7 eb 3f
       -0.5837404727935791 0.8701082149549395
000130 00 00 00 80 d7 8e dc 3f c7 ed 20 3e a8 59 da 3f
       0.4462183713912964 0.41172224108933303
000140 00 00 00 00 48 ed aa 3f 10 30 b6 2f 37 3c e2 bf
       0.052591562271118164 -0.5698505336636135
000150 00 00 00 00 d8 a7 c5 3f 00 00 00 c0 d3 e0 ed bf
       0.16918468475341797 -0.9336947202682495
000160 73 26 29 dd 3b 20 e6 bf 74 b4 e3 73 7a 27 e3 bf
       -0.691434795336319 -0.5985691321817641
000170 f2 e1 47 74 e2 28 e4 3f 31 32 f3 2f 82 75 e2 3f
       0.629990794287606 0.5768443047068726
000180 00 00 00 00 39 62 dc bf 8d 0f 70 b3 86 19 a9 bf
       -0.4434950351715088 -0.049022874263783135
000190 1d 08 8b 80 3d d4 e4 3f 64 e3 36 1f 34 2e f0 3f
       0.6509082327468182 1.0112801760971815
0001a0 62 6a 69 fc bf 94 d8 3f 56 b5 f3 a5 ac bd bf 3f
       0.38407897615039677 0.12398795177042152
0001b0 00 00 00 c0 9f 74 e5 3f 00 00 00 00 78 d7 e2 bf
       0.670486330986023 -0.5888023376464844
0001c0 72 a3 bb 6e 18 d4 c7 3f 8e 86 7b d5 ba 91 e7 bf
       0.1861601391495032 -0.7365392846661096
0001d0 6f 17 bc f9 d2 5c e6 bf 00 00 00 40 da 87 e0 bf
       -0.6988310697204109 -0.5165835618972778
0001e0 00 00 00 80 51 f5 dc 3f e4 c7 8c 90 48 8b d9 3f
       0.4524730443954468 0.3991261874790537
0001f0 6c e5 59 a6 f3 58 e4 bf be ca 64 55 a0 fd d2 3f
       -0.6358583687826189 0.2967301210330041
000200 93 ef 7c f2 5f 1e e1 3f 00 00 00 00 e4 27 c0 bf
       0.5349578605741833 -0.12621736526489258
000210 00 00 00 00 88 8c a3 3f 00 00 00 00 80 a8 cd 3f
       0.03818154335021973 0.2317047119140625
000220 0b ec ab 3f 63 a4 e3 3f 55 29 37 2e 71 75 ee 3f
       0.613816856726204 0.9518361952444062
000230 61 a0 fd ff ea fe eb bf 00 00 00 80 3d 74 d7 bf
       -0.8748679160899081 -0.36646974086761475
000240 cf 4c 2c d5 1f c4 d8 3f 56 6b 3b 85 02 95 e9 3f
       0.3869704801338231 0.7994396784009534
000250 c5 d1 f3 2f af d6 eb 3f 00 00 00 40 44 3c ec 3f
       0.8699565826960273 0.8823567628860474
000260 00 00 00 00 4f 79 c9 3f 00 00 00 00 9f d3 eb bf
       0.1990145444869995 -0.8695826530456543
000270 01 3a 1c 1f 39 e7 b5 3f 39 6b ba 88 c1 2f e7 bf
       0.08555943498161157 -0.7245795889351491
000280 31 ed 7c 0d 5b 31 ef bf 14 df e0 40 26 2d ec 3f
       -0.9747748626172436 0.880511404719956
000290 a6 05 b1 4b 0b 26 e8 3f 00 00 00 c0 bf eb ef bf
       0.7546440580701315 -0.9975279569625854
0002a0 e0 a7 2d 7f ad 30 c3 3f 06 ca 49 a6 d4 07 cd bf
       0.14992302617912312 -0.22680147285025515
0002b0 25 15 21 33 10 14 c6 bf 00 00 00 80 e3 4b dd bf
       -0.17248728272003536 -0.4577568769454956
0002c0 14 3f 17 9b 1f 02 d8 3f 00 00 00 80 26 f4 e2 bf
       0.3751296057280211 -0.5923035144805908
0002d0 06 f3 a0 2e 42 e9 d6 3f 56 b5 e0 d4 75 00 e0 3f
       0.3579869704588393 0.5000561864632498
0002e0 2a 07 5b 5f cf 0b e7 3f f8 94 2d a1 af 8c d7 3f
       0.720191656342853 0.3679617952351033
0002f0 00 00 00 40 e9 ab ef bf 00 00 00 00 20 c2 e4 bf
       -0.9897352457046509 -0.6486968994140625
000300 a8 d2 cc a7 be c1 df 3f 00 00 00 00 63 ca ca 3f
       0.49620024096229054 0.20930135250091553
000310 00 00 00 c0 72 f6 e8 bf 00 00 00 00 1d 6d e2 bf
       -0.7800840139389038 -0.5758194923400879
000320 43 f8 76 74 c0 e4 ed 3f f3 e2 be 2b f3 6b e5 3f
       0.9341738009168313 0.669427476349567
000330 28 a6 7d 60 99 9f df bf 03 75 a2 6f 52 20 d1 bf
       -0.4941161577504283 -0.2675977792913075
000340 00 00 00 00 af 7b ee bf 30 45 f8 e7 95 a1 92 bf
       -0.9525980949401855 -0.0181945250352033
000350 00 00 00 00 0f 19 e8 bf 00 00 00 40 f4 ae e8 bf
       -0.753058910369873 -0.7713567018508911
000360 52 05 b1 cd 5a 7f ac bf 0f 7d fb 5d b5 15 c3 3f
       -0.05565913926012435 0.14909998978598835
000370 00 00 00 80 be 35 da bf 00 00 00 00 f3 fc e2 3f
       -0.40953028202056885 0.5933775901794434
000380 00 00 00 00 27 79 e3 bf 47 e1 cd f9 72 08 ed 3f
       -0.6085391044616699 0.9072813872326514
000390 00 00 00 00 fa ed e5 3f 00 00 00 80 2c fc ea bf
       0.6852998733520508 -0.84328293800354
0003a0 06 cf 60 ef ff 20 d1 bf 00 00 00 00 50 1a a7 3f
       -0.2676391446759542 0.045122623443603516
0003b0 00 00 00 00 e3 ac c2 3f 00 00 00 00 ba 5b ce 3f
       0.14590108394622803 0.23717427253723145
0003c0 46 95 71 1b f6 1f d7 3f 00 00 00 00 3c ab ae 3f
       0.3613257663731314 0.05990016460418701
0003d0 00 00 00 80 39 3a df bf 0f c0 85 3a 06 70 da 3f
       -0.48792874813079834 0.41308742251476444
0003e0 00 00 00 c0 2a b2 ee bf 00 00 00 00 74 f7 e2 bf
       -0.9592489004135132 -0.5927066802978516
0003f0 00 00 00 80 67 05 d0 bf 00 00 00 80 dd 2c df bf
       -0.250329852104187 -0.487113356590271
000400 e2 cf f0 46 21 6c d6 bf 00 00 00 40 57 3a ea bf
       -0.3503497307567597 -0.8196216821670532
000410 00 00 00 00 40 3a cb bf 06 c5 74 b2 cb f3 c9 3f
       -0.21271514892578125 0.20275255407026566
000420 51 e3 03 c9 4c bb e7 bf 3d 04 72 90 37 cc ac bf
       -0.741613762481487 -0.05624555242776139
000430 3c e7 00 5a 02 dd e6 3f 00 00 00 00 1e 51 ba bf
       0.7144786603814519 -0.10280025005340576
000440 00 00 00 00 90 75 9c 3f 3d 32 fa c7 3e 5a e1 bf
       0.02779221534729004 -0.5422662645156106
000450 b6 76 33 54 b4 df c9 3f 00 00 00 00 cc 58 e4 3f
       0.20213941680315423 0.6358394622802734
000460 ef bf 61 7c 60 1b ee 3f 3b fd c2 47 ff 52 e4 3f
       0.940841906483909 0.6351314927668804
000470 f1 3e e1 98 35 02 ee 3f 00 00 00 00 ac 83 b2 bf
       0.9377696977553268 -0.07232165336608887
000480 4c 52 ad 37 ad 28 ef bf 00 00 00 00 48 57 de bf
       -0.973715409034932 -0.4740772247314453
000490 ed 9b 70 92 c3 8d e5 3f 00 00 00 00 60 8d 7a bf
       0.6735551700738803 -0.006482481956481934
0004a0 71 bd 56 fd 27 3a e1 bf 00 00 00 40 a0 85 e8 bf
       -0.5383491466545093 -0.766311764717102
0004b0 49 07 23 a2 97 66 ec bf 00 00 00 80 1d 02 eb bf
       -0.8875234762892684 -0.844008207321167
0004c0 00 00 00 00 8e f6 c9 bf 5b d5 f1 86 66 46 e1 3f
       -0.2028367519378662 0.5398438106191564
0004d0 81 ec f0 e9 e6 20 e1 3f 00 00 00 40 a0 dc ee bf
       0.5352663582956582 -0.964431881904602
0004e0 2b 26 30 ad 23 c1 e2 3f 22 ae 68 25 e8 32 e9 bf
       0.5860765822009787 -0.7874642115252224
0004f0 00 00 00 00 7e 0f cb bf 66 69 68 7e d5 c1 dc bf
       -0.2114102840423584 -0.44933068604009063
000500 00 00 00 00 9e a7 c8 bf 00 00 00 00 c2 21 c9 bf
       -0.19261527061462402 -0.19634270668029785
000510 00 00 00 40 17 b7 ec bf 2e 53 48 53 69 15 eb bf
       -0.8973499536514282 -0.8463636995898918
000520 ca 05 61 10 3a bf c4 bf 00 00 00 00 30 7c 8a 3f
       -0.16208577918773265 0.012932181358337402
000530 ad c1 fd 4e 72 99 e0 bf 9b 44 dc 26 f7 23 d5 3f
       -0.5187312643811787 0.3303201560493762
000540 00 00 00 40 47 cd ec bf 00 00 00 00 d8 46 b1 bf
       -0.900058388710022 -0.06748723983764648
000550 34 3d 19 76 6a 20 ec 3f d5 d8 59 42 5e 9a da bf
       0.8789570147145356 -0.41567188720308695
000560 be 8e f8 0c 9d 44 ec 3f 00 00 00 00 87 2d d7 3f
       0.8833756688440741 0.3621537685394287
000570 00 00 00 c0 f5 e0 ec bf 77 ab 88 82 3b 31 e4 3f
       -0.9024609327316284 0.6310098218431069
000580 5f a5 dd 60 1f da bd bf de c9 92 49 a7 8c ec bf
       -0.11660953631294067 -0.892169612596543
000590 5c 4c 9b 6f 97 07 ea 3f 00 00 00 80 ea db e9 bf
       0.8134267024819439 -0.8080952167510986
0005a0 00 00 00 00 56 78 bb 3f 00 00 00 00 98 cc ca bf
       0.10730493068695068 -0.20936870574951172
0005b0 05 93 d5 66 2e cf e6 3f 00 00 00 00 81 dd d1 3f
       0.7127906807405401 0.2791445255279541
0005c0 00 00 00 80 99 c0 de 3f 00 00 00 00 28 9a d6 3f
       0.4805053472518921 0.35315895080566406
0005d0 00 00 00 00 e0 c7 ce bf 6e 6a 0d cd e4 cf cb bf
       -0.24047470092773438 -0.21728191387485957
0005e0 17 ff d9 1e ea 7e ea bf 00 00 00 80 c9 56 e1 3f
       -0.8279924967355069 0.5418441295623779
0005f0 c0 42 41 c0 34 0f e9 3f 8e fe c8 00 67 c0 e5 3f
       0.7831062083224296 0.6797366156897213
000600 f1 5a 61 08 37 e5 e6 bf 67 10 cf 38 de 0b a2 3f
       -0.715480343215715 0.03524679606883368
000610 00 00 00 00 d2 8e e6 bf 00 00 00 00 91 9d e1 bf
       -0.7049341201782227 -0.5504841804504395
000620 24 cd 42 66 7f 13 e4 bf 00 00 00 80 26 df d5 3f
       -0.6273800847324407 0.3417450189590454
000630 83 ac d3 08 f2 45 e4 bf 00 00 00 00 40 57 96 bf
       -0.6335382625960765 -0.02181720733642578
000640 0c 2e 53 9e 27 ac a4 3f b1 a8 b2 7c ca 6a e4 3f
       0.040375936581394795 0.6380360064988705
000650 ff 2d 4b 3d 4a 33 e8 bf 00 00 00 80 e8 f7 e5 bf
       -0.7562609860555652 -0.6865122318267822
000660 00 00 00 80 c7 94 e2 bf ae 8d 04 d8 32 e1 e4 3f
       -0.5806615352630615 0.652490064534893
000670 00 00 00 80 79 01 d7 bf 0e a3 5f b3 59 bf e8 3f
       -0.35946500301361084 0.7733582023039121
000680 cb a7 d6 c9 4b 24 d7 3f 00 00 00 00 48 35 c0 3f
       0.36159033499518206 0.12662601470947266
000690 00 00 00 00 a0 7d 7e bf 00 00 00 00 a1 4d c9 bf
       -0.007444024085998535 -0.19768154621124268
0006a0 97 4c 8d 9a 74 f4 bf 3f 00 00 00 00 66 3a cd bf
       0.12482384465447392 -0.22834467887878418
0006b0 00 00 00 00 c0 c7 7c bf 00 00 00 00 f8 54 c0 3f
       -0.0070264339447021484 0.1275930404663086
0006c0 f3 06 6b 52 2d 11 e9 bf 69 39 5a be 92 62 e2 bf
       -0.7833468065002464 -0.5745328634091439
0006d0 5e 2c e3 a4 da c8 e8 3f 03 b8 da 04 a2 8c ed bf
       0.7745183201271961 -0.9234171004115982
0006e0 64 ef 2a 8e da 72 b2 bf b9 79 9d 73 a1 63 ef 3f
       -0.0720650288666867 0.9809119470699478
0006f0 90 2f 24 c5 2a 66 d4 3f 7d dc af 5a 7c 44 55 3f
       0.3187357831200126 0.0012980665585453903
000700 00 00 00 c0 44 bb eb bf 80 28 5c b2 24 56 df 3f
       -0.8666099309921265 0.4896327726170355
000710 00 00 00 00 01 cb e6 bf 71 cb 02 e5 b0 8c d2 bf
       -0.7122807502746582 -0.2898370968279585
000720 6a 87 04 da 86 76 d5 bf 00 00 00 00 87 f4 c2 bf
       -0.33535929957189714 -0.14808738231658936
000730 8d ab 9f 5a fd de 61 3f 35 dc 84 4b bd 51 e9 3f
       0.0021815250702181322 0.7912279582004716
000740 00 00 00 00 70 f5 bf 3f d8 26 d8 30 56 34 ec 3f
       0.12483882904052734 0.8813887552252835
000750 60 5c 4d 2e 1b 69 e3 3f 00 00 00 c0 18 3b e4 bf
       0.6065803436603225 -0.6322139501571655
000760 59 07 ae cc c6 b6 dc 3f d4 34 94 97 8f 50 e8 bf
       0.44865579593908006 -0.7598340950513838
000770 f4 84 d4 5d 7e 1d db bf 00 00 00 00 e8 d2 d2 3f
       -0.4236751476583571 0.29412269592285156
000780 00 00 00 00 de 21 d5 3f 81 e8 4b dc c2 d1 e7 3f
       0.33019208908081055 0.7443556120554292
000790 ca 6c 68 de 60 f1 d4 bf 00 00 00 00 80 3a 5a 3f
       -0.3272325679733511 0.0016008615493774414
0007a0 00 00 00 40 6f 79 e0 3f 00 00 00 40 6b f2 ee bf
       0.5148235559463501 -0.9670921564102173
0007b0 68 a8 4b 02 bd cc e6 3f 00 00 00 00 26 76 ea bf
       0.7124924702486739 -0.8269224166870117
0007c0 74 2a 4f 85 cb 50 a0 bf 00 00 00 00 1c c3 c5 bf
       -0.03186641695318296 -0.17001676559448242
0007d0 55 5d 36 06 9b 33 e1 bf bf f3 b9 93 32 ee c0 3f
       -0.5375495072684467 0.13226921284868173
0007e0 64 df 61 f1 24 73 ea 3f 00 00 00 00 5d b5 d2 bf
       0.8265557016847933 -0.29231953620910645
0007f0 f4 7b 3f 2e ee af e2 bf 91 cf 9c d9 50 6b d7 bf
       -0.5839758780747375 -0.3659250378725512

fc.0.bias f8 [1000]
000000 00 00 00 00 b2 c3 b5 bf 00 00 00 80 c5 f4 e8 bf
       -0.08501732349395752 -0.7798793315887451
000010 00 00 00 00 a0 30 79 bf 00 00 00 00 b9 8f ea bf
       -0.006149888038635254 -0.8300442695617676
000020 00 00 00 00 68 89 cb bf 5e 5a 60 ea bd 39 e2 3f
       -0.21513080596923828 0.5695485665954256
000030 00 00 00 40 4f 40 e6 bf 7c 89 6d 88 0b 36 e6 bf
       -0.6953502893447876 -0.6940972962004675
000040 00 00 00 00 2d 41 cf bf 00 00 00 80 69 8b d1 bf
       -0.24417650699615479 -0.2741340398788452
000050 ff 54 03 5b 45 cb c3 3f 80 8c db e7 21 8e c5 3f
       0.15464083618159205 0.16840003796741954
000060 b7 9c 6f f4 c8 40 de 3f 00 00 00 40 4f 0b e6 bf
       0.4727041613645712 -0.6888805627822876
000070 00 00 00 00 f4 10 b2 bf ea 78 32 ee 70 8d e1 3f
       -0.0705711841583252 0.5485157635009987
000080 52 9c 37 d0 e4 c1 e9 3f 7d 7d 81 44 8c 25 b1 bf
       0.8049186770193819 -0.06697918579583546
000090 00 00 00 80 0e 84 e2 bf 80 c7 3c bd 42 e1 d1 3f
       -0.578620195388794 0.2793738220235511
0000a0 9c 25 0b ce 0c 09 e2 3f 78 03 c6 86 55 9e e5 bf
       0.5636047386444036 -0.6755778915686355
0000b0 00 00 00 80 c3 91 e2 bf ea 8f 1e cf 40 b2 db 3f
       -0.5802934169769287 0.43275470949651995
0000c0 00 00 00 00 d8 ef b1 bf 00 00 00 40 55 39 ee bf
       -0.07006597518920898 -0.9444986581802368
0000d0 6b e6 38 ec 8e 3e e4 bf 2b dc cf 45 1a a7 da 3f
       -0.6326365102497226 0.4164491349942547
0000e0 00 00 00 00 0e b5 d5 bf 2c bd 63 aa 4a 0f e6 3f
       -0.3391757011413574 0.6893666580125788
0000f0 13 a5 19 47 fb cd e8 3f ea 69 13 d3 02 a7 c2 3f
       0.7751442326236052 0.1457217722552991
000100 00 00 00 00 3e 3e b4 bf 00 00 00 00 ba 50 d4 bf
       -0.07907474040985107 -0.3174271583557129
000110 00 00 00 00 c4 e3 a9 bf 8f 14 61 99 72 ac c9 3f
       -0.05056583881378174 0.2005751847192738
000120 00 00 00 c0 77 71 e8 bf 6d 1e e6 bc 90 30 ca bf
       -0.7638510465621948 -0.20460709785060108
000130 00 00 00 00 1d 9e ea bf 75 07 89 15 bc 4d e1 3f
       -0.8318009376525879 0.5407390995608085
000140 00 00 00 80 f6 60 e4 bf 7b c1 e7 75 10 87 eb 3f
       -0.6368362903594971 0.860237341197759
000150 00 00 00 00 7b 7f d0 bf 00 00 00 80 fe 54 e2 bf
       -0.2577807903289795 -0.5728752613067627
000160 91 14 a8 19 34 f6 df 3f 8f 4d 12 fd 4f 06 c1 3f
       0.49940207009815035 0.1330051408482231
000170 eb 80 d8 f5 e1 21 e6 3f 30 d4 01 dd a2 15 da 3f
       0.6916360665964282 0.4075705679200068
000180 00 00 00 40 ad d3 ee bf 26 c7 31 10 98 cc e3 3f
       -0.9633394479751587 0.6187248531625513
000190 23 3b 9a a9 12 9a c3 bf 85 c0 18 bd 30 84 da bf
       -0.15313943177576403 -0.41431826082681084
0001a0 91 ec 08 5f 51 ed e3 3f f2 34 75 1b 80 f6 e6 3f
       0.6227194648885349 0.7175903831754609
0001b0 00 00 00 40 33 20 ec bf 00 00 00 00 fc 25 b7 bf
       -0.8789306879043579 -0.0904233455657959
0001c0 84 5a fb 38 b1 46 ea 3f 45 ed 1f ec dd 6c da 3f
       0.8211294281889683 0.4128947072892582
0001d0 72 f4 97 11 1a c3 ea 3f 00 00 00 80 c6 ee d5 bf
       0.836316141474198 -0.34269869327545166
0001e0 00 00 00 00 0e a7 e1 bf 8c 30 1b 2e 66 6c eb 3f
       -0.5516424179077148 0.8569823170196442
0001f0 ea c4 75 16 c3 dc d8 3f 28 31 39 31 19 8d ee 3f
       0.3884742469154633 0.9547239266771941
000200 0a c0 87 fc 96 62 dd bf 00 00 00 c0 cf 8b e4 bf
       -0.4591424432865102 -0.6420668363571167
000210 00 00 00 00 aa 01 be bf 00 00 00 40 6c 21 ee bf
       -0.11721289157867432 -0.9415799379348755
000220 fb 5e ba f0 0f a6 d8 3f 81 a7 73 12 cd 52 e7 3f
       0.38513563641161824 0.7288575516115402
000230 ae e1 48 0c 6b e9 c8 3f 00 00 00 00 68 4b b9 bf
       0.19462335681761317 -0.09880685806274414
000240 58 65 02 cb b0 53 df 3f e3 88 7f b6 f6 ee e5 bf
       0.48948306870587066 -0.6854203762452723
000250 a1 56 6a 4e c9 4c ef 3f 00 00 00 c0 a9 d1 ef bf
       0.9781233340788341 -0.994343638420105
000260 00 00 00 c0 7c a7 ee bf 00 00 00 00 22 3f ce bf
       -0.9579452276229858 -0.23630166053771973
000270 f5 ff 4b 57 c1 ef e9 3f 78 5c f6 6b d0 68 c4 3f
       0.8105169968621327 0.15944867393111273
000280 7c d7 8e 0e 7f 9a d6 3f ec ce eb 4d 86 28 e8 bf
       0.35317970678021715 -0.7549468538186068
000290 ba bb 3a ef 6a f5 d6 3f 00 00 00 00 38 9b bc bf
       0.3587291084504006 -0.11174345016479492
0002a0 a5 12 32 e9 34 0a d7 3f 63 d9 21 57 58 dd e4 3f
       0.35999796650893706 0.652019663028835
0002b0 7f 19 05 03 11 48 db 3f 00 00 00 00 c4 c6 b5 bf
       0.42627358717836467 -0.08506417274475098
0002c0 ce db ae 1b 18 52 b5 bf 00 00 00 40 dc 11 e4 bf
       -0.08328390766005997 -0.6271802186965942
0002d0 3a bb c9 52 f2 b2 d7 bf 7a af e6 09 f6 9a e4 3f
       -0.3702970322109881 0.6439161485081819
0002e0 82 bd 9b cd 1e e6 d9 bf ad 17 29 b8 74 ac e3 3f
       -0.4046704299825806 0.6148017498860462
0002f0 00 00 00 80 c7 60 d9 bf 00 00 00 00 a1 cf cd bf
       -0.39653193950653076 -0.23289883136749268
000300 62 4c 34 6f 4d db 92 3f 00 00 00 00 84 5d ed bf
       0.018414697563525435 -0.9176654815673828
000310 00 00 00 00 00 73 84 bf 00 00 00 00 c0 cd b9 bf
       -0.009984970092773438 -0.10079574584960938
000320 23 e0 58 f9 57 84 b9 bf 11 2b eb 81 ff 32 cb bf
       -0.09967565381600756 -0.21249383777316003
000330 57 1a c0 67 2e 2a e7 3f 73 dd d2 c5 70 11 e7 3f
       0.7238990808844602 0.7208789695495582
000340 00 00 00 00 30 b0 e5 bf 70 e2 27 eb a2 b8 dd 3f
       -0.6777572631835938 0.46439431156571853
000350 00 00 00 80 a9 19 e9 bf 00 00 00 40 06 3e eb bf
       -0.7843825817108154 -0.8513213396072388
000360 aa 17 63 d9 2d 88 d3 3f 54 39 6a 93 c2 45 8c 3f
       0.30518671254355445 0.013804931758639206
000370 00 00 00 80 3d db dd bf 00 00 00 00 37 dd ee bf
       -0.46650636196136475 -0.9645037651062012
000380 00 00 00 80 d6 c6 d8 bf 88 c4 0c 63 63 61 d5 3f
       -0.3871361017227173 0.33406910584296456
000390 00 00 00 00 87 9e ed bf 00 00 00 c0 3e 16 ef bf
       -0.9256014823913574 -0.9714654684066772
0003a0 10 c6 c3 d4 61 6b bf 3f 00 00 00 00 8d 0d e7 bf
       0.1227322716183823 -0.7204041481018066
0003b0 00 00 00 80 d9 08 ec bf 00 00 00 80 87 a8 d8 bf
       -0.8760802745819092 -0.38528621196746826
0003c0 72 20 05 3c 31 16 ca bf 00 00 00 00 1d 14 ed bf
       -0.2038022559229407 -0.9087052345275879
0003d0 00 00 00 80 06 5e e5 bf 07 99 5b aa 1f 2c 79 3f
       -0.6677277088165283 0.006145595257953446
0003e0 00 00 00 00 d3 2c ee bf 00 00 00 00 b0 fd c1 bf
       -0.9429717063903809 -0.14055442810058594
0003f0 00 00 00 c0 98 a9 e4 bf 00 00 00 00 00 2f e6 bf
       -0.6457027196884155 -0.6932373046875
000400 24 6f cf 1c 58 1e d9 3f 00 00 00 40 4c a1 e8 bf
       0.39247706235413404 -0.769689679145813
000410 00 00 00 80 2d 40 e8 bf 3b f5 d9 3c 2d e8 e1 3f
       -0.7578341960906982 0.5595918835166808
000420 cc 39 a0 96 32 44 c5 3f f3 b4 4c 4e a9 fc ec 3f
       0.1661437259176196 0.9058424500741736
000430 98 49 90 82 67 ab d0 bf 00 00 00 00 b8 e9 de bf
       -0.26046169042924694 -0.4830150604248047
000440 00 00 00 00 20 b1 b7 bf 53 6d 1d dd c0 3d c0 3f
       -0.09254646301269531 0.12688456341389073
000450 f5 cc bf c1 7a 66 e8 3f 00 00 00 00 e3 df ef bf
       0.7625097068943477 -0.9960799217224121
000460 2b 1d a5 4f 5a bb b2 bf 40 77 83 28 12 53 dc 3f
       -0.07317127651650839 0.4425702472343467
000470 0b f2 05 72 08 63 e2 bf 00 00 00 80 b0 42 e0 bf
       -0.5745889880195717 -0.5081408023834229
000480 30 c9 ef 1f 68 9d dc 3f 00 00 00 00 74 a9 ee bf
       0.44710734480681236 -0.9581851959228516
000490 e1 27 44 3d 91 6e cd 3f 00 00 00 c0 22 c6 e8 bf
       0.22993674747004803 -0.7741864919662476
0004a0 b9 91 d9 02 91 4c df 3f 00 00 00 c0 7d 5c eb bf
       0.4890482452231271 -0.855040431022644
0004b0 e1 b2 4c d1 db 88 e4 3f 00 00 00 80 d0 4a ee bf
       0.6417063796885395 -0.9466326236724854
0004c0 00 00 00 40 ec e5 ea bf bb 43 1e a1 91 58 7b 3f
       -0.8405667543411255 0.0066762627265157205
0004d0 82 84 80 d5 75 0c e9 3f 00 00 00 c0 97 67 eb bf
       0.7827710313760152 -0.8563956022262573
0004e0 f7 69 0b 7c 8d 14 e0 bf 65 de 94 f6 5e ef eb 3f
       -0.5025088713403524 0.8729700866742404
0004f0 00 00 00 00 1c 77 c5 bf e7 2b f4 dd 5c 20 da 3f
       -0.16769742965698242 0.40822526621985705
000500 00 00 00 80 b0 c8 ee bf 00 00 00 80 74 20 d4 bf
       -0.9619982242584229 -0.31448090076446533
000510 00 00 00 40 29 40 e0 bf 4f 13 9b 04 f6 13 eb 3f
       -0.5078321695327759 0.8461866464573208
000520 04 70 48 fb c5 2e da 3f 00 00 00 c0 80 59 e7 bf
       0.40910481967307555 -0.7296756505966187
000530 77 6f 2b a5 f7 eb c4 3f 5a df 67 51 fe 3f ad bf
       0.163451152467015 -0.05712885612223202
000540 00 00 00 00 b1 4b da bf 00 00 00 80 42 46 e2 bf
       -0.410869836807251 -0.5710766315460205
000550 c1 a2 22 61 cc bb d4 bf 47 e0 12 7c 49 f5 e8 3f
       -0.3239623020731806 0.7799422667803889
000560 b1 2a ad 43 f7 3c e8 bf 00 00 00 40 84 cb e6 bf
       -0.7574421235852552 -0.7123433351516724
000570 00 00 00 00 c7 be d3 bf 73 95 d5 74 5b 4f 90 3f
       -0.3085191249847412 0.01592772389030501
000580 89 86 03 ef 41 58 d1 3f c3 88 85 d9 bf c5 ca 3f
       0.27101181355656273 0.2091598331563259
000590 7e 79 30 36 f1 9e c8 bf 00 00 00 80 38 67 e3 bf
       -0.192350532016416 -0.6063501834869385
0005a0 00 00 00 00 a6 f7 c6 bf 00 00 00 00 6f c3 d9 bf
       -0.17943263053894043 -0.4025533199310303
0005b0 e2 5b 5b fb c1 d0 e9 3f 00 00 00 c0 2b 26 ef bf
       0.8067331227601893 -0.9734095335006714
0005c0 00 00 00 40 57 69 e4 bf 00 00 00 40 ee 08 ea bf
       -0.6378589868545532 -0.8135901689529419
0005d0 00 00 00 00 93 64 c7 bf 50 22 90 3e dd b6 e8 3f
       -0.18275678157806396 0.7723222944196753
0005e0 08 9b 3b 1d be ea eb 3f 00 00 00 c0 96 db eb bf
       0.8724051066354557 -0.8705552816390991
0005f0 5d 9d cb ef df 6a ad bf 69 c8 71 90 0f a5 e2 3f
       -0.05745601465406012 0.5826490231686537
000600 b2 dd 61 4c 7c 00 dc 3f ef d5 fe 75 29 e5 e9 3f
       0.4375296350403587 0.8092238716696424
000610 00 00 00 00 68 67 9c bf 00 00 00 40 25 80 e5 bf
       -0.027738213539123535 -0.6718927621841431
000620 1d 97 30 56 b4 97 e3 3f 00 00 00 00 50 f2 d5 bf
       0.6122686084170003 -0.3429145812988281
000630 1e da 04 b7 f7 68 e2 3f 00 00 00 00 3b 8b cf bf
       0.5753134321774416 -0.2464364767074585
000640 68 6c 28 43 36 1a db 3f 69 f0 19 01 90 8f ec 3f
       0.4234748512114437 0.8925247212896582
000650 15 86 05 15 94 be ed 3f 00 00 00 c0 40 1f ed bf
       0.9295139704301528 -0.9100650548934937
000660 00 00 00 c0 d8 2a e5 bf 42 15 ad d6 18 52 de bf
       -0.6614803075790405 -0.47376080479110183
000670 00 00 00 00 0c 68 e4 bf 60 06 a3 87 e4 81 ec 3f
       -0.6377010345458984 0.8908560418278277
000680 5d cb 64 bf 96 d1 b5 bf 00 00 00 00 16 3a e5 bf
       -0.08522932217310371 -0.6633405685424805
000690 00 00 00 00 b5 7a dc bf 00 00 00 80 f8 ac e1 bf
       -0.4449894428253174 -0.5523645877838135
0006a0 7e 9a 1c b0 9b 13 da 3f 00 00 00 40 7b e9 eb bf
       0.40744678686534275 -0.8722511529922485
0006b0 00 00 00 00 3f d6 ed bf 00 00 00 00 5b 8b ef bf
       -0.9324030876159668 -0.9857611656188965
0006c0 24 ef 66 de 89 15 dc 3f 40 0b f5 29 c3 b4 e0 3f
       0.4388146087546707 0.5220657176472301
0006d0 84 0d c4 79 c6 41 e5 bf e0 c7 f2 3f 59 ae ca 3f
       -0.6642792108763591 0.20844569799879675
0006e0 fd 59 7a 0d cb 9d e7 3f ec f1 ca dd 4e 7f c1 3f
       0.7380118621102266 0.13669763402675927
0006f0 7f fa a3 2e 78 83 d1 bf 10 69 da 60 4b e5 a6 3f
       -0.27364925913563093 0.044718127797027774
000700 00 00 00 00 46 73 bb bf 78 f6 66 93 d7 d6 df 3f
       -0.10722768306732178 0.4974879207110017
000710 00 00 00 00 76 ba e5 bf 98 b2 be 69 2d 06 e0 3f
       -0.679011344909668 0.5007540765123677
000720 a7 29 8d 7b ed 0a e2 3f 00 00 00 40 53 63 e3 bf
       0.5638339436639414 -0.6058746576309204
000730 5a a2 3f bb 87 d5 e9 3f f6 46 ca af 94 42 ee 3f
       0.8073156983565 0.9456275399590754
000740 00 00 00 00 0b 3b d9 bf 97 7a 49 5e 7d 26 d2 bf
       -0.3942286968231201 -0.28359922607152427
000750 5a 00 a4 94 10 8d df 3f 00 00 00 c0 c7 11 e9 bf
       0.4929849101608902 -0.7834204435348511
000760 95 b7 84 35 e8 53 d9 3f 18 7a e4 b5 ce b2 ce 3f
       0.3957462809220201 0.23983177072018758
000770 2c 85 93 eb 40 2d e4 3f 00 00 00 80 a0 cb eb bf
       0.6305241204355858 -0.8686068058013916
000780 00 00 00 00 ca 95 ea bf 9b dc a6 b1 27 5a dc 3f
       -0.830784797668457 0.44300262783822014
000790 59 89 70 6a 6a b0 d6 3f 00 00 00 40 d6 c8 ed bf
       0.35451755899898313 -0.930766224861145
0007a0 00 00 00 c0 58 d8 e1 bf 00 00 00 00 81 47 ed bf
       -0.5576595067977905 -0.9149785041809082
0007b0 98 57 b4 fd da 42 e7 bf 00 00 00 80 74 e0 dc bf
       -0.726911063686873 -0.45119965076446533
0007c0 ee ea 30 4e 14 1f e9 3f 00 00 00 00 80 7a c9 bf
       0.7850438620729088 -0.1990509033203125
0007d0 d8 ae d6 6b 5d 12 e1 3f 51 75 7c ea 79 65 ee 3f
       0.5334918123457681 0.9498872356231606
0007e0 05 8b ed 67 32 27 dd 3f 00 00 00 40 90 a5 ec bf
       0.4555173888131068 -0.8952103853225708
0007f0 b3 41 26 0f c2 af df 3f 6b 5a 2e 11 de 5c d7 3f
       0.49510241965711116 0.36504317930067626

fc.1.weight f8 [1, 1000]
000000 00 00 00 e0 48 f6 91 3f 00 00 00 00 23 34 77 3f
       0.01754106394946575 0.005664955824613571
000010 00 00 00 40 6d c4 73 3f 00 00 00 e0 8e be 90 3f
       0.004825999028980732 0.01635192148387432
000020 00 00 00 00 94 2c 94 3f ea f3 4c 1e b0 d6 84 bf
       0.01970130205154419 -0.010175109791470367
000030 00 00 00 c0 de 61 6c bf 9f ca d1 01 51 9c bd 3f
       -0.0034646368585526943 0.1156664494936117
000040 00 00 00 e0 0a 62 8f bf 00 00 00 60 4d 47 9e 3f
       -0.015323719941079617 0.02956887148320675
000050 82 e4 78 e7 51 8d 9e bf 93 02 2a 12 5a e6 96 3f
       -0.029835967781967294 0.022363097532891073
000060 6e 8c 9d 15 ed 14 a0 bf 00 00 00 60 1a cb 84 3f
       -0.03140965355739743 0.010153013281524181
000070 00 00 00 80 03 9e 96 3f cd 1f 51 35 ed 9a 79 3f
       0.02208714932203293 0.006251265139390183
000080 99 c9 62 d4 a7 24 3f bf 7b e7 99 a1 e5 48 97 3f
       -0.0004752073040307447 0.022739017475465566
000090 00 00 00 20 5c 40 97 bf 39 1d 0e 91 97 47 9d bf
       -0.022706450894474983 -0.028593414524519665
0000a0 a4 5e 1b b2 eb bf 98 bf 9f 25 0b 89 89 ae a1 3f
       -0.02416961931780172 0.034534738520572754
0000b0 00 00 00 20 e9 e4 4a 3f cb cd a4 14 53 c7 87 bf
       0.0008207453065551817 -0.011610650126931873
0000c0 00 00 00 40 4d db 7c 3f 00 00 00 e0 c6 7b 51 3f
       0.007045079953968525 0.0010671083582565188
0000d0 42 77 07 33 e0 e7 a8 3f b4 84 d2 0d 54 fc 94 bf
       0.04864407179751008 -0.02049380621304371
0000e0 00 00 00 e0 94 b7 81 bf cf 9c 6b 70 ee f1 97 3f
       -0.008650935254991055 0.02338383256110604
0000f0 84 65 2a 36 06 d6 74 bf 61 8f 26 fd db b1 a0 3f
       -0.005086921943666115 0.03260695901124567
000100 00 00 00 20 06 b9 89 bf 00 00 00 c0 7e b2 36 bf
       -0.012559936381876469 -0.00034633249742910266
000110 00 00 00 80 45 b0 7e bf af fa 23 14 8b fb 9e bf
       -0.007492324337363243 -0.03025643644741177
000120 00 00 00 00 b4 d0 88 3f c7 af 91 03 5c 26 92 bf
       0.012116819620132446 -0.01772445461067187
000130 00 00 00 20 71 56 95 3f 73 23 83 68 b7 77 42 3f
       0.020837562158703804 0.0005635877178288132
000140 00 00 00 c0 91 60 80 bf ac 9c 78 53 12 48 60 3f
       -0.007996691390872002 0.0019874914103357923
000150 00 00 00 20 32 89 96 3f 00 00 00 80 ba c3 9f 3f
       0.022007735446095467 0.031020082533359528
000160 39 9a a1 70 0e b0 9b 3f 96 0a 59 de aa d1 9b bf
       0.027038789391008875 -0.02716700536826496
000170 19 32 c8 a3 1d af 97 3f 60 d9 43 75 52 6f 85 bf
       0.023128951188526956 -0.01046623630871285
000180 00 00 00 c0 3b ec 90 bf a6 16 06 aa 17 b4 79 bf
       -0.016526158899068832 -0.006275265157801668
000190 c3 27 0f 5b a4 40 95 bf 80 4b 27 69 e4 d5 94 3f
       -0.020754402215778855 0.02034718410306935
0001a0 b4 3a 52 5e 05 6f 76 3f e4 d3 2d 68 f3 6e 80 bf
       0.005476971598126813 -0.008024121872702801
0001b0 00 00 00 e0 bb 4c 6a bf 00 00 00 c0 c0 8b 44 bf
       -0.0032104176934808493 -0.0006270114099606872
0001c0 03 5a aa 8a cc 55 9e 3f 71 11 44 93 50 24 a7 3f
       0.029624172175852347 0.045198934532922126
0001d0 be cd af 89 cd da 95 bf 00 00 00 e0 4f bc 87 3f
       -0.021342479256373663 0.01158964540809393
0001e0 00 00 00 a0 1c 02 89 3f 83 cb 1c 45 e4 e9 8d 3f
       0.012211059220135212 0.014606269225259321
0001f0 c3 d4 2a 2a 8a e5 82 bf e7 44 9c e9 5a 5f 85 3f
       -0.00922687474426665 0.010435781721329153
000200 fd 37 bd 2d 8c 2f b0 3f 00 00 00 00 60 84 9f 3f
       0.06322551838567843 0.03077840805053711
000210 00 00 00 40 19 09 9f bf 00 00 00 c0 7e 93 88 bf
       -0.03030814602971077 -0.012000074610114098
000220 c2 14 a6 49 89 f6 92 bf ea 8e 0e 81 e2 e5 89 bf
       -0.01851858627334902 -0.012645501674178179
000230 47 12 8c db 0a f7 94 bf 00 00 00 e0 c3 bf 93 3f
       -0.0204736420155476 0.01928621344268322
000240 d3 96 fd 27 d8 a1 95 bf 11 8d c3 d0 da a5 b3 3f
       -0.02112519973834177 0.07674949261450005
000250 0a c9 f7 4b b9 a2 9d 3f 00 00 00 a0 1f ec 8f bf
       0.028941054593766537 -0.015587088651955128
000260 00 00 00 60 81 9b 76 3f 00 00 00 a0 c1 9f 90 bf
       0.005519395228475332 -0.016234422102570534
000270 e7 b6 2a 0a 8b 01 83 3f 44 b4 cf 65 88 7e b6 bf
       0.009280287025230162 -0.0878682373583653
000280 b5 da c2 5d b5 3f 25 bf 30 e2 ec 20 f9 ba b1 3f
       -0.00016211594527755992 0.069259233988199
000290 4e 51 96 00 9a 33 98 bf 00 00 00 c0 50 d7 99 3f
       -0.023634344373548992 0.025235425680875778
0002a0 e4 5b 45 a7 c3 4c 53 bf 2e 58 88 0a d1 dd 5b 3f
       -0.0011779699971918795 0.0017008344094668992
0002b0 cb ab 8c 91 58 ff 89 bf 00 00 00 e0 f5 91 96 3f
       -0.012694065038507582 0.022041169926524162
0002c0 94 af 4d 28 c1 4c 92 bf 00 00 00 80 c1 31 8a bf
       -0.017870920262268067 -0.012790214270353317
0002d0 10 73 f6 06 89 0e 91 bf a9 4b 0c 15 06 6a 98 bf
       -0.016657010126084393 -0.023841948542279976
0002e0 48 5d f9 97 1a ff a8 3f 0f 1d 0e 7d 79 2a 96 bf
       0.04882128815796222 -0.02164640260482736
0002f0 00 00 00 00 dd e1 71 bf 00 00 00 80 16 bf 82 bf
       -0.004365790635347366 -0.009153533726930618
000300 d8 78 c0 39 df f1 8b 3f 00 00 00 c0 7c 52 81 3f
       0.0136449279307808 0.008458113297820091
000310 00 00 00 20 d3 d2 98 bf 00 00 00 20 c9 14 9d 3f
       -0.0242417324334383 0.028399603441357613
000320 4b 44 02 8e 4a bf 9c bf 09 33 34 ab 1e d1 89 3f
       -0.028073468129665973 0.012605895614365108
000330 d1 56 63 72 cc 35 2b 3f 6a fb 13 94 76 34 72 bf
       0.00020759697617361028 -0.004444564053527647
000340 00 00 00 60 2b 11 96 3f 83 78 af cb 23 ca 9d 3f
       0.021549871191382408 0.02909141474435063
000350 00 00 00 00 64 df 70 3f 00 00 00 a0 d7 df 86 bf
       0.00411929190158844 -0.0111691327765584
000360 ed bf 78 e8 e7 5b 9a 3f a6 08 74 a7 1e 9b 95 3f
       0.02574121815104029 0.02109954735807009
000370 00 00 00 a0 9a 43 77 3f 00 00 00 a0 aa b6 81 bf
       0.005679706577211618 -0.008649189956486225
000380 00 00 00 20 e7 d7 55 3f b8 ab 8e ed d5 55 9f 3f
       0.001333213527686894 0.03060087454256763
000390 00 00 00 40 cd 17 6c 3f 00 00 00 80 75 86 79 bf
       0.0034293183125555515 -0.006231745705008507
0003a0 e6 20 a8 22 6b 66 a2 bf 00 00 00 20 51 5a 91 bf
       -0.03593764112525992 -0.0169460941106081
0003b0 00 00 00 00 20 63 97 3f 00 00 00 c0 92 3e 52 bf
       0.022839069366455078 -0.0011135514359921217
0003c0 32 0e ce 4b 78 e7 84 3f 00 00 00 e0 61 37 89 3f
       0.010207118810064395 0.012312664650380611
0003d0 00 00 00 00 08 4e 95 bf c2 86 eb 5b 4c 26 29 3f
       -0.0208054780960083 0.00019187624089682913
0003e0 00 00 00 80 0a 37 82 bf 00 00 00 e0 5a f1 90 3f
       -0.008894044905900955 0.016545696184039116
0003f0 00 00 00 80 5f 5a 9a 3f 00 00 00 c0 2d 55 94 3f
       0.025735370814800262 0.019856180995702744
000400 b2 dd 34 5e d0 60 9a 3f 00 00 00 00 8a f0 9c bf
       0.025759940862568782 -0.02826133370399475
000410 00 00 00 80 fa fd 86 bf d3 5e f7 df 19 61 79 3f
       -0.011226613074541092 0.006196118425087343
000420 24 77 0c c1 3b 75 ae bf 5b bb 47 8b 0a bc 86 3f
       -0.05948816997100284 0.01110084760236212
000430 9d 30 46 0d 12 e1 8d bf 00 00 00 40 7f c0 8b 3f
       -0.01458944418916302 0.013550752773880959
000440 00 00 00 e0 4d 35 9a 3f b3 e9 30 b3 23 4c db bf
       0.025593964383006096 -0.42652218340995346
000450 3f bf d6 ed a1 b1 9d 3f 00 00 00 80 fd 37 8e 3f
       0.028997926847011298 0.014755230396986008
000460 68 81 dd 55 36 45 92 bf b7 32 66 9d a9 be a0 3f
       -0.01784214877204829 0.032704639877100865
000470 cd f4 b8 b4 ca 8c a7 bf 00 00 00 a0 cd cc 95 bf
       -0.04599603134236361 -0.021289074793457985
000480 ae d4 77 db 47 99 98 bf 00 00 00 c0 74 3c 5a bf
       -0.024022219438809493 -0.00160132790915668
000490 92 f7 f3 d6 6f 71 80 3f 00 00 00 40 94 01 83 bf
       0.008028863665909634 -0.009280355647206306
0004a0 ea 80 c3 08 42 5c ac bf 00 00 00 80 29 e7 6d bf
       -0.05539137227037989 -0.003650265745818615
0004b0 fb 76 f1 e8 53 e5 a1 3f 00 00 00 a0 90 ee 98 3f
       0.034952757058574556 0.02434755302965641
0004c0 00 00 00 80 c4 35 90 3f 70 c9 3e 42 43 47 7b 3f
       0.015830107033252716 0.006659758309910266
0004d0 a2 5e 96 04 43 38 85 3f 00 00 00 00 a0 f6 98 bf
       0.010361217095847867 -0.024378299713134766
0004e0 f4 a6 d0 32 26 a0 aa 3f 97 2d 87 a3 fb 22 9d bf
       0.05200309152890084 -0.028453761917075573
0004f0 00 00 00 20 cf be 8a bf a0 0b 57 c8 c5 a2 a2 bf
       -0.013059251941740513 -0.03639810629422091
000500 00 00 00 a0 68 c7 97 3f 00 00 00 e0 cf 34 4e bf
       0.02322162128984928 -0.0009218230261467397
000510 00 00 00 00 17 80 8d bf d2 5a 06 37 28 b5 7e 3f
       -0.01440446823835373 0.007496983613598034
000520 b2 c6 7e ad 13 bc 97 bf 00 00 00 a0 87 25 81 bf
       -0.02317839380675108 -0.00837236363440752
000530 d4 ef a2 25 9c 3e a9 3f 35 ec 13 f1 fa 23 1b 3f
       0.04930580100469198 0.00010353297354363871
000540 00 00 00 c0 ab 34 6b bf 00 00 00 c0 78 ca 93 3f
       -0.003321013879030943 0.019327055662870407
000550 a6 cd 0f 23 b4 36 92 bf 30 01 0d 18 31 b9 8a bf
       -0.017786802902220032 -0.013048537775489949
000560 c6 cb 39 47 3b 40 b9 3f 00 00 00 00 40 c6 79 3f
       0.0986363457575826 0.006292581558227539
000570 00 00 00 c0 c9 f8 74 bf 8b 27 c0 d2 cb f7 92 3f
       -0.005120075307786465 0.018523392427631385
000580 84 79 92 86 20 a7 95 3f ba 8a 12 df af de d0 bf
       0.021145351613648625 -0.26359173569123195
000590 2a d3 e8 74 4e 05 89 bf 00 00 00 80 12 2c 75 bf
       -0.012217152540964078 -0.0051689837127923965
0005a0 00 00 00 60 22 84 87 3f 00 00 00 c0 28 89 70 bf
       0.01148249488323927 -0.004037055186927319
0005b0 2b 87 18 f7 10 6a 95 3f 00 00 00 20 25 68 9a bf
       0.02091242321160462 -0.02578790672123432
0005c0 00 00 00 40 66 c6 8f bf 00 00 00 60 95 af 98 3f
       -0.01551513560116291 0.024107297882437706
0005d0 00 00 00 80 14 fe 70 3f 47 63 92 57 44 27 82 3f
       0.004148559644818306 0.008863958284835894
0005e0 10 0b c9 3c 3c 69 8a 3f 00 00 00 e0 37 9b 7e bf
       0.012896032910366922 -0.007472246419638395
0005f0 a2 8f a8 fe d7 d2 83 bf 6c 4f d8 16 78 a3 87 3f
       -0.009679496249255074 0.011542261311695966
000600 54 a7 95 7c e8 67 91 bf c4 bd 66 ed 2a 06 85 bf
       -0.016997940639533596 -0.010265670175470094
000610 00 00 00 80 df 1c 71 3f 00 00 00 20 84 54 7f 3f
       0.004177926108241081 0.007648960221558809
000620 cc da ba d9 f3 89 24 bf 00 00 00 80 4c e6 95 bf
       -0.00015669919672741393 -0.02138633280992508
000630 ba ce 4a 39 14 cd b1 bf 00 00 00 40 03 5a 92 bf
       -0.06953550719009174 -0.01792149618268013
000640 f6 11 87 1c 04 7a 93 3f 53 60 99 5e 9d ac 92 bf
       0.01902014183157693 -0.018236597918388785
000650 d5 09 5a 3d bd 64 9c 3f 00 00 00 80 65 cb 89 3f
       0.027728039617167816 0.012594979256391525
000660 00 00 00 00 a1 ba 9b bf 94 7b a9 c5 e6 74 9d 3f
       -0.02707912027835846 0.028766256155332195
000670 00 00 00 a0 00 03 a0 bf dd 6f 47 bf cb 33 48 3f
       -0.03127290681004524 0.0007385964259429796
000680 4f 27 dd 27 54 ad 95 bf 00 00 00 20 71 db 9b bf
       -0.02116900914487668 -0.02720429189503193
000690 00 00 00 20 c3 aa 69 3f 00 00 00 00 b0 66 8f bf
       0.003133183578029275 -0.015332579612731934
0006a0 fd f1 64 1a f2 d7 99 3f 00 00 00 80 a1 74 99 bf
       0.025237830029469766 -0.024858973920345306
0006b0 00 00 00 40 a8 e0 9a 3f 00 00 00 e0 29 89 93 3f
       0.026247624307870865 0.019077925011515617
0006c0 f7 9b dd 63 09 ec a6 3f 7d ca 37 67 f5 cf b1 bf
       0.044769566956169564 -0.06957944650620536
0006d0 34 e9 66 54 52 31 a6 3f 40 52 f4 2f 52 29 a9 bf
       0.043345043948152556 -0.049143379548841626
0006e0 b5 f7 54 62 3f 7a 9d 3f 22 53 83 3c dd ab 8a bf
       0.02878665006323163 -0.01302311745568258
0006f0 85 1f cb 17 67 b1 93 3f 6b a6 40 86 69 b6 51 bf
       0.019231425120579643 -0.001081088114924712
000700 00 00 00 20 94 48 76 3f 71 2f 72 2a fb bc 97 bf
       0.00544031010940671 -0.02318184324808165
000710 00 00 00 c0 53 1c 9a 3f c9 65 0c e6 01 d5 94 bf
       0.025498684495687485 -0.020343808809320216
000720 c2 1d 69 a2 1e 27 a1 3f 00 00 00 20 46 57 89 bf
       0.03350158436347385 -0.012373493053019047
000730 bd 6c 36 b3 15 2b 87 bf cb 64 13 eb 1b 4b 5b bf
       -0.011312646419176503 -0.0016658566130927528
000740 00 00 00 a0 c9 2a 83 3f e3 df 36 8f 71 a6 70 3f
       0.00935895461589098 0.004064982978370299
000750 19 c3 91 22 14 81 9d bf 00 00 00 c0 da c6 96 3f
       -0.028812708482692437 0.022242944687604904
000760 d9 0d e6 9a 30 45 a1 3f cd be c0 30 2c 2a ae 3f
       0.03373100176670691 0.05891550154808343
000770 d4 09 06 cb 98 15 a1 3f 00 00 00 80 bb a6 81 3f
       0.03336789587321545 0.008618798106908798
000780 00 00 00 40 a4 4c 64 bf 2e d1 e7 39 e1 fe 96 bf
       -0.0024779518134891987 -0.022456664237283146
000790 2c ae 77 c8 f6 ce 98 bf 00 00 00 80 72 4b 96 bf
       -0.024227004991116782 -0.02177218347787857
0007a0 00 00 00 00 96 6e 80 bf 00 00 00 80 29 db 92 3f
       -0.008023425936698914 0.01841416209936142
0007b0 f6 3e 41 05 f9 9e 70 bf 00 00 00 00 76 1f 54 bf
       -0.004057858215744883 -0.001228203997015953
0007c0 52 63 c0 3f ca 41 61 3f 00 00 00 c0 d0 2a 95 bf
       0.0021065664459566725 -0.020671140402555466
0007d0 e6 04 ab 27 3b 91 53 3f 94 4e c4 c7 7c ed a0 3f
       0.0011942937550631304 0.03306188524780143
0007e0 f7 da 43 a4 e1 62 9c 3f 00 00 00 40 9c a9 98 3f
       0.02772095265478477 0.024084512144327164
0007f0 cd 5d 5f 78 f2 a6 77 3f b5 06 f3 14 65 8e 65 3f
       0.0057744475834264454 0.0026313757185512884

fc.1.bias f8 [1]
000000 43 88 09 ad 02 6f 74 bf
       -0.004988680317724872
