model/FBDBIndexTask_3_00000-1_600.pth (torch, 3031 bytes, 3 tensors)

fc.0.weight f4 [100, 1]
00000000: ddd0 813d 870e 173f 16b3 52bf 8066 3cbf
00000010: f432 c5be faa1 a53e 404f a2bc 13b2 663f
00000020: 70bf b5bd 90b3 aa3e acbb 9abe c39c 5fbe
00000030: b891 74bf 11a3 32bf 82a4 b4be 00bb 173d
00000040: dcb3 b73e 0eb6 103f 7cce 3abf 2876 eabe
00000050: 1ab5 d83e cf1a 623f 48bd 52be c931 543f
00000060: 400d 25be 10b5 d83d 78f9 5d3f ce7b 6dbf
00000070: 6629 21bf e09e 81be dc93 c7be efd7 6a3f
00000080: 1aef 25bf c0b0 ebbe 708d 26bf 76c2 6fbf
00000090: d66d 1abf 3f44 523f ed9a d33e 1c24 0b3f
000000a0: a732 df3d 1b38 edbe d869 0d3e 9e06 6fbf
000000b0: 1afa 38bf c6f9 03bf ce1f 2f3f e4d5 0b3f
000000c0: c811 e3be 20cb 13bd 40ba 233f 1e46 8e3f
000000d0: b7ce e83e b32d da3d 76d1 213f c0bb 16bf
000000e0: 1e9f 123e 6c7a 46bf 186e 31bf d23e 04bf
000000f0: b0ec d33e 78ad ec3e 6aa4 17bf c8ad 9a3e
00000100: 0736 1d3f b5c3 6dbe 4064 1c3d 0ea7 943e
00000110: 00d1 1e3f 692d 833f 76f1 50bf eca1 bbbe
00000120: 8455 b33e 1f54 643f e8c5 5e3f 5134 573f
00000130: a43f 873e f89c 5ebf 8593 e83d ac27 20bf
00000140: 07d3 2bbf a3de 593f 7a18 383f 12f7 87bf
00000150: 9b31 803e a51e f1bd b882 28be 1c5f eabe
00000160: 8ce4 c43e 5b0a 22bf 796f a73e 5a3b 103f
00000170: a29f 623f 6300 ec3e 4a5f 7dbf 0011 26bf
00000180: 38a6 ff3e af3b 2c3e 96b3 47bf e868 13bf
0.06338666 0.5900654 -0.82304513 -0.735939 -0.38515437 0.3235014 -0.01981318 0.9011547
-0.088744044 0.3334012 -0.30221307 -0.21837144 -0.9553485 -0.6978007 -0.3528176 0.03704357
0.3587941 0.56527793 -0.7297132 -0.4579327 0.4232567 0.88322157 -0.20580018 0.82888466
-0.16118336 0.1058141 0.86708784 -0.92767036 -0.62953794 -0.25316525 -0.38979995 0.9173574
-0.64817965 -0.46033287 -0.65059566 -0.936561 -0.60323846 0.82135385 0.41329136 0.54351974
0.10898333 -0.46331868 0.13809907 -0.9336947 -0.72256625 -0.51553 0.68407905 0.54623246
-0.44349504 -0.036082387 0.6395607 1.1115148 0.4547021 0.10653248 0.6321024 -0.58880234
0.14318511 -0.7753055 -0.69308615 -0.51658356 0.41391516 0.46226096 -0.5923525 0.3021071
0.61410564 -0.23219188 0.038181543 0.29033703 0.6203766 1.0248233 -0.8161844 -0.36646974
0.3502618 0.8919086 0.8702073 0.84064204 0.2641574 -0.86958265 0.11356262 -0.62560534
-0.6711888 0.8510534 0.7191235 -1.0622275 0.25037846 -0.11773423 -0.16456115 -0.45775688
0.38455617 -0.6329705 0.32702234 0.56340563 0.8852483 0.46094045 -0.98973525 -0.6486969
0.49931502 0.16819642 -0.780084 -0.5758195

fc.0.bias f4 [100]
00000000: 1509 753f c59c 313f b03e dfbe d4dc 80be
00000010: 78dd 73bf ff9a b53a 78c8 40bf cc7b 26bf
00000020: 20b0 61bd 196c 2a3e f4ad d1be b3d9 113f
00000030: 38c9 1bbf 6e15 633f 03de 323f 64e1 57bf
00000040: 87f3 91be 3bd3 ac3c fa55 dd3d 3608 983e
00000050: 126a bc3e 6a9a a33d ccd1 f9be f7dc f83e
00000060: 5691 75bf a0bb 17bf 78da 91be ec66 f9be
00000070: 5c1d b3be bad2 51bf 00d2 59be 3045 6f3e
00000080: 76c6 26bf 4034 52bd 7ee6 3c3f f088 d2bd
00000090: 524b 32ba 8b7e f5bd 5a82 363e a29a 273f
000000a0: fd83 773f ae0c 283f 1cf2 6c3f 601d 94bd
000000b0: 66f8 65bf 40ba f2be fb72 333f c5d2 25bd
000000c0: dc7c febe 022d 44bf 0094 6fbf 671a 36bf
000000d0: ab4c 1ebe fa2e 063f 2b83 043f 02e5 76bf
000000e0: 000f 1a3f 8a52 48bf f07b 58be 1c9a cfbe
000000f0: da32 6cbe 5de6 15be bab8 65bf 440a 5dbf
00000100: 66ee b7bd 4f72 2a3e b896 e8be 6d90 ca3e
00000110: 3a6a 66bf 3492 a1bc b1ff 5b3f 38d7 d0be
00000120: 6a83 613f 0e70 c23e ae07 67bf f83c 1c3f
00000130: 3262 31bd 708f e4be eb9f 453f 54df 4ebf
00000140: 70bc b93e 8d83 78be 6f10 313f 4557 683e
00000150: 2e3d ff3e 117b bf3e 003f 76be 505a 57be
00000160: 00f7 52bf 2afe 083f 9775 453f 770e 343f
00000170: 1a59 02bf a56a 233d 9076 34bf 88ec 0cbf
00000180: 302c 15bf c380 a33e c48d 18bf 00ba b2bc
0.95716983 0.69379836 -0.43602514 -0.25168478 -0.9525981 0.0013855397 -0.7530589 -0.6503265
-0.055099607 0.16642798 -0.40953028 0.5697281 -0.6085391 0.88704574 0.69870013 -0.84328294
-0.2850611 0.021096816 0.10807414 0.29693764 0.36799675 0.079884365 -0.48792875 0.48606083
-0.9592489 -0.5927067 -0.2848699 -0.48711336 -0.34983337 -0.8196217 -0.21271515 0.23366237
-0.6514658 -0.05131936 0.73789203 -0.10280025 -0.0006801385 -0.11987027 0.17823163 0.65470326
0.96685773 0.6564435 0.9255693 -0.07232165 -0.8983215 -0.47407722 0.7009732 -0.04048421
-0.49704635 -0.76631176 -0.93585205 -0.71134037 -0.15458934 0.5241543 0.51762646 -0.9644319
0.6017914 -0.78250945 -0.21141028 -0.40547264 -0.23066273 -0.14638658 -0.89734995 -0.8634379
-0.08981018 0.16645168 -0.4542749 0.39563313 -0.9000584 -0.019723035 0.8593703 -0.407892
0.88091147 0.37976116 -0.90246093 0.6103053 -0.043306537 -0.44640684 0.7719714 -0.8080952
0.3627658 -0.24268933 0.691657 0.2268954 0.49851364 0.3739858 -0.2404747 -0.21030545
-0.8240814 0.53512824 0.7713255 0.7033457 -0.5091721 0.039896626 -0.7049341 -0.5504842
-0.5827055 0.31934175 -0.5959132 -0.021817207

fc.1.weight f4 [1, 100]
00000000: fe88 d43c 740e c33d fbcf 9abd 0399 8cbd
00000010: c7d6 6dbd 553e f83d a33c 13bd f306 083e
00000020: 4d1d 143d 1e81 4a3d 0024 43ba df90 dcbb
00000030: 6790 4d3c 80a8 d8bc 2762 a23b 670c 513c
00000040: 7f98 35bd 1ed7 fbbb 2516 8abd 1731 36be
00000050: 78e0 c93c 90c9 133e 73f6 133d dc54 1c3d
00000060: 527b b1bd 23e8 4a3d 714e a5bc a78a e8bc
00000070: 706d 09bd 5aa0 72bc cd5e 8f3a 23a5 fc3d
00000080: 3389 4c3c 1a70 b73d 781f 303d 387a 81bd
00000090: aea8 953c 1da4 bcbc 9982 bdbb 53bf 753d
000000a0: 451c 643d 35df 8f3d f249 0bbc cddc 2739
000000b0: 2adf 523d 7b0f c6bd 96f1 d43d 4816 14bd
000000c0: 67a6 b43a 1a47 8bbc aab9 57bd 9207 913d
000000d0: dcd5 193e 5009 9dbb dd8b d8bc 6a7c 17bd
000000e0: 6aaa 97bd 17e4 383d 4db7 44bd daab 88bd
000000f0: 2ffd 4dbc a76f fc3d d3e9 583d 4030 9d3d
00000100: 522b bc3d 164b 74be 87ec e4bc bdcd 723d
00000110: 4b5a a83d fefd 9e3d 7d85 7cbd 308b 40bd
00000120: c7ad 8abd 7ea3 723d 40dc 65bd c1e9 62bd
00000130: b26b 283e daff 84bd bdd3 3f3c 0db2 ea3c
00000140: 3ba4 6dbe f772 8ebc 7e24 48bd 43a4 55bd
00000150: 7242 333d 60de c13d 8750 09bd c04c f13c
00000160: e054 bbbc 9230 22bd 617d 0abd 6f76 833d
00000170: 3f0c 093e 637f 313d 673d b8bc 5a7d 7cbd
00000180: dda0 8d3d 2098 3dbd 8acc 273d bdba 09bd
0.02594423 0.09524241 -0.075592004 -0.06865122 -0.058066156 0.12121264 -0.0359465 0.13283901
0.036160756 0.049439542 -0.0007444024 -0.006731137 0.012546635 -0.026447535 0.0049555483 0.012759305
-0.044334885 -0.007685556 -0.06742505 -0.17792164 0.024643168 0.14432359 0.036123704 0.038166866
-0.086660996 0.04953779 -0.020179005 -0.028386427 -0.033551633 -0.014808739 0.0010938287 0.12336185
0.012483883 0.089569286 0.04299876 -0.063221395 0.01826891 -0.023027474 -0.0057833907 0.059996914
0.055691022 0.07024995 -0.008501517 0.00016008616 0.051482357 -0.096709214 0.10397641 -0.03615406
0.0013782502 -0.017001677 -0.052667297 0.07081522 0.15022987 -0.00479237 -0.02643388 -0.036983885
-0.07405551 0.0451394 -0.04802637 -0.06673403 -0.012572571 0.123259835 0.052957367 0.076752186
0.0918795 -0.23856768 -0.027944816 0.05927824 0.08220347 0.07763289 -0.06165074 -0.04700774
-0.06771427 0.05923795 -0.05611825 -0.055398706 0.16447333 -0.06494112 0.011708197 0.028649354
-0.2320718 -0.017388804 -0.048862927 -0.052158605 0.04376454 0.09466243 -0.033524062 0.029455543
-0.02286762 -0.0395971 -0.033810977 0.06419074 0.13383578 0.043334376 -0.022490216 -0.061642982
0.06915448 -0.046287656 0.040966548 -0.033625353
