model/FBDBIndexTask_4_00000-1_400.pth (torch, 4183 bytes, 4 tensors)

fc.0.weight f8 [100, 1]
000000 64 4a 26 42 91 94 af bf 9f 5b c3 85 71 8f e0 3f
       -0.061680354428195 0.5175101864395976
000010 00 00 00 c0 62 56 ea bf 00 00 00 00 d0 8c e7 bf
       -0.8230451345443726 -0.7359390258789062
000020 00 00 00 80 5e a6 d8 bf db 14 90 74 fb 01 d3 3f
       -0.3851543664932251 0.29699598677718847
000030 00 00 00 00 e8 49 94 bf 3a b6 6a 5f 68 58 ef 3f
       -0.019813179969787598 0.979541956292173
000040 00 00 00 00 ee b7 b6 bf d9 b7 81 b3 7a 12 c9 3f
       -0.08874404430389404 0.19587644352890157
000050 00 00 00 80 75 57 d3 bf 5f cd ef 9c 0e 94 d7 bf
       -0.30221307277679443 -0.3684116871438245
000060 00 00 00 00 37 92 ee bf eb 17 41 18 25 82 ea bf
       -0.9553484916687012 -0.8283868287769541
000070 01 15 7e 77 66 c7 dd bf 00 00 00 00 60 f7 a2 3f
       -0.46529542607488855 0.03704357147216797
000080 e5 c4 93 8d d5 c3 e2 3f 40 44 f0 4d 75 00 e2 3f
       0.5864055409603252 0.5625559351193559
000090 82 60 f7 3a 68 b5 e9 bf 62 76 87 0b 11 1e e4 bf
       -0.8033944274602762 -0.628670237081405
0000a0 d8 5d a8 43 c5 a0 89 bf a2 04 c2 f2 67 16 ea 3f
       -0.012513676764725298 0.8152351132740885
0000b0 00 00 00 00 a9 57 ca bf 3f 22 e8 ab df ba e4 3f
       -0.20580017566680908 0.6478117330125953
0000c0 00 00 00 00 a8 a1 c4 bf 00 00 00 00 a2 16 bb 3f
       -0.16118335723876953 0.10581409931182861
0000d0 e9 75 43 1d 10 70 ee 3f 00 00 00 c0 79 af ed bf
       0.951179558902081 -0.9276703596115112
0000e0 00 00 00 c0 2c 25 e4 bf 00 00 00 00 dc 33 d0 bf
       -0.6295379400253296 -0.25316524505615234
0000f0 00 00 00 80 7b f2 d8 bf 0c d1 49 b4 9f 19 eb 3f
       -0.38979995250701904 0.8468779107338675
000100 00 00 00 40 e3 bd e4 bf 00 00 00 00 18 76 dd bf
       -0.6481796503067017 -0.46033287048339844
000110 89 1b d7 de f0 c9 e6 bf 00 00 00 c0 4e f8 ed bf
       -0.7121509888028054 -0.9365609884262085
000120 13 03 12 96 d4 53 e3 bf cf 4c 87 c6 4c c4 ea 3f
       -0.6039832049428661 0.8364623906622003
000130 16 cb 81 81 96 9d d8 3f 54 a1 a8 c1 f3 e9 dc 3f
       0.38461840293091265 0.45177930747970163
000140 66 4b 95 e6 77 0c 9a 3f 3f b0 e5 8b 6c d2 e0 bf
       0.025438188027077223 -0.5256865246169652
000150 d0 27 33 ff 21 9d ce bf 00 00 00 c0 d3 e0 ed bf
       -0.23917031250885978 -0.9336947202682495
000160 00 00 00 40 43 1f e7 bf 00 00 00 c0 38 7f e0 bf
       -0.7225662469863892 -0.515529990196228
000170 7d 4e 37 b6 d0 a1 e3 3f d4 ab 7a 6a 6d f9 e5 3f
       0.6135028418452318 0.6866976813956804
000180 00 00 00 00 39 62 dc bf 00 00 00 00 64 79 a2 bf
       -0.4434950351715088 -0.03608238697052002
000190 00 00 00 00 48 77 e4 3f 33 ab 51 da 1e 41 f2 3f
       0.6395606994628906 1.140898564156214
0001a0 88 5a c9 57 42 19 e3 3f cf ec 03 70 0c 65 d3 bf
       0.5968333925801099 -0.30304251612660676
0001b0 de c2 8b 5a 48 36 e4 3f 00 00 00 00 78 d7 e2 bf
       0.6316262978053506 -0.5888023376464844
0001c0 ba a8 ac 3c b3 24 c5 3f 00 00 00 80 4d cf e8 bf
       0.16518249952907188 -0.7753055095672607
0001d0 00 00 00 00 c3 2d e6 bf 00 00 00 40 da 87 e0 bf
       -0.6930861473083496 -0.5165835618972778
0001e0 b8 65 83 38 fc b5 e0 3f 2e 43 6f 97 d4 63 e3 3f
       0.522214994790537 0.6059363324839973
0001f0 00 00 00 40 8d f4 e2 bf 00 00 00 00 b9 55 d3 3f
       -0.5923525094985962 0.3021070957183838
000200 ba 35 01 bf 3e 0b ed 3f 5c 2d 0b 5d 9b d0 dd bf
       0.907622693115335 -0.46585735403342254
000210 00 00 00 00 88 8c a3 3f 85 a9 0e 80 9e 74 c9 3f
       0.03818154335021973 0.19887143376156416
000220 00 00 00 00 20 da e3 3f 37 61 4b af fa 6b f1 3f
       0.6203765869140625 1.0888621184768235
000230 fb 8d 9c 03 21 97 f0 bf 00 00 00 80 3d 74 d7 bf
       -1.0368967190814817 -0.36646974086761475
000240 86 7f b3 f2 29 be d7 3f fa e8 89 01 ea 04 e9 3f
       0.37098168088231664 0.7818498640110925
000250 00 00 00 00 bd d8 eb 3f d6 14 81 34 88 86 eb 3f
       0.8702073097229004 0.8601723695252541
000260 38 60 ed 05 c5 c7 e1 3f 00 00 00 00 9f d3 eb bf
       0.5556359401480284 -0.8695826530456543
000270 82 a3 42 81 57 e4 ca bf 00 00 00 80 f5 04 e4 bf
       -0.21009343921221207 -0.6256053447723389
000280 6a ab 3c cd 68 fb f7 bf 3d 65 c7 82 d6 3b ed 3f
       -1.498879243571276 0.9135544351840178
000290 54 6a 23 17 ba 82 e7 3f 21 b6 3b 45 0c 39 f3 bf
       0.7347078754349448 -1.2014277176307433
0002a0 63 e1 d8 d5 67 6a c2 3f a2 c9 e0 c6 43 4e c7 bf
       0.1438722414184311 -0.1820759507259711
0002b0 00 00 00 00 57 10 c5 bf 00 00 00 80 e3 4b dd bf
       -0.16456115245819092 -0.4577568769454956
0002c0 00 00 00 80 91 9c d8 3f c6 25 4a 53 c5 fb e9 bf
       0.3845561742782593 -0.8119837404967079
0002d0 ca 66 11 46 95 cb d4 3f 97 12 54 e0 d3 72 de 3f
       0.3249257263429227 0.47575852305480154
0002e0 f9 2a 08 71 86 1c ed 3f 2a 6d dc 30 74 7e d4 3f
       0.9097320754675301 0.320218131748066
0002f0 00 00 00 40 e9 ab ef bf 00 00 00 00 20 c2 e4 bf
       -0.9897352457046509 -0.6486968994140625
000300 00 00 00 00 c7 f4 df 3f 65 36 62 12 13 d8 c6 3f
       0.4993150234222412 0.1784690704120521
000310 00 00 00 c0 72 f6 e8 bf 00 00 00 00 1d 6d e2 bf
       -0.7800840139389038 -0.5758194923400879

fc.0.bias f8 [100]
000000 46 8e e6 84 a6 ab ec 3f b9 ca 26 40 03 61 e5 3f
       0.8959534259524353 0.6680923703155123
000010 00 00 00 00 d6 e7 db bf 00 00 00 80 9a 1b d0 bf
       -0.43602514266967773 -0.2516847848892212
000020 00 00 00 00 af 7b ee bf 84 53 92 c1 91 6f 88 bf
       -0.9525980949401855 -0.011931551666103386
000030 00 00 00 00 0f 19 e8 bf bf ee ac 38 3b 49 e6 bf
       -0.753058910369873 -0.6964393717712126
000040 00 00 00 00 04 36 ac bf c7 68 3f 9d 2f 22 b8 3f
       -0.05509960651397705 0.09427163685851091
000050 00 00 00 80 be 35 da bf 45 a3 85 d2 b2 7b d7 3f
       -0.40953028202056885 0.36692495878974213
000060 00 00 00 00 27 79 e3 bf 4f df f0 7c d0 11 e9 3f
       -0.6085391044616699 0.7834246101619814
000070 d3 f0 05 99 de 6b e4 3f 00 00 00 80 2c fc ea bf
       0.6381676663145534 -0.84328293800354
000080 2b 85 1c fc 06 b7 df bf 7c 4a d1 fa eb e7 1f 3f
       -0.49554609890226925 0.00012171151929977504
000090 71 42 7d 42 42 46 c3 3f 04 9e 35 81 09 ba d9 3f
       0.15058162924335108 0.40197980516538245
0000a0 59 b3 c0 4f 6a 0c 7e 3f c2 d0 79 c8 41 e6 ad 3f
       0.007336058883123575 0.05839734623160232
0000b0 00 00 00 80 39 3a df bf da 6f df 42 5d 7c d8 3f
       -0.48792874813079834 0.38259059458300515
0000c0 00 00 00 c0 2a b2 ee bf 00 00 00 00 74 f7 e2 bf
       -0.9592489004135132 -0.5927066802978516
0000d0 9a 9f 72 f4 67 d5 d2 bf 00 00 00 80 dd 2c df bf
       -0.2942752730546033 -0.487113356590271
0000e0 00 00 00 80 ab 63 d6 bf 00 00 00 40 57 3a ea bf
       -0.3498333692550659 -0.8196216821670532
0000f0 00 00 00 00 40 3a cb bf d0 73 b1 34 ba e7 ca 3f
       -0.21271514892578125 0.2101967580119024
000100 00 00 00 c0 ce d8 e4 bf 00 00 00 00 88 46 aa bf
       -0.6514657735824585 -0.05131936073303223
000110 e0 f7 e8 13 9c d7 e6 3f 00 00 00 00 1e 51 ba bf
       0.7138195408695047 -0.10280025005340576
000120 ef b2 8f 27 7c 6d 4a bf 15 c4 c1 59 c1 10 c4 bf
       -0.0008065086577722906 -0.15676133043919607
000130 13 ce bd 94 d7 29 c1 3f e8 72 ed e3 b3 b6 e3 3f
       0.13408941996350218 0.616052575274435
000140 d9 7d 24 1a cd d9 ed 3f 1c a8 24 d4 a0 4a e4 3f
       0.9328370581242168 0.6341098922177966
000150 6c db 78 fb 3c 5a e0 3f 00 00 00 00 ac 83 b2 bf
       0.5110154067577759 -0.07232165336608887
000160 00 00 00 c0 0c bf ec bf 00 00 00 00 48 57 de bf
       -0.8983215093612671 -0.4740772247314453
000170 99 a2 bc 74 78 a7 e5 3f 8c ef 28 66 3c 57 ae bf
       0.676693180085823 -0.05925930735654025
000180 00 00 00 80 9b cf df bf 00 00 00 40 a0 85 e8 bf
       -0.4970463514328003 -0.766311764717102
000190 00 00 00 00 80 f2 ed bf b2 75 69 fb 5d f5 e9 bf
       -0.93585205078125 -0.811202040709466
0001a0 4c f9 2a 1d ec 5b cc bf 0e b4 21 30 80 57 d2 3f
       -0.22155524658405523 0.2865906209979706
0001b0 f3 ac a9 65 41 7d df 3f 00 00 00 40 a0 dc ee bf
       0.4920199864197478 -0.964431881904602
0001c0 11 a4 66 11 11 e9 e2 3f 00 00 00 40 51 0a e9 bf
       0.5909505214559677 -0.782509446144104
0001d0 00 00 00 00 7e 0f cb bf 00 00 00 80 43 f3 d9 bf
       -0.2114102840423584 -0.40547263622283936
0001e0 d5 a6 c8 06 b0 4c d6 bf af 88 cb 63 b3 ca cc bf
       -0.3484306398628239 -0.22493593571477308
0001f0 00 00 00 40 17 b7 ec bf 00 00 00 80 48 a1 eb bf
       -0.8973499536514282 -0.8634378910064697
000200 41 ff c1 e9 46 7b c1 bf 12 36 8b 29 ad 0c d3 3f
       -0.13657461561160214 0.29764870697985757
000210 00 00 00 00 d7 12 dd bf 04 f7 29 93 44 d6 d6 3f
       -0.45427489280700684 0.3568278729579648
000220 00 00 00 40 47 cd ec bf 76 17 d3 85 c1 6a a6 bf
       -0.900058388710022 -0.043783233247764494
000230 4b 1e 76 a3 ca 61 ef 3f 00 00 00 00 e7 1a da bf
       0.9806874458890403 -0.40789198875427246
000240 15 7d d1 cd 86 d2 eb 3f ba 91 d2 17 6c 0f d5 3f
       0.869449045170685 0.32906629873675863
000250 00 00 00 c0 f5 e0 ec bf 01 a5 fa 17 ae 2e e3 3f
       -0.9024609327316284 0.5994482487050449
000260 8e 5f 70 88 82 69 b5 bf 00 00 00 00 ee 91 dc bf
       -0.08364120322255372 -0.44640684127807617
000270 4b eb c9 91 4f 23 e0 3f 00 00 00 80 ea db e9 bf
       0.5043104026256996 -0.8080952167510986
000280 3e e1 6f 05 45 fa d1 3f 33 4f 7c 14 30 52 d3 bf
       0.2809002450080874 -0.30189134598298323
000290 d9 b4 47 d3 59 ae e5 3f df 8d 52 c2 01 d1 cc 3f
       0.6775330664219396 0.22512838352586947
0002a0 a2 bb d7 01 c8 c2 dc 3f 29 b0 8f 41 4a 87 d6 3f
       0.44938850574447475 0.3520074501273052
0002b0 00 00 00 00 e0 c7 ce bf 00 00 00 00 4a eb ca bf
       -0.24047470092773438 -0.21030545234680176
0002c0 00 00 00 00 e0 5e ea bf 2f 3f f8 f5 b6 bf e5 3f
       -0.8240814208984375 0.6796526722045878
0002d0 99 a8 65 99 95 bd e7 3f 96 13 b3 fd 9f 5b e5 3f
       0.7418926235234437 0.6674346880978301
0002e0 b7 58 ba f6 56 82 de bf dd 8c 51 63 9f 64 8a bf
       -0.47670530409358086 -0.012887234896146566
0002f0 00 00 00 00 d2 8e e6 bf 00 00 00 00 91 9d e1 bf
       -0.7049341201782227 -0.5504841804504395
000300 00 00 00 00 86 a5 e2 bf 2e 17 c6 67 6f 33 d3 3f
       -0.5827054977416992 0.30001435407790467
000310 00 00 00 80 b8 11 e3 bf 00 00 00 00 40 57 96 bf
       -0.5959131717681885 -0.02181720733642578

fc.1.weight f8 [1, 100]
000000 9f 13 81 70 41 0d 8c 3f 8a 67 2f 0a a8 0c b2 3f
       0.01369715809426869 0.0705056214204928
000010 00 00 00 60 ff 59 b3 bf 00 00 00 60 20 93 b1 bf
       -0.07559200376272202 -0.0686512216925621
000020 00 00 00 e0 d8 ba ad bf 67 b7 5f 64 84 47 bb 3f
       -0.05806615576148033 0.10656001520666579
000030 00 00 00 60 94 67 a2 bf cd d1 b7 1f 62 ee e8 3f
       -0.035946499556303024 0.7790995234959667
000040 00 00 00 a0 a9 83 a2 3f fa 02 33 74 fe b8 86 3f
       0.03616075590252876 0.011095035477752802
000050 00 00 00 00 80 64 48 bf 15 25 5f e0 b0 24 87 bf
       -0.0007444024085998535 -0.011300451133041048
000060 00 00 00 e0 0c b2 89 3f c5 e8 bb 84 59 a3 aa 3f
       0.01254663523286581 0.05202750916755997
000070 32 2b 3c 11 6c 63 85 3f 00 00 00 e0 8c 21 8a 3f
       0.010443538928958416 0.012759304605424404
000080 8f bd 68 51 1c c4 f1 bf 39 de c1 5c ae 5a a6 bf
       -1.110378568653548 -0.04366059191027855
000090 61 c8 b9 17 15 81 c8 bf a8 e5 87 04 e3 89 df bf
       -0.191439282021352 -0.4927909416433871
0000a0 53 fc f5 16 61 57 30 3f 0e 03 f0 97 2a bd b8 3f
       0.0002493488345506934 0.09663644990360984
0000b0 00 00 00 60 ce 7e a2 3f 0d 72 b8 4d c6 c7 7b 3f
       0.03612370416522026 0.006782316802425925
0000c0 00 00 00 40 6a 2f b6 bf 00 00 00 60 04 5d a9 3f
       -0.08666099607944489 0.049537789076566696
0000d0 b6 f5 2c 76 f7 76 c7 bf 00 00 00 e0 54 11 9d bf
       -0.18331807394308236 -0.028386427089571953
0000e0 00 00 00 00 ae 2d a1 bf 00 00 00 40 0b 54 8e bf
       -0.03355163335800171 -0.014808738604187965
0000f0 00 00 00 a0 d9 eb 51 3f ad 45 06 57 72 49 b5 3f
       0.0010938287014141679 0.0831519567930374
000100 00 00 00 60 26 91 89 3f 00 00 00 40 03 ee b6 3f
       0.01248388271778822 0.08956928551197052
000110 ce 12 88 e0 7b bb b3 3f 00 00 00 00 47 2f b0 bf
       0.07707952720381714 -0.06322139501571655
000120 95 19 dd 91 6c 27 93 3f 6e 7a d3 a3 cc e4 b3 bf
       0.018705078509151447 -0.07770995139751743
000130 50 3f ed 3a 34 01 9f bf a0 c3 20 6f 32 19 a2 3f
       -0.030278030487635832 0.03534848791640077
000140 91 8d 00 59 14 b9 a5 3f 84 01 38 35 12 b0 b6 3f
       0.04242766939594412 0.08862413214956716
000150 45 ee 64 df 97 5e 95 bf 00 00 00 a0 99 fb 24 3f
       -0.020868657121566398 0.00016008615784812719
000160 00 00 00 40 e5 5b aa 3f 00 00 00 60 ef c1 b8 bf
       0.05148235708475113 -0.09670921415090561
000170 3a 72 bb 8f 2b fd b3 3f 1d 0c d0 73 ec 1f cb bf
       0.07808182009780121 -0.2119117322436929
000180 00 00 00 e0 cc 94 56 3f 00 00 00 40 e3 68 91 bf
       0.0013782501919195056 -0.017001677304506302
000190 00 00 00 40 35 f7 aa bf 2e a2 cf 6b 8f 8e e0 3f
       -0.052667297422885895 0.5174023729023867
0001a0 3e a9 b6 1c 21 14 dd 3f 7d 18 38 1c a9 52 d6 3f
       0.45435359767965966 0.34879520183347507
0001b0 91 06 16 09 b2 3d a9 bf 00 00 00 40 8d ef a2 bf
       -0.04929882393754526 -0.03698388487100601
0001c0 eb 6b a6 34 8d ae b5 bf 00 00 00 e0 82 1c a7 3f
       -0.08469469581034132 0.04513939842581749
0001d0 00 00 00 a0 e9 96 a8 bf 00 00 00 40 7b 15 b1 bf
       -0.048026371747255325 -0.06673403084278107
0001e0 29 eb 21 11 a6 a5 e0 bf b6 c7 35 2d 2f d4 da 3f
       -0.5202207884425195 0.41920070090338457
0001f0 00 00 00 60 3a 1d ab 3f 00 00 00 00 08 a6 b3 3f
       0.05295736715197563 0.0767521858215332
000200 a4 31 79 4a d6 f2 dd 3f 9a e1 ef 82 00 c0 e4 bf
       0.4679465987471991 -0.6484377438892353
000210 00 00 00 e0 90 9d 9c bf 70 b2 83 ca 3e 4f a1 3f
       -0.027944816276431084 0.03380771848774067
000220 00 00 00 60 49 0b b5 3f f5 cd 28 c8 f6 3c c5 3f
       0.0822034701704979 0.16592297337920994
000230 4a b7 49 7b 0f 3c e1 3f 00 00 00 00 66 11 a8 bf
       0.5385816009490807 -0.047007739543914795
000240 a3 87 79 1a 9a 0a b5 bf 4b 33 c5 9d 04 e0 98 3f
       -0.08219302317004788 0.02429206097558571
000250 00 00 00 00 88 bb ac bf 4f 44 a5 94 f9 7f b4 bf
       -0.05611824989318848 -0.08007774237673114
000260 cc c7 e0 dd 1c 56 e1 3f 00 00 00 40 fb 9f b0 bf
       0.5417618115955007 -0.06494112312793732
000270 df c4 b1 23 9c 34 68 bf 00 00 00 a0 41 56 9d 3f
       -0.0029547738645808587 0.028649354353547096
000280 30 3a dc dc 45 e4 df bf 17 7d 3b 2b 67 f4 c6 bf
       -0.49830767219910665 -0.17933358775096828
000290 ac 89 73 f7 e1 26 b2 bf 3f 31 60 25 5c 1f c9 bf
       -0.07090580264369944 -0.1962695295809542
0002a0 ee 8f 18 03 60 83 96 3f 70 60 8e 53 ad de b6 3f
       0.02198553103347927 0.08933528222985543
0002b0 00 00 00 e0 10 2a a1 bf 00 00 00 00 98 29 9e 3f
       -0.03352406248450279 0.02945554256439209
0002c0 00 00 00 00 9c 6a 97 bf 8d 00 be b5 fd 84 c8 bf
       -0.02286761999130249 -0.19155856489306125
0002d0 99 83 2f 0d 56 c5 a8 bf 64 7c 2a e4 0f 7c a4 3f
       -0.048380555257387665 0.04000901851872454
0002e0 f2 fc 54 f4 c9 e6 c1 3f 89 2c 0f d0 bb e1 ad 3f
       0.1398556178118962 0.05836283602510501
0002f0 00 00 00 e0 ac 07 97 bf 00 00 00 40 ab 8f af bf
       -0.02249021641910076 -0.06164298206567764
000300 00 00 00 a0 1b b4 b1 3f 8f 1c e1 04 3a 49 ae bf
       0.06915447860956192 -0.05915242490350991
000310 00 00 00 40 91 f9 a4 3f 00 00 00 a0 57 37 a1 bf
       0.04096654802560806 -0.03362535312771797

fc.1.bias f8 [1]
000000 1a 26 6e cb 30 3a a2 bf
       -0.03560020907668733
