model/FBDBIndexTask_5_11100-1_10.pth (torch, 4177 bytes, 4 tensors)

fc.0.weight f8 [100, 1]
0.05826786038834254 0.5928657943631053 -0.8230451345443726 -0.7359390258789062 -0.3851543664932251 0.3112372760347692 -0.019813179969787598 0.9903047495759213
-0.08874404430389404 0.33778342231416747 -0.30221307277679443 -0.24088115172584879 -0.9553484916687012 -0.7249674662331425 -0.3913747602901892 0.03704357147216797
0.32463652069983107 0.5643635671052638 -0.5828366503542385 -0.3094260565623128 0.42040556387548333 0.8871943031431936 -0.20580017566680908 0.8335690758622735
-0.16118335723876953 0.10581409931182861 0.8643879559606006 -0.9276703596115112 -0.6295379400253296 -0.25316524505615234 -0.38979995250701904 0.9211899329278785
-0.6481796503067017 -0.46033287048339844 -0.6555476289609501 -0.9365609884262085 -0.5537427158373182 0.8207868632067111 0.4111946852139831 0.5460309992540867
0.10927554854480022 -0.46574580532534454 0.13025637439521287 -0.9336947202682495 -0.7225662469863892 -0.515529990196228 0.6870281619037748 0.5450100277382001
-0.4434950351715088 -0.03608238697052002 0.6395606994628906 1.2401333891475683 0.47710453164599304 0.09855441256674669 0.6289425300764637 -0.5888023376464844
0.13906825049456964 -0.7753055095672607 -0.6930861473083496 -0.5165835618972778 0.4331190557269636 0.4867758163060855 -0.5923525094985962 0.3021070957183838
0.5986373126780137 -0.10094418159671896 0.03818154335021973 0.2925406809757687 0.6203765869140625 1.0298944503083782 -0.8305839625342487 -0.36646974086761475
0.3463226633440765 0.8962912539320158 0.8702073097229004 0.8376049175560685 0.2906114315346962 -0.8695826530456543 0.09254430972424789 -0.6256053447723389
-0.7609538714646648 0.8484029936600932 0.7158364047271948 -0.8450614259202635 0.2512907014659116 -0.11773046178041152 -0.16456115245819092 -0.4577568769454956
0.3845561742782593 -0.5873499675597355 0.32260374655265295 0.56591893354737 0.9585859297046307 0.4671501328989261 -0.9897352457046509 -0.6486968994140625
0.4993150234222412 0.16430279413640014 -0.7800840139389038 -0.5758194923400879
00000000: f238 8df5 48d5 ad3f 749c b6af c1f8 e23f
00000010: 0000 00c0 6256 eabf 0000 0000 d08c e7bf
00000020: 0000 0080 5ea6 d8bf ab63 77c0 4feb d33f
00000030: 0000 0000 e849 94bf cf10 1096 93b0 ef3f
00000040: 0000 0000 eeb7 b6bf 7e19 fe5b 3e9e d53f
00000050: 0000 0080 7557 d3bf a452 718e 31d5 cebf
00000060: 0000 0000 3792 eebf a254 c4f8 ee32 e7bf
00000070: e546 fbb8 480c d9bf 0000 0000 60f7 a23f
00000080: 568d df41 d8c6 d43f 1cac f82e 440f e23f
00000090: 01d0 050c 99a6 e2bf c8c8 5df2 a2cd d3bf
000000a0: 78b4 f9bc ece7 da3f 2352 a64e e563 ec3f
000000b0: 0000 0000 a957 cabf 0f22 f90d 99ac ea3f
000000c0: 0000 0000 a8a1 c4bf 0000 0000 a216 bb3f
000000d0: b306 3dee 10a9 eb3f 0000 00c0 79af edbf
000000e0: 0000 00c0 2c25 e4bf 0000 0000 dc33 d0bf
000000f0: 0000 0080 7bf2 d8bf ac8c 6a4f 637a ed3f
00000100: 0000 0040 e3bd e4bf 0000 0000 1876 ddbf
00000110: a671 6b05 3ffa e4bf 0000 00c0 4ef8 edbf
00000120: 916c dda4 42b8 e1bf 2db2 cecf e243 ea3f
00000130: db1d 5283 0351 da3f 89c0 8c00 1679 e13f
00000140: cd9b 407b 7bf9 bb3f 45c7 877e c7ce ddbf
00000150: 84bd 0faa 3dac c03f 0000 00c0 d3e0 edbf
00000160: 0000 0040 431f e7bf 0000 00c0 387f e0bf
00000170: bad8 d97b 22fc e53f 7b15 a4de b870 e13f
00000180: 0000 0000 3962 dcbf 0000 0000 6479 a2bf
00000190: 0000 0000 4877 e43f 2b10 d11b 96d7 f33f
000001a0: 1559 0c72 e188 de3f 68c5 d9aa dc3a b93f
000001b0: b6bd b715 4c20 e43f 0000 0000 78d7 e2bf
000001c0: 559f e409 fdcc c13f 0000 0080 4dcf e8bf
000001d0: 0000 0000 c32d e6bf 0000 0040 da87 e0bf
000001e0: 19ca e7fc 38b8 db3f 7f2c e1c0 5527 df3f
000001f0: 0000 0040 8df4 e2bf 0000 0000 b955 d33f
00000200: b3c1 0370 0928 e33f b3ec ad56 7ad7 b9bf
00000210: 0000 0000 888c a33f 7c97 628c fcb8 d23f
00000220: 0000 0000 20da e33f 8a80 669a 727a f03f
00000230: 8155 75d1 2494 eabf 0000 0080 3d74 d7bf
00000240: 934a 3b88 262a d63f da85 eafe 6aae ec3f
00000250: 0000 0000 bdd8 eb3f 2ae8 fbd3 a8cd ea3f
00000260: c141 92b0 6099 d23f 0000 0000 9fd3 ebbf
00000270: 6950 b2df fbb0 b73f 0000 0080 f504 e4bf
00000280: 0192 f6ee bb59 e8bf b227 f308 1e26 eb3f
00000290: 5cdd 72bf 21e8 e63f 7d09 6e42 be0a ebbf
000002a0: 7870 2598 2515 d03f 1c00 1763 9523 bebf
000002b0: 0000 0000 5710 c5bf 0000 0080 e34b ddbf
000002c0: 0000 0080 919c d83f 2339 bf28 92cb e2bf
000002d0: 97af 402f 8aa5 d43f a8bd f805 021c e23f
000002e0: af96 4f66 bcac ee3f 45de c7ab c9e5 dd3f
000002f0: 0000 0040 e9ab efbf 0000 0000 20c2 e4bf
00000300: 0000 0000 c7f4 df3f 7887 babb df07 c53f
00000310: 0000 00c0 72f6 e8bf 0000 0000 1d6d e2bf

fc.0.bias f8 [100]
0.9325509636062994 0.6696433330694045 -0.43602514266967773 -0.2516847848892212 -0.9525980949401855 -0.11247172170207025 -0.753058910369873 -0.5739414280974185
-0.05509960651397705 0.12894028640993882 -0.40953028202056885 0.5972834557569536 -0.6085391044616699 0.9287426366358257 0.7291369470346636 -0.84328293800354
-0.3195829970079937 0.03144087005074917 0.2903805281526868 0.3362305632113795 0.3265770919921722 0.05464402372888029 -0.48792874813079834 0.4388224102174732
-0.9592489004135132 -0.5927066802978516 -0.2796750026254327 -0.487113356590271 -0.3498333692550659 -0.8196216821670532 -0.21271514892578125 0.20827878681788817
-0.6514657735824585 -0.05131936073303223 0.7264907935753396 -0.10280025005340576 0.275932099005662 -0.10290325694112114 0.18904948054900272 0.6274133304166152
0.9442141424074129 0.6413602287345074 0.9420659155085801 -0.07232165336608887 -0.8983215093612671 -0.4740772247314453 0.6769380998536538 -0.022192162684672206
-0.4970463514328003 -0.766311764717102 -0.93585205078125 -0.6200470116467335 -0.2385424635507031 0.5393809093558768 0.5328221269498091 -0.964431881904602
0.6210054336450058 -0.782509446144104 -0.2114102840423584 -0.40547263622283936 -0.2165539517682752 -0.2433747694260937 -0.8973499536514282 -0.8634378910064697
-0.29930027173167295 0.1596621003412456 -0.45427489280700684 0.368879823760619 -0.900058388710022 -0.06904810925164818 0.8921908801452111 -0.40789198875427246
0.8996525474916234 0.34655401976909456 -0.9024609327316284 0.6273061061683466 -0.145295557654452 -0.44640684127807617 0.7751287521505462 -0.8080952167510986
0.3791616620496332 -0.23800043117566963 0.7086844189192414 0.4216019559782425 0.47039552906586984 0.3551930254779321 -0.24047470092773438 -0.21030545234680176
-0.8240814208984375 0.6261823794572003 0.7887496938535755 0.676844129762755 -0.4792723760647019 0.00020615702438419028 -0.7049341201782227 -0.5504841804504395
-0.5827054977416992 0.33705521464545934 -0.5959131717681885 -0.02181720733642578
00000000: de5a 511e 75d7 ed3f 968f f0da b76d e53f
00000010: 0000 0000 d6e7 dbbf 0000 0080 9a1b d0bf
00000020: 0000 0000 af7b eebf 9b69 6f5e f2ca bcbf
00000030: 0000 0000 0f19 e8bf 31ef ef69 ba5d e2bf
00000040: 0000 0000 0436 acbf 6c3f a284 1d81 c03f
00000050: 0000 0080 be35 dabf 1560 9d31 f21c e33f
00000060: 0000 0000 2779 e3bf c90d 587a 42b8 ed3f
00000070: 9836 ba01 1755 e73f 0000 0080 2cfc eabf
00000080: ab72 203e 0c74 d4bf c562 4089 0419 a03f
00000090: 60e7 f335 9895 d23f 7325 3a32 cd84 d53f
000000a0: 9caa 6e9a a3e6 d43f 3abe ac2d 4dfa ab3f
000000b0: 0000 0080 393a dfbf 4db3 2897 aa15 dc3f
000000c0: 0000 00c0 2ab2 eebf 0000 0000 74f7 e2bf
000000d0: 953c 72fb 31e6 d1bf 0000 0080 dd2c dfbf
000000e0: 0000 0080 ab63 d6bf 0000 0040 573a eabf
000000f0: 0000 0000 403a cbbf 61ac ea18 e1a8 ca3f
00000100: 0000 00c0 ced8 e4bf 0000 0000 8846 aabf
00000110: 9709 e89e 693f e73f 0000 0000 1e51 babf
00000120: 4957 491b dfa8 d13f b9c8 362b de57 babf
00000130: 1452 24fc c532 c83f 7cd7 e61e c513 e43f
00000140: d2ef c193 0037 ee3f 4fd5 ebe2 0586 e43f
00000150: 0d24 396b 6725 ee3f 0000 0000 ac83 b2bf
00000160: 0000 00c0 0cbf ecbf 0000 0000 4857 debf
00000170: de35 0917 7aa9 e53f cb2c d5d3 8ab9 96bf
00000180: 0000 0080 9bcf dfbf 0000 0040 a085 e8bf
00000190: 0000 0000 80f2 edbf 052b a0d4 6cd7 e3bf
000001a0: 552a d437 8f88 cebf bca5 b8c0 9b42 e13f
000001b0: f7b4 3afd e00c e13f 0000 0040 a0dc eebf
000001c0: 5b98 84c9 46df e33f 0000 0040 510a e9bf
000001d0: 0000 0000 7e0f cbbf 0000 0080 43f3 d9bf
000001e0: e407 5536 0ab8 cbbf 80a5 ad89 e726 cfbf
000001f0: 0000 0040 17b7 ecbf 0000 0080 48a1 ebbf
00000200: 6a5f b153 bc27 d3bf 432b b0c5 ce6f c43f
00000210: 0000 0000 d712 ddbf c830 cd1e ba9b d73f
00000220: 0000 0040 47cd ecbf 8122 160b 23ad b1bf
00000230: 9f6b 80e3 d38c ec3f 0000 0000 e71a dabf
00000240: e1aa a723 f4c9 ec3f 8728 4de9 f02d d63f
00000250: 0000 00c0 f5e0 ecbf 755f 5241 e412 e43f
00000260: 54a2 307a 0b99 c2bf 0000 0000 ee91 dcbf
00000270: dba0 15d0 dacd e83f 0000 0080 eadb e9bf
00000280: 889c 9946 2f44 d83f d9ac 2a52 cc76 cebf
00000290: 482c 4ef2 8aad e63f b5cb 36c5 86fb da3f
000002a0: 1b71 61d9 f51a de3f 187b 0c87 7bbb d63f
000002b0: 0000 0000 e0c7 cebf 0000 0000 4aeb cabf
000002c0: 0000 0000 e05e eabf 5434 23a1 af09 e43f
000002d0: 8798 7aff 6f3d e93f 7642 3a05 b5a8 e53f
000002e0: 2fbe 440b 66ac debf 638e ea5a 7b05 2b3f
000002f0: 0000 0000 d28e e6bf 0000 0000 919d e1bf
00000300: 0000 0000 86a5 e2bf f54d f608 5092 d53f
00000310: 0000 0080 b811 e3bf 0000 0000 4057 96bf

fc.1.weight f8 [1, 100]
0.005489886866375852 0.08573948636851568 -0.07559200376272202 -0.0686512216925621 -0.05806615576148033 0.1290880904219304 -0.035946499556303024 0.35720454925990713
0.03616075590252876 0.04592777804244508 -0.0007444024085998535 -0.036555563031608944 0.01254663523286581 -0.0676155099889422 -0.0333378595424861 0.012759304605424404
-0.01625764248545965 -0.005604559004035878 0.23371401551183343 -0.15967819757898155 0.017008975607083594 0.14658064539097307 0.03612370416522026 0.033461933532439765
-0.08666099607944489 0.049537789076566696 0.008676938203661305 -0.028386427089571953 -0.03355163335800171 -0.014808738604187965 0.0010938287014141679 0.12299431044661298
0.01248388271778822 0.08956928551197052 0.0004837029746214449 -0.06322139501571655 0.34609319982793096 -0.015872947602969676 -0.009041570442669714 0.05027499151844993
0.03644015404252435 0.027697512373770865 -0.025898217132526016 0.00016008615784812719 0.05148235708475113 -0.09670921415090561 0.09546381871252044 -0.03193648143287787
0.0013782501919195056 -0.017001677304506302 -0.052667297422885895 0.21443749312135654 0.2045235802830826 -0.02110818498653161 -0.033275644890916764 -0.03698388487100601
-0.08964056441805571 0.04513939842581749 -0.048026371747255325 -0.06673403084278107 0.047720624661938264 0.1773949665252983 0.05295736715197563 0.0767521858215332
0.12681745949525047 -0.221903890171884 -0.027944816276431084 0.0484238410287396 0.0822034701704979 0.08114903007998653 -0.1035740848055926 -0.047007739543914795
-0.08131667569247034 0.05646597908377347 -0.05611824989318848 -0.06147319397078038 0.22404632811403583 -0.06494112312793732 -0.006554828831863621 0.028649354353547096
0.21207520121942103 0.005337457644893553 -0.056734279147903265 0.19791128840220126 0.030296224545674107 0.06157173647688955 -0.03352406248450279 0.02945554256439209
-0.02286761999130249 -0.07268840966363985 -0.04707905651506132 0.054238388781332865 0.3389238103659825 0.046415809564178206 -0.02249021641910076 -0.06164298206567764
0.06915447860956192 -0.05802693879774532 0.04096654802560806 -0.03362535312771797
00000000: 7814 cc48 907c 763f 8fb9 ede1 05f3 b53f
00000010: 0000 0060 ff59 b3bf 0000 0060 2093 b1bf
00000020: 0000 00e0 d8ba adbf f527 5563 f585 c03f
00000030: 0000 0060 9467 a2bf 2f70 4378 70dc d63f
00000040: 0000 00a0 a983 a23f d02a 5781 d883 a73f
00000050: 0000 0000 8064 48bf 174e 6a27 69b7 a2bf
00000060: 0000 00e0 0cb2 893f a2d8 1a04 404f b1bf
00000070: cb40 e8f0 a811 a1bf 0000 00e0 8c21 8a3f
00000080: b5f3 23eb d7a5 90bf f0e7 175a cef4 76bf
00000090: 9bbd 9e42 57ea cd3f ae33 3ece 5570 c4bf
000000a0: e22f e207 cd6a 913f 8924 1793 27c3 c23f
000000b0: 0000 0060 ce7e a23f 0192 5d2c ec21 a13f
000000c0: 0000 0040 6a2f b6bf 0000 0060 045d a93f
000000d0: f05a 83ee 36c5 813f 0000 00e0 5411 9dbf
000000e0: 0000 0000 ae2d a1bf 0000 0040 0b54 8ebf
000000f0: 0000 00a0 d9eb 513f 9557 f61c 8e7c bf3f
00000100: 0000 0060 2691 893f 0000 0040 03ee b63f
00000110: 3c72 fc74 30b3 3f3f 0000 0000 472f b0bf
00000120: d240 a817 6426 d63f 692d 627b ff40 90bf
00000130: b591 d80a 6384 82bf 3ec0 c1c8 a4bd a93f
00000140: 8468 bfab 48a8 a23f 0bb9 4d97 bc5c 9c3f
00000150: 1785 6fee 0f85 9abf 0000 00a0 99fb 243f
00000160: 0000 0040 e55b aa3f 0000 0060 efc1 b8bf
00000170: fa50 521b 5170 b83f 3167 9b7e fa59 a0bf
00000180: 0000 00e0 cc94 563f 0000 0040 e368 91bf
00000190: 0000 0040 35f7 aabf a508 ff11 b072 cb3f
000001a0: 54d0 4924 d42d ca3f d0c0 c750 629d 95bf
000001b0: b69d 1e5d 8109 a1bf 0000 0040 8def a2bf
000001c0: 4a0e 921c aff2 b6bf 0000 00e0 821c a73f
000001d0: 0000 00a0 e996 a8bf 0000 0040 7b15 b1bf
000001e0: 0f12 8974 d66e a83f f8bf d9d5 e0b4 c63f
000001f0: 0000 0060 3a1d ab3f 0000 0000 08a6 b33f
00000200: 1805 8cf4 8d3b c03f 825b 92bf 5867 ccbf
00000210: 0000 00e0 909d 9cbf fa59 217b 02cb a83f
00000220: 0000 0060 490b b53f 88b0 4bce 2ec6 b43f
00000230: b001 f4ca d483 babf 0000 0000 6611 a8bf
00000240: 0ef6 b76e 2bd1 b4bf 0dbb 00db 1be9 ac3f
00000250: 0000 0000 88bb acbf 18ce 5e1b 6a79 afbf
00000260: 1df3 04d2 8cad cc3f 0000 0040 fb9f b0bf
00000270: 6372 6b77 3cd9 7abf 0000 00a0 4156 9d3f
00000280: 1cd8 c3ba 4725 cb3f 6928 75e0 badc 753f
00000290: db37 0183 460c adbf c32c 9937 2855 c93f
000002a0: b2b9 7636 f905 9f3f 4566 0da5 5486 af3f
000002b0: 0000 00e0 102a a1bf 0000 0000 9829 9e3f
000002c0: 0000 0000 9c6a 97bf a6b7 4d26 b59b b2bf
000002d0: 1611 1e00 bf1a a8bf 59d2 0154 22c5 ab3f
000002e0: eee2 567e edb0 d53f 9ce6 3020 d0c3 a73f
000002f0: 0000 00e0 ac07 97bf 0000 0040 ab8f afbf
00000300: 0000 00a0 1bb4 b13f 0dbc d8f8 b4b5 adbf
00000310: 0000 0040 91f9 a43f 0000 00a0 5737 a1bf

fc.1.bias f8 [1]
-0.04775066958828111
00000000: 4fcf 7c98 c672 a8bf
