model/LinnosTask11111-1_1000.pth (torch, 376549 bytes, 5 tensors)

fc.0.weight f4 [300, 9]
000000 c5 d9 0d bb 45 cf 7b 3e 0d c9 6a be c2 c3 85 be
       -0.0021644693 0.24590786 -0.22928257 -0.26125914
000010 87 6b 00 be 9b c6 b0 3e 5c 66 09 3e 09 cd d5 3e
       -0.12541018 0.34526524 0.13417953 0.41757992
000020 20 b0 0f 3e 3f a2 93 3e b6 ac 25 3e 01 d5 a5 3c
       0.1403203 0.2883472 0.16179165 0.02024317
000030 36 1d d5 bd e4 bc 0c 3d 39 e3 15 bf 1b 7e fc be
       -0.10405962 0.034359828 -0.5854984 -0.4931496
000040 19 42 c4 3e 78 7a c8 3e 19 91 54 be 82 12 4a bd
       0.38331679 0.39155936 -0.20758475 -0.049334057
000050 21 8b 37 3e d5 bc 8b 3e 1b 6a 48 bd 89 67 0a 3f
       0.17924167 0.27292505 -0.048929315 0.5406423
000060 df a6 c1 3d 21 6a 9f 3e ee dc e8 3e 8a 52 9e be
       0.09455656 0.31135657 0.45481056 -0.30922347
000070 de e1 56 be d6 d3 ac bd 3e 0d 05 be c6 74 93 3e
       -0.20984599 -0.08438842 -0.12993333 0.2880003
000080 ce 3e 5d be 80 20 1d be 23 78 6e be fa d6 9f be
       -0.2160599 -0.15344429 -0.23288016 -0.31218702
000090 94 f0 61 be 85 42 88 3e 59 26 0a 3e 85 ed 06 3e
       -0.2206443 0.2661325 0.13491191 0.13176544
0000a0 34 11 af ba be 96 3a be b7 02 5b 3d 52 a5 ac be
       -0.0013356567 -0.18221566 0.053469386 -0.3371988
0000b0 d0 12 82 be c9 fd 10 be 61 04 b4 3e cc 9f 8b 3e
       -0.25404978 -0.14159311 0.3515959 0.27270353
0000c0 27 ce 17 be b7 11 ca 3c d2 cc 0b 3f 92 38 f9 3e
       -0.14824735 0.02466665 0.54609406 0.48675972
0000d0 6b 06 e0 3e 5b 31 55 3e 0d de dd 3e c9 26 da bc
       0.43754897 0.20819609 0.43333474 -0.026629822
0000e0 bf 0b 83 3e e5 c5 23 bd ed 94 a6 3c b3 16 47 bf
       0.255949 -0.03998365 0.020334685 -0.7776901
0000f0 fa 72 a8 3e fa d0 c6 3e 64 8c 18 bf ca e2 3b 3d
       0.3290022 0.3883131 -0.5958922 0.04587058
000100 35 3d 1d 3e a0 8e a6 bd 8a 90 51 bd b4 59 a3 3c
       0.1535538 -0.08132672 -0.051163234 0.019940235
000110 0f 73 c0 3e 35 23 c4 3e 0d 15 37 be 56 9a 08 bc
       0.37587783 0.3830811 -0.17879124 -0.008337578
000120 d3 f8 f0 3d 99 9f 63 3e 80 29 84 3e 5f c7 93 3e
       0.117662095 0.2222885 0.25812912 0.28863046
000130 a5 f9 39 3d 6b 63 e0 be 42 6f 65 bc 80 d4 c1 be
       0.045404095 -0.4382585 -0.014003577 -0.37857437
000140 46 b8 be be 53 04 be 3e 04 b7 9f 3e d9 db 96 be
       -0.37249964 0.37112674 0.31194317 -0.29464605
000150 a5 da 18 3e 13 a1 d9 3b 5a 47 a8 bd b4 4c 47 bf
       0.14927156 0.006641516 -0.08216734 -0.77851415
000160 ec e3 f5 3d 30 44 1c be 67 d9 48 3e b2 d2 49 3e
       0.12006363 -0.15260386 0.19614182 0.1970928
000170 9b 98 9c 3e 96 01 50 3e 56 2e 72 be 9e 08 eb be
       0.3058518 0.20313105 -0.23650488 -0.45905012
000180 47 5c c5 3e 96 72 9d 3d 4a c1 c4 be e0 8b 44 be
       0.38546965 0.07687871 -0.38428718 -0.19193983
000190 f7 8d a0 3e 1b ff 65 3e 76 d4 14 be 1b d1 ab bd
       0.3135831 0.22460596 -0.14534172 -0.08389493
0001a0 a6 93 a2 be 56 53 c4 bb a6 85 80 be 17 a5 83 be
       -0.31753272 -0.0059913797 -0.25101966 -0.2571189
0001b0 6b 75 96 bc 80 ff 4c 3d 4e c9 0b be 20 8a 4a 3e
       -0.018366536 0.05004835 -0.1365101 0.19779253
0001c0 f6 b6 4f be 9b db 9a 3e 6b ea 69 3e 98 eb 8f be
       -0.20284638 0.3024567 0.2284333 -0.2810943
0001d0 b0 e7 a9 bd bb db f5 3d b5 30 af 3d ed ea 24 3e
       -0.08296144 0.12004801 0.08554212 0.16105242
0001e0 28 f6 66 3e b0 f4 d3 3d 9a f9 51 bd 65 16 90 3e
       0.22554839 0.10349405 -0.05126343 0.28142086
0001f0 3b ef ff be e6 cc 14 bf 50 e4 aa bd 9e 44 26 be
       -0.49987206 -0.5812515 -0.083443284 -0.16237113
000200 d0 d1 ee bd d2 e1 8b be ab 36 91 bd a6 ec 91 3d
       -0.11661112 -0.27320725 -0.07090505 0.07125215
000210 f3 5d 5e be d6 22 8c bc 00 58 74 3e 41 78 bd bc
       -0.21715526 -0.017106455 0.23861694 -0.02312863
000220 4b d4 6f 3e 1f 3b 06 3e 7e 72 0e 3d db c3 69 3e
       0.23420827 0.1310849 0.034777157 0.22828619
000230 ea 27 0e 3f b2 2c bc 3e ac 43 db 3e 66 9c b8 3e
       0.55529654 0.3675285 0.42825067 0.36056823
000240 44 50 99 be 80 d1 21 be 68 6a 68 3e ab 9c 0d bb
       -0.2994405 -0.15802574 0.22696841 -0.0021608274
000250 93 a8 29 be ac c8 82 be 00 b8 9f be 48 0b 90 be
       -0.16568212 -0.25543725 -0.31195068 -0.28133607
000260 4b 78 8a bd 73 30 3b 3e f0 89 38 3e ac 98 a4 be
       -0.06761225 0.182802 0.18021369 -0.3214773
000270 e8 ea 54 3e 5c 8c 85 be a0 52 90 bd be 66 0a be
       0.20792735 -0.26083648 -0.070470095 -0.13515756
000280 f6 7d 83 bd 60 09 86 bd a9 4b 9c be 05 82 96 be
       -0.064205095 -0.06544757 -0.30526474 -0.29396072
000290 8a d4 6e bd c1 aa 12 bb 83 6a 21 be a1 c4 f7 3d
       -0.05830816 -0.002237961 -0.15763287 0.12098051
0002a0 dc f6 9b be b8 42 e5 bc 97 7a 92 3e cf ab 29 be
       -0.30461776 -0.027985916 0.28609154 -0.16569446
0002b0 18 5d ab 3e c8 ff 29 bd 58 f8 9b be 17 db 85 3e
       0.33469462 -0.041503698 -0.3046291 0.26143715
0002c0 71 61 d4 bc 8f 0a 8d be a9 cf 07 3f 07 3d 80 be
       -0.02592537 -0.27547118 0.5305124 -0.2504656
0002d0 5b 00 14 3e c7 18 57 bc f9 ee 9a 3e 8e ec 30 3e
       0.1445326 -0.013128466 0.30260447 0.17277738
0002e0 e0 d6 5a 3e 2a 5f d5 3e 0c b1 f7 be 3c 6f 1d be
       0.21371031 0.41674167 -0.48377264 -0.15374464
0002f0 5e e3 07 bf bd fc 6f 3e c0 c0 83 3e d7 82 81 3e
       -0.5308131 0.23436256 0.25732994 0.25295135
000300 fa c5 2a be e4 89 5b 3d 57 3f c6 be 00 a8 7d be
       -0.16677085 0.0535983 -0.387202 -0.24771118
000310 08 ff 06 bf 33 02 bd 3c 10 61 4f be 78 b8 e8 3d
       -0.52732897 0.023072338 -0.2025187 0.113633096
000320 38 4a 1e be fe 16 60 3e 01 16 be bd 7e 22 4a be
       -0.15458 0.21883771 -0.09281541 -0.1973972
000330 51 91 8b be e6 c9 eb 3e 6f 7b aa bd 84 fb 84 3e
       -0.27259305 0.46052474 -0.08324324 0.2597314
000340 2e 1c a8 3d a3 af 2e 3c cb 22 91 bc f5 33 b2 bd
       0.082085 0.010661992 -0.017716786 -0.08701316
000350 9c f2 1d be f8 bf 02 be d8 10 0c be 42 d7 f2 bc
       -0.1542458 -0.12768543 -0.136783 -0.029643659
000360 6d 14 1a bd b3 04 cd bd 20 dd d8 3e e9 d6 a4 bd
       -0.037617136 -0.10010662 0.42356205 -0.08048803
000370 5b 39 dc 3d 09 1a 11 3f b8 0b ad 3e 9f 9b a4 be
       0.10753127 0.5668035 0.33798003 -0.3214998
000380 ce 29 5c bf 67 2b 61 3e f1 81 75 be b6 42 b2 3c
       -0.8600129 0.21989213 -0.2397535 0.021760326
000390 78 61 b1 3c 45 1d 68 3d e2 b1 e5 be 0e 9d d6 3e
       0.021652922 0.05666854 -0.44862276 0.41916698
0003a0 3b 09 4e be 0b 47 db 3e 63 31 3a 3e 30 7d c2 bd
       -0.20120709 0.4282764 0.18182902 -0.09496534
0003b0 85 97 b1 bd c2 e1 5c be e5 8f 0a ba 1d 73 0b 3d
       -0.08671478 -0.21570495 -0.0005285724 0.034045327
0003c0 b3 71 a9 bd 40 aa df 3e 7e 3d 12 be ab e2 0b 3a
       -0.082736395 0.43684578 -0.1428127 0.00053362054
0003d0 f8 b9 2f 3e e7 0c a5 be 03 c7 76 3e cb 20 8d be
       0.17160785 -0.32236406 0.24099354 -0.27564082
0003e0 ab 8a 96 3b 2b 21 68 bd 63 c5 33 be 20 75 34 3d
       0.004594167 -0.056672256 -0.17555766 0.04405701
0003f0 a2 20 8d 3e 8b 8e c7 bd c8 a5 4a be 06 7a fc bd
       0.2756396 -0.09743985 -0.19789803 -0.123279616

fc.0.bias f4 [300]
000000 71 e4 89 3d 83 2e b5 3d e3 66 06 3d d3 e3 85 be
       0.06733025 0.08846762 0.032812964 -0.2615038
000010 19 dc 94 be d6 03 19 be e5 30 fd 3d 2b ec 22 3e
       -0.2907417 -0.1494287 0.123628415 0.15910403
000020 91 6f 89 3e 74 6a 9d 3e b5 cd 04 bd cb fa 85 be
       0.2684293 0.3074528 -0.03242274 -0.26167902
000030 cc 15 a0 be f1 ff 4c 3e e3 c8 99 be 5e 33 30 bf
       -0.3126663 0.20019509 -0.30036077 -0.6882838
000040 cb 80 2c be 33 18 90 be 91 c1 0d be dd ec 6c be
       -0.16846006 -0.28143463 -0.13843371 -0.23137231
000050 ef d3 61 bd 36 d6 c8 3e 31 a7 70 bd 5a e2 93 3e
       -0.055133756 0.3922593 -0.058753196 0.2888363
000060 ab a6 c7 3d 65 64 e7 3b 6a 1b f6 bd 8e fe 73 be
       0.09748586 0.0070615285 -0.120169476 -0.23827574
000070 2e 1f 89 be 3f f7 26 3e cb 5e d2 bd 83 65 a6 be
       -0.267816 0.16305254 -0.102719866 -0.32499322
000080 84 d4 ab 3e 51 6d 93 bb 43 67 64 be 34 27 86 be
       0.33560574 -0.0044991155 -0.22305016 -0.26201785
000090 58 0e 37 be 6b bf dc be de 96 a0 3e e1 72 7e 3e
       -0.17876565 -0.4311479 0.31365103 0.2484851
0000a0 21 43 08 3e 6f 74 91 be dc 18 40 be c8 52 a0 be
       0.13306858 -0.28409144 -0.18759483 -0.31313157
0000b0 40 ad a7 3d 9f 0b 50 be 9a cf 0e bd 02 aa 0b bc
       0.08187342 -0.20316933 -0.034865953 -0.00852442
0000c0 44 e3 82 3e 0e 7f 9b 3e f7 68 12 bb 4b f9 2a bd
       0.25564015 0.30370373 -0.0022340396 -0.04174165
0000d0 19 89 88 3d f0 db 91 3d 9d 6c 6f be a9 13 b3 3e
       0.06666774 0.07122028 -0.23381276 0.34975937
0000e0 05 3a 93 be 9a e2 37 3e ae 86 e6 bd 0b 8e 8d b9
       -0.28755203 0.17957535 -0.11256157 -0.00026999446
0000f0 73 a0 39 3e eb b3 9c be 65 ad 66 3e 73 d0 bc be
       0.18127613 -0.30606017 0.22527082 -0.36877784
000100 d0 22 f1 3c 44 26 06 3b 0d 3a 51 3e e3 be d4 3e
       0.029435545 0.0020469585 0.20432301 0.41551885
000110 4a d7 74 3c 30 65 f3 3c 7d b1 36 be 50 d9 2a 3e
       0.014943907 0.029711336 -0.17841144 0.1668446
000120 bf fc d4 bd 18 83 a4 3d 95 fc e3 bd 3b 53 63 3e
       -0.1039977 0.08032817 -0.111321606 0.22199719
000130 22 73 8e 3e eb 59 81 3e 04 35 5c 3d cb bd 97 3d
       0.27822214 0.25263914 0.053761497 0.07409247
000140 5c 84 9b be e1 0f 9c 3e 41 5f 7e be 77 9c 4d 3e
       -0.3037442 0.30480865 -0.24841024 0.20079218
000150 03 92 fa 3c 95 47 e8 bd 69 5a 0f 3b 87 e0 4d 3e
       0.030587202 -0.11341778 0.0021873957 0.20105182
000160 96 ac 5d be 6a 38 ac 3d 81 fc 52 3e 9e 87 b3 3d
       -0.21647868 0.08409198 0.20604135 0.08766101
000170 4e 99 8f be e6 b4 a9 be 92 58 d2 bc 14 20 a8 3e
       -0.2804665 -0.33145827 -0.025677 0.32836974
000180 63 b2 72 be 8c ac 88 3e 1b ae 79 3e 92 8f 70 be
       -0.23700862 0.26694143 0.24382822 -0.23492268
000190 86 a9 75 be 4e 91 75 be 5f 28 10 3e 54 77 0a be
       -0.2399045 -0.2398121 0.140779 -0.13522083
0001a0 9f 2c 9e 3b 21 98 0b 3e ec ce 60 3e 27 b8 80 bd
       0.0048270966 0.13632251 0.21953934 -0.06285124
0001b0 cb f9 f6 3d 64 0f e9 3d 28 44 fa bc 73 de 4c 3d
       0.12059363 0.11379889 -0.030550078 0.05001683
0001c0 12 ac 79 bd 56 aa b8 3e 6d 46 0e 3d 15 5e 89 3c
       -0.060955115 0.36067456 0.034735132 0.016768495
0001d0 82 24 ac be e0 be ea be b2 d2 67 bd e3 e4 05 3e
       -0.33621603 -0.4584875 -0.05659742 0.13075595
0001e0 b2 14 3e be 13 dd 89 3e 0e d1 10 3e 84 fe a8 3d
       -0.18562582 0.2692648 0.14142248 0.0825167
0001f0 af 4a a5 3e 7e ea 3f bd 3f 87 21 be 6f c4 97 bd
       0.32283542 -0.04685449 -0.15774249 -0.074105136
000200 10 53 13 3d e0 b8 2a be 0e 87 ba bd 0f 2a e7 3d
       0.035967886 -0.16672087 -0.09107791 0.11287319
000210 3d 86 39 3e 30 2f a8 3e ec fc 94 3e 3a 02 79 3d
       0.18117614 0.328485 0.29099214 0.06079314
000220 c3 a7 c3 bd 27 ee 2d 3e b2 a8 5a bd 5b 0c d6 bd
       -0.095534824 0.16985379 -0.053383537 -0.10451575
000230 c5 44 34 3d be db 8f be 26 24 91 be 2b 27 30 ba
       0.044010896 -0.28097337 -0.28347892 -0.00067197037
000240 4e 9d f0 bd ae d4 28 be 83 e1 9e be d7 32 54 3e
       -0.117487535 -0.16487381 -0.31031427 0.20722519
000250 6d 24 9f 3d a4 b8 b0 be 9c 5f 78 be f5 79 21 3d
       0.077706195 -0.3451587 -0.24255222 0.039422948
000260 fe 8b 77 be 7a 07 1c bd 32 6b 9b bb 80 cc 2a 3e
       -0.24174497 -0.038093068 -0.0047430033 0.16679573
000270 b3 be 02 3e 95 5b 48 be df 52 5d 3e 6d 8a 99 3e
       0.12768058 -0.19566186 0.21613644 0.29988423
000280 64 c2 06 3b 7b e6 96 3e 7b 39 01 be bc 77 00 3b
       0.0020562643 0.29472718 -0.12619583 0.0019602617
000290 e4 8c dc 3c 05 cc 6a be cc 6c 78 3e 68 5d a1 be
       0.02692265 -0.2292939 0.24260253 -0.31516576
0002a0 96 37 00 be 26 81 2e be 7d 55 95 bd 7a b1 af be
       -0.12521204 -0.17041454 -0.07291696 -0.3431509
0002b0 50 d1 a0 be 64 47 bc 3d fb 0a 87 bd 03 b4 8f be
       -0.31409693 0.09193304 -0.06593891 -0.28067026
0002c0 31 1c 6f 3d 39 f2 c5 3d 06 3e 90 3d 4b ae 85 be
       0.058376495 0.09665341 0.0704308 -0.26109537
0002d0 ee 4e 80 be de b6 13 3e d5 dc 41 3e 26 8b 00 3e
       -0.2506022 0.14425227 0.18931897 0.12553081
0002e0 b1 24 15 3e 9a 34 b8 3e 5e b9 a3 bd 3f 12 a9 3e
       0.14564778 0.35977632 -0.0799434 0.33021733
0002f0 71 ee 87 3e 7a f9 96 be 9d 5d c8 3c 59 a7 6e 3e
       0.26549104 -0.2948721 0.0244587 0.23306026
000300 f0 4b eb bd bd 0f 4e 3e 7b d1 d5 3d 05 d9 b3 3e
       -0.11489093 0.20123191 0.10440346 0.3512651
000310 74 53 20 bb 79 c1 fd be c9 0d bb 3e eb 3d 37 3c
       -0.0024463804 -0.4956167 0.36533955 0.011184196
000320 08 dc c2 3e 64 d1 11 3d c7 48 77 3e 7a 8f 91 3e
       0.38058496 0.03560008 0.24148856 0.28429776
000330 0d d1 12 3e ea 7a 21 be f0 89 b8 3b 89 df 03 bf
       0.14337559 -0.15769544 0.005631678 -0.5151296
000340 d4 8d 90 3d 40 6b db bd 36 ac 3e 3d c8 64 88 be
       0.070583016 -0.10713816 0.046550952 -0.2663939
000350 2a c2 34 3e 73 5a 14 bf 69 98 52 3e 2c 2c 40 3e
       0.17652193 -0.57950515 0.20565952 0.1876685
000360 de 7a db be d7 d2 a7 3e e3 bd 7d be e6 66 c3 3c
       -0.42867178 0.32778046 -0.24779467 0.023852777
000370 56 75 6f 3e 4e dd d4 bd 50 5c 97 3e 0b 3a 4d bd
       0.23384604 -0.10393773 0.29562616 -0.050104182
000380 9b 2a 59 bd 07 13 cd bd b7 20 b8 bd a9 d2 ae 3e
       -0.053019147 -0.10013395 -0.08990615 0.34145096
000390 a9 a0 67 3e 11 fb ba 3d 6c 39 84 3d b2 d3 90 be
       0.2261988 0.09129918 0.06456265 -0.2828651
0003a0 d0 c2 a0 3e ca 9a 84 3d 73 52 65 be 04 d2 87 be
       0.3139863 0.06474836 -0.22394733 -0.26527417
0003b0 39 2b c0 3e bc 1c d7 3d 1f 5f 8c 3e 25 a3 d7 3d
       0.37532976 0.105035275 0.27416322 0.10529164
0003c0 63 9e 67 be 98 ab 50 3e 5f 28 e0 3d de 4a 1c 3e
       -0.22619013 0.20377958 0.109452 0.15262935
0003d0 9e 72 3c bd 96 14 21 be 6f 8d 98 3e f4 f4 36 3e
       -0.046007745 -0.15730509 0.29795405 0.1786688
0003e0 bf 53 39 be 02 1e 33 3c 34 d1 26 be 49 4d 8c bd
       -0.18098353 0.010932447 -0.16290742 -0.068506785
0003f0 e9 29 7b 3e 34 d6 87 be 35 df 7e 3e 26 1a a7 3e
       0.24527706 -0.26530612 0.24889834 0.32637137

fc.1.weight f4 [300, 300]
000000 a0 fd 6d bc 00 9a bf bc ee c8 ab bc 03 57 28 3d
       -0.014525801 -0.023388863 -0.020969834 0.041098606
000010 8a 36 54 3d c8 33 3c bc 5d 98 42 bc b9 07 a1 3c
       0.051809825 -0.011486955 -0.011877147 0.019657003
000020 f4 03 5e 3d 7a cd 73 bc 53 08 41 3d 9d f9 53 bb
       0.05420299 -0.014880532 0.04712708 -0.0032344826
000030 0d 67 b5 bc 5f e7 09 3d 35 ba 52 bd 2c a6 55 bf
       -0.022143865 0.03366792 -0.051447112 -0.83456683
000040 a8 34 6c 3d 8c 21 81 bc 5a 2f d2 3c 3e ae cc bd
       0.057667404 -0.015763067 0.025657345 -0.099941716
000050 44 8d 95 3c 35 29 ac 3c 92 4a 81 be c1 41 c7 bc
       0.018255837 0.021015743 -0.25252205 -0.024323346
000060 6f 1b e9 3c f3 64 56 3d 79 81 77 bd 21 ac ca bc
       0.028455464 0.052342366 -0.06042621 -0.02474028
000070 98 3e 58 3c c9 29 78 bc 62 87 ec 3c 1a 79 79 3a
       0.013198517 -0.015146681 0.02887315 0.0009516642
000080 09 ce f8 3c 01 57 e0 bb 52 c5 0a bd e5 54 b5 3c
       0.030371683 -0.006846309 -0.033879586 0.022135207
000090 ec 7e 25 bd b5 4b 29 bc fa ea b0 3c b6 5d 10 bd
       -0.040404245 -0.010332991 0.02159642 -0.03524562
0000a0 af b5 99 bc c7 31 6c bc 27 ab a2 3c 73 ce a3 bc
       -0.018763391 -0.014416165 0.019857002 -0.019995904
0000b0 22 40 9c bc a7 86 c1 bb ff 79 3d 3e 33 f8 d6 bc
       -0.01907355 -0.0059059444 0.18503569 -0.026241397
0000c0 30 1d f4 bc 37 12 26 bd 79 0a a8 3b 89 85 97 3c
       -0.029799074 -0.040544715 0.0051282016 0.018496292
0000d0 09 79 f3 bb 78 fb 87 3d 8c 42 51 3e 7d 9c 85 3c
       -0.0074302 0.06639761 0.20435542 0.016309971
0000e0 1a d5 ca 3d 32 50 09 3d 83 69 1e 3d 53 62 54 3c
       0.09903927 0.033523746 0.038674843 0.012962895
0000f0 1e 04 42 3d 71 7c e2 bc 6e 35 ab 3b 41 6c 82 bc
       0.047367208 -0.027647229 0.005224875 -0.01592076
000100 e1 96 69 bd 53 19 fd 3c d3 cf 36 3d d8 5a 07 bd
       -0.057028655 0.030895865 0.04463179 -0.03304562
000110 f9 34 cd 3c eb c6 c8 bc ca e2 ca bc e9 de 03 3d
       0.025049673 -0.024508914 -0.024766345 0.032195006
000120 d2 78 9b 3c 8f 2f 3d 3d 59 4e 3d bc 84 38 b8 bc
       0.01897851 0.046187934 -0.011554324 -0.022487886
000130 38 18 f3 3c 6f 02 0b bd b7 04 da bc 6a e6 c2 bc
       0.029674634 -0.033937868 -0.026613576 -0.02379151
000140 27 df 3b 3c 32 1a dd 3c 98 e0 22 3c 5a a5 29 3d
       0.011466778 0.02699003 0.009941243 0.041417457
000150 56 48 d9 bd 2e 61 00 3d a3 20 35 3c 1b bb b4 bc
       -0.106095 0.031342678 0.0110551445 -0.022061875
000160 7a 3e c9 bd c6 ec 42 3d 9e 74 89 bc 3f 14 30 3d
       -0.098263696 0.047589086 -0.01677924 0.04298806
000170 4c 10 15 3d 35 5d 18 bb e7 9e 12 bd 97 19 91 3b
       0.036392495 -0.0023248915 -0.035796072 0.0044280994
000180 1e a4 e4 bc a6 05 4b 3c 4b 3c c3 bc 33 b4 4f 3d
       -0.027910288 0.012391483 -0.02383246 0.05070896
000190 2e 0d 54 bd 17 a6 7e bc 6e 4a 2d 3c 24 d3 1d 3d
       -0.05177038 -0.015542529 0.010576827 0.038531438
0001a0 80 61 3b 3d 81 4e c8 bc 26 c2 38 bd 8c dc 52 3e
       0.04574728 -0.024451496 -0.04510703 0.20591944
0001b0 a5 de 98 3c af 57 0c 3d 68 ef 01 bd 8e 75 1e bd
       0.018660853 0.03426331 -0.031722456 -0.038686328
0001c0 69 bc 93 bb bb 18 4c 3b 09 fc 8a 3c 60 ef 53 bd
       -0.004508544 0.003114267 0.016965883 -0.051741958
0001d0 29 d3 c8 3c 0a 60 1c 3e be 30 89 3d 33 7f a7 bd
       0.024514752 0.15271011 0.0669875 -0.08178558
0001e0 b8 0b 5c 3d 50 12 17 bd 9c f0 e7 bc aa a2 4a bd
       0.053722113 -0.0368827 -0.028312974 -0.049471535
0001f0 51 3c 24 3d 81 1a 13 3d 74 90 f2 bc 0e cc ad bc
       0.040096585 0.035913948 -0.029609896 -0.021215465
000200 f8 4a de 3a 08 6e 05 3c 1f 05 55 bd ca a3 42 3c
       0.0016959598 0.008143909 -0.052006837 0.011879871
000210 2c e7 d3 3b 7a 2b 69 bd cd 46 1a 3c e9 01 63 3d
       0.006466767 -0.056926228 0.009416294 0.055421744
000220 7e 18 ea 3c 95 fa 22 ba 70 ff 82 bc e6 8b ee 3c
       0.028576132 -0.0006217149 -0.015990943 0.029119443
000230 20 37 ac bc 3c a4 5e 3d ec 6d 4c 3d e0 06 75 3a
       -0.02102238 0.054355845 0.049909517 0.0009347033
000240 0a fe 96 3c ea 0b 5e bd fc 22 08 bd 26 9f 58 3d
       0.018431682 -0.05421058 -0.03323649 0.05288615
000250 43 e0 70 bd 84 b2 e2 3d e4 00 88 3b eb 9f ae 3c
       -0.058807623 0.110692054 0.004150497 0.02131649
000260 8e 5e 6b bd 5e e9 2e bd e8 4f 97 3d 4f c5 ad bc
       -0.05746322 -0.042703025 0.07388288 -0.021212248
000270 63 cc 22 3d 4f ed 35 bb 96 9a 59 bd c3 d9 55 bd
       0.0397457 -0.0027759855 -0.05312594 -0.052209627
000280 27 de 27 3d 7c 7e 25 bc ef e6 ce bc 9b 22 b5 3c
       0.040983345 -0.010100957 -0.025256602 0.022111228
000290 ad e4 01 bc b3 c6 23 3d 71 28 50 3c 11 c8 cc bc
       -0.007928056 0.039984416 0.0127049545 -0.024997743
0002a0 d2 89 3d bd ff 90 ce bc 51 bc 0f bd 9b 81 10 3c
       -0.046274014 -0.025215624 -0.035091702 0.008819963
0002b0 e2 55 01 3c 65 70 1c bd 63 d1 00 3d c7 56 26 bd
       0.007894011 -0.038193125 0.031449687 -0.0406101
0002c0 2d 94 6a 3c 69 ee c8 3c 44 4c b9 3c 91 16 68 bd
       0.014317554 0.024527745 0.022619374 -0.056662146
0002d0 36 d7 93 3d 36 c1 ee 3c 83 dc 15 bd a3 4b 99 3c
       0.072187826 0.029144865 -0.03658725 0.018712824
0002e0 0c c8 06 3b 54 62 46 3d 06 39 1f be 7a fe 09 39
       0.0020566015 0.048433617 -0.15549096 0.00013160138
0002f0 1b 1c ce bc 9c 20 69 bc bc 81 b4 3c b3 a9 65 bd
       -0.025159886 -0.014228966 0.022034518 -0.05607004
000300 5c a4 61 3d 69 24 24 3d 3b 7d 1c 3d d5 37 27 3d
       0.055088386 0.040073786 0.038205367 0.04082473
000310 97 56 e8 bc be e5 5d be 7c 49 0a 3b 08 38 14 bd
       -0.028361602 -0.21669671 0.002110093 -0.036186248
000320 8a 60 bb bc 95 44 84 bc 0e 90 72 bc c6 1d 55 bd
       -0.022873182 -0.016145984 -0.014804853 -0.052030347
000330 18 2c 2b bd 2d 85 bb 3c 3b 64 08 bb 2c dd fc bd
       -0.041790098 0.022890652 -0.0020811695 -0.12346873
000340 55 f1 97 3c 76 c3 00 3d 02 1e 4c 3d 45 13 44 3d
       0.018547693 0.031436406 0.049833305 0.04786994
000350 02 cc 28 bd 97 fc 22 be c7 88 d9 bc 48 0d eb 3b
       -0.041210182 -0.15916668 -0.026554478 0.007173214
000360 c7 aa d7 3c 8c 15 48 3c 87 31 0a 3d 8b f7 16 3e
       0.02632655 0.012212168 0.03373864 0.14742868
000370 ec 5f 07 bd 54 c5 0c 3e bf e8 1c 3d 7b e3 2a 3c
       -0.033050463 0.1374715 0.0383079 0.010430212
000380 96 42 9a bd a9 43 c6 bc 42 60 06 3d 6c 4f 9b 3c
       -0.075322315 -0.024202185 0.032806642 0.01895877
000390 b2 16 5b 3d 2d 1f cc 3c 8a 81 98 3c 23 0d 01 bb
       0.05348844 0.02491721 0.018616457 -0.0019691668
0003a0 f1 c3 19 3d 9f b7 02 bd bb 2c ec 3c 71 44 e1 bc
       0.03754038 -0.031913396 0.028829923 -0.027498456
0003b0 14 bb 28 bb 80 af 16 3d 60 fb ce 3c 00 ae 3a bc
       -0.0025746273 0.036788464 0.02526635 -0.011394024
0003c0 fe a3 3f ba a9 c3 06 bd fa 42 f1 3c 44 c7 1d 3d
       -0.00073105085 -0.03290144 0.029450882 0.038520113
0003d0 c4 55 bc 3d db d5 64 bd fa 86 2b bd 78 10 1f 3d
       0.09196046 -0.05586801 -0.04187677 0.038834065
0003e0 72 32 9c 3c 8f 3a 13 3d fd ba 4c 3d d5 9b 13 bc
       0.019067023 0.035944518 0.049983013 -0.009009321
0003f0 e9 28 0c bd 40 7b 5e bd dd ee ae 3c ae 17 f2 3c
       -0.034218702 -0.05431676 0.021354133 0.029552307

fc.1.bias f4 [300]
000000 bd d6 1c 3d c2 d0 a4 3c 94 25 f8 bb 96 d6 16 3c
       0.038290728 0.020119075 -0.007572839 0.009206435
000010 c7 fd 0f 3d 3e 72 45 bd 89 ce 3a 3d c9 54 15 3d
       0.03515413 -0.048204653 0.045607124 0.03645781
000020 ff 46 cd 3c 11 65 3b bd 12 0d 66 3d 27 80 81 3c
       0.025058268 -0.04575068 0.05616481 0.015808178
000030 a0 f2 2a bc 4b 6a e8 bc 9a a0 0c 3d a9 c8 c7 bd
       -0.010433823 -0.028370997 0.03433285 -0.0975507
000040 a3 25 02 3d 03 ca d1 bb db f9 15 bc 48 88 f8 bb
       0.031774174 -0.0064022555 -0.0091538085 -0.0075846054
000050 e9 7e 06 bd 93 98 23 bd e1 0b 32 3d a8 a3 21 bd
       -0.032835875 -0.039940428 0.04346836 -0.039462715
000060 ef 21 3c 3d da fe ce bc e9 8e 8f bc 1e f4 c6 b9
       0.0459308 -0.025268007 -0.0175242 -0.00037947384
000070 f5 20 30 3d 07 e5 bc 3c 25 02 4d bc f8 95 0c bd
       0.04300018 0.023058427 -0.012512718 -0.03432271
000080 9b 09 f4 3b ae 13 b4 3a 33 ab ce bb 26 e4 6c 3b
       0.007447434 0.0013738775 -0.0063070296 0.003614673
000090 5e 46 9e 3c 0f f4 47 bb 44 99 a7 3b b0 60 a8 bc
       0.019320663 -0.003051046 0.0051147062 -0.020553917
0000a0 e2 92 fa bc 83 db 18 b9 d3 59 4f bd 23 e6 39 bc
       -0.030587617 -0.00014577624 -0.050622772 -0.011346373
0000b0 7a 4e a6 bc 66 80 6a b7 3d eb 11 bd dd 9b dc 3c
       -0.020301092 -1.3977382e-05 -0.03562473 0.02692979
0000c0 e7 80 0d 3d d5 f3 2a 3d 21 43 8f 3c 0b 27 21 bd
       0.03454676 0.041736443 0.017488064 -0.039343875
0000d0 14 3e a7 3c 4c 74 0f 3d 87 3b 4e 3d eb 73 96 3c
       0.020415343 0.03502302 0.05034974 0.01836582
0000e0 c2 da 01 3d 59 3c ac bb 2e 15 d5 bc fb 70 cf 3c
       0.031702764 -0.0052562174 -0.026011076 0.025322428
0000f0 0c b5 71 bd dc 90 16 3c 26 47 96 bc ea 76 13 3d
       -0.05901055 0.009189811 -0.018344473 0.036002077
000100 a2 71 0b 3d 07 f9 49 3d c5 a9 30 bd 06 f9 87 bc
       0.034043916 0.049309757 -0.043130655 -0.016598236
000110 cd 7a 3c 3c 8e a1 6e bd 82 91 40 bd 75 30 48 3c
       0.011503887 -0.05825954 -0.047013767 0.012218584
000120 83 42 ee bb d8 1d 0d 3c 24 6a 02 3d a5 6d 41 bd
       -0.0072711124 0.008613072 0.031839505 -0.047223706
000130 4c d7 b3 3c 6a a9 10 3d 23 5f b3 3c f0 4d 55 3d
       0.021953247 0.035317816 0.02189595 0.05207628
000140 f8 92 20 bd b0 0b 61 bc ef 2d 31 bd 23 ea 0c be
       -0.03920266 -0.013735697 -0.043256696 -0.13761191
000150 97 97 36 3b 4e 1a 61 3d 09 2e 3b 3d c6 23 29 bd
       0.002786135 0.054956727 0.0456982 -0.04129388
000160 72 ee 90 bc 2d 75 54 bd 4e fb 8e bd ae 26 72 bd
       -0.017691825 -0.05186956 -0.06981526 -0.05911892
000170 26 f0 30 bd bc ee 22 bd 75 fc 2d 3b 0b 2c d3 3c
       -0.043197773 -0.039778456 0.0026548181 0.025777837
000180 18 24 8a 3a 2e 00 09 bd ba 2d cf bc a0 6c 63 bd
       0.0010539321 -0.033447437 -0.025290359 -0.055523515
000190 c3 6f 35 3d 61 f5 2c bd 3f f4 19 bc ea 1f 82 3c
       0.044296037 -0.0422262 -0.009396612 0.015884358
0001a0 91 bf 45 3d c9 87 29 bd 17 16 8f bd fe 4c 61 3d
       0.048278395 -0.04138926 -0.06986635 0.055005066
0001b0 10 f8 58 bd ba 9d 0e 3d 09 63 a7 3c c3 78 2f bd
       -0.052970946 0.03481839 0.020432966 -0.042839777
0001c0 fa cd eb bb 7f 77 79 bc c1 8f 06 3c ab a6 11 3d
       -0.007196185 -0.015226244 0.008212985 0.035559338
0001d0 81 80 55 3d eb 13 ed bc 6b 7e d8 3c d6 8c f6 bb
       0.052124504 -0.028940162 0.026427468 -0.007524113
0001e0 51 23 19 bd 46 57 c4 3b 38 23 28 bd 1e bf 6b bd
       -0.037387196 0.005991849 -0.041049212 -0.05755531
0001f0 51 a6 d6 bc 43 37 9a 3c 13 5b a6 bc da 9b 29 3b
       -0.026202353 0.018825179 -0.0203071 0.0025880248
000200 5b 2c bd 3c b1 1f 6c bc 45 66 0c 3d 14 8c 99 bd
       0.02309244 -0.014411853 0.03427722 -0.07497421
000210 76 2f 43 3d 09 6c d6 bc e0 ce 8c bc 7e b0 51 3b
       0.047652684 -0.026174562 -0.01718849 0.0031996067
000220 a2 4e 78 3c f1 b0 dc 3c 0b 7a 44 bd a9 e9 29 3b
       0.015155466 0.026939841 -0.04796795 0.0025926626
000230 ac ca ba bc b6 92 96 3c 66 ee 0c bb 83 46 6e bd
       -0.02280172 0.018380504 -0.0021504401 -0.058172714
000240 a4 12 3c 3d c4 ed 9b bc 47 fd 19 3d c4 a3 8f bc
       0.045916215 -0.019034274 0.03759506 -0.017534144
000250 70 23 67 3d 20 41 8c 3b 55 0c 96 bc 46 84 8b 3c
       0.05643028 0.0042802244 -0.018316427 0.017030846
000260 74 aa 67 bd 71 a9 80 bd ee e2 1a bd 14 0d 65 3d
       -0.05655904 -0.062823184 -0.037814073 0.055920675
000270 c6 ee 33 bd 90 a1 34 bc 1e 53 9b bd 88 aa 3e 3d
       -0.043928884 -0.011024848 -0.07584213 0.04654935
000280 06 dd a6 3c 27 e1 91 bd a1 c2 a9 3c ec 65 0b 3d
       0.020369064 -0.071230225 0.02072269 0.034032747
000290 fb e0 b3 bc e5 03 98 bd 28 71 8d 3c 21 22 16 bb
       -0.021957865 -0.07422618 0.017265871 -0.0022908526
0002a0 31 c3 f7 3c 4a 86 d4 3c 8b b9 49 b9 6c 1f 17 3d
       0.030244442 0.02594294 -0.00019237974 0.0368952
0002b0 84 1f 04 bd e6 d0 5c 3d e2 f3 21 3d f8 7f 08 bd
       -0.03225662 0.05391016 0.039539225 -0.033325166
0002c0 74 93 5b bd 49 7f be bc 51 97 b6 bc b5 b3 a5 3c
       -0.05360742 -0.023254054 -0.02228895 0.020227293
0002d0 b2 74 31 bc 7d 20 00 bd bf 5b b5 bd 7e fb 5d 3c
       -0.010831045 -0.031280983 -0.0885539 0.01354873
0002e0 df 7c 5f bd 13 f7 1c bc b7 b1 3c 3d e6 4e 00 3c
       -0.054562446 -0.009580391 0.04606792 0.007831311
0002f0 1e a8 24 bd de 1f 44 bd bd 74 28 bc 1d 49 3b bd
       -0.04019939 -0.047881953 -0.010281739 -0.045724023
000300 c9 5e 82 bc 9a 77 63 3d 22 98 2d 3d f3 ef 53 3d
       -0.015914338 0.055533983 0.042381413 0.051742505
000310 74 31 47 3c 25 fd 96 bd e0 36 d5 3b 82 32 41 3c
       0.012157787 -0.07372502 0.0065067858 0.011791827
000320 68 16 af bc d4 bf 9c bd 74 5d dc bc 87 c7 02 bc
       -0.021372989 -0.07653776 -0.02690003 -0.007982141
000330 40 98 cf 3c f9 aa 6b bd 4d d7 0d bd a8 03 99 bc
       0.025341153 -0.0575361 -0.034629155 -0.018678501
000340 16 0e e0 3c e6 57 bc bc 3f 9f c1 bc 9e 64 6c bd
       0.027350467 -0.022991132 -0.023635505 -0.057713144
000350 3e af 57 3d 90 1b e2 3c ab 93 af 3c 05 1e 04 3d
       0.05265736 0.027601033 0.021432718 0.03225519
000360 d1 d2 04 bc d5 3e 97 bb 3f 19 15 bd 57 e2 8e bd
       -0.008106903 -0.0046156445 -0.03640103 -0.06976765
000370 a5 d7 8a ba 3d 67 bd 3c 77 6e f2 3c 04 d2 53 3d
       -0.0010592832 0.023120517 0.02959369 0.05171396
000380 cd 31 44 bd 5c c8 bd bc ed 27 00 3c fc ce 69 bd
       -0.047899056 -0.023166828 0.007822019 -0.05708216
000390 07 75 54 3d ae b0 4b bc c5 ff 95 bc 18 30 7c bb
       0.05186942 -0.01243226 -0.018310437 -0.0038480815
0003a0 5a 04 52 3c a9 9a 94 bd eb a9 40 bd 88 74 43 bc
       0.01281842 -0.072560616 -0.047037046 -0.011929639
0003b0 97 93 44 3d 9c 21 60 bc fa 46 b7 3b 76 6a 6b 3d
       0.047992315 -0.013679888 0.005593178 0.057474576
0003c0 54 9d 54 3c c9 ea b0 bc 1c 0c 1e 3d 58 75 3b 3d
       0.012976963 -0.02159633 0.038585767 0.045766205
0003d0 af 1a 05 bd b5 d9 62 bd c1 14 e7 3b 05 40 0d bd
       -0.03249615 -0.055383403 0.0070520346 -0.034484882
0003e0 d8 3e 67 3d af ae 50 3d 7a 5b 1b 3d 84 44 2f 3d
       0.056456417 0.05094784 0.037929036 0.04278995
0003f0 ac 55 a1 bc 04 da 12 3d e6 f2 c0 bc b3 4b 23 3d
       -0.019694172 0.035852447 -0.023553323 0.039867114

fc.2.weight f4 [1, 300]
000000 de 46 ec 3a fb 7e 3e 3d b0 a5 39 3b ca 37 87 3c
       0.0018026491 0.046507817 0.0028327517 0.016506094
000010 4c 18 e7 bb c1 a8 5b bd 37 7e 64 3c ab 18 3f 3d
       -0.007052457 -0.053627733 0.013946108 0.046654385
000020 b6 30 b9 3b 38 85 2d bf 61 51 c9 bc 8a 62 77 bd
       0.0056515587 -0.677814 -0.024574937 -0.06039671
000030 f9 f4 0a bc 6b 00 5f b9 e5 f0 63 bd 06 5e 41 c0
       -0.008481258 -0.00021267093 -0.055649657 -3.0213637
000040 00 04 69 3c 0d 54 8c bd 97 30 e7 3c 5c f9 ac 3c
       0.014222145 -0.06851969 0.028221412 0.021114998
000050 83 9e e9 bc 4a ea 2d bc ad c0 29 bd 0e 69 02 3e
       -0.028517967 -0.010614941 -0.041443516 0.12735388
000060 c0 09 11 3c 44 b4 6c bc 3c ba 4a 3c 31 a1 19 3b
       0.008852422 -0.014447276 0.012373503 0.0023442025
000070 27 b1 45 3d fc 9c c1 3a f1 47 af be 15 c6 10 3d
       0.04826465 0.0014771516 -0.34234574 0.035345156
000080 31 e7 f1 3c 65 fd 77 3c 50 e6 3c bd 85 4f 92 3b
       0.029529186 0.015136098 -0.04611808 0.004465046
000090 67 38 b0 3c 04 66 e7 bb f9 28 c4 3c 2b a7 3a bd
       0.02151127 -0.0070617218 0.023945319 -0.04556958
0000a0 f6 4f 42 bd f9 e2 2e bd 18 f8 7c bf 98 ac 92 bc
       -0.047439538 -0.042696927 -0.9881606 -0.017904565
0000b0 67 b2 81 3c 97 77 27 bb ac 1c 4a 3d 04 fa 39 3d
       0.01583214 -0.002555346 0.04934375 0.04540445
0000c0 d3 50 4c 3d c3 7d 03 be 70 e8 ba 3c 8e c5 ac ba
       0.049881767 -0.12840943 0.022815913 -0.0013181434
0000d0 cb 59 7f be 24 75 94 bc 9b 3a d0 bc bd 85 2b bc
       -0.24936597 -0.018122263 -0.02541857 -0.010468897
0000e0 b3 49 34 3d 04 64 77 3c c7 2d ef bc 9a 47 4e 3d
       0.044015598 0.015099529 -0.029196633 0.050361253
0000f0 52 90 ef be f3 42 2b 3c 8d b5 bb bc ec 72 88 3c
       -0.46789795 0.010452974 -0.022913719 0.016656362
000100 3f db dd 3c 4c ab 36 bd f0 eb 52 3b 05 d5 47 bd
       0.027082084 -0.044596955 0.0032184087 -0.048787136
000110 69 87 07 3d 85 56 4e bc e2 e8 38 39 38 eb 7c bd
       0.03308812 -0.01259387 0.00017634363 -0.06174776
000120 68 38 82 3c 76 b9 9a ba 3b 9e 4c 3b 47 76 5a bc
       0.015896037 -0.0011804539 0.0031222242 -0.013333864
000130 13 26 e1 3b ec cc 1c b9 27 75 67 3c 7c b9 c9 3c
       0.006870994 -0.00014953659 0.014127052 0.024624579
000140 e2 d8 bf bc ff f1 47 bc c6 17 3d 3d d6 f9 03 c0
       -0.023418847 -0.012203692 0.04616525 -2.0621238
000150 8f dc cc 3b 4d 95 94 3c cf 93 1c 3a a3 2d e2 3b
       0.0062518786 0.018137598 0.0005972953 0.006902413
000160 cb 2f 03 3d bd 3a 9c bc 1d 48 1b bd b7 bb 0d be
       0.032028 -0.019070977 -0.03791057 -0.13841139
000170 a1 ce 42 bd ab aa f0 bf ee 47 98 3b b1 4b 2f bc
       -0.047560338 -1.8802084 0.0046472466 -0.010699199
000180 70 6d 2a bd e5 89 17 3b 7f d0 be bd 60 8a 04 3d
       -0.041608274 0.0023122963 -0.09317111 0.032358527
000190 a1 b6 5e 3d 31 f3 d5 bc 2f 4e 9a 3c 54 71 ca 3c
       0.054373387 -0.02611694 0.018836109 0.024712242
0001a0 e8 f2 2b bd 03 bc aa bb 11 40 21 3d cb 47 6f bd
       -0.0419797 -0.005210401 0.03936774 -0.058418076
0001b0 0c e6 57 bc e2 3a 55 3b 07 b3 2c 3d 04 b3 0e 3d
       -0.013177406 0.0032536318 0.04216292 0.03483869
0001c0 ef 7e 40 3c a8 bc 21 3b f3 e6 bf bd 68 eb 19 3d
       0.011749013 0.0024679098 -0.09370222 0.037578017
0001d0 d5 35 a0 bd ec ce 30 39 80 9c 28 3d fa f8 42 3d
       -0.07822768 0.00016861752 0.041164875 0.047600724
0001e0 c9 f8 08 be ce ed 8a 3c 90 70 71 bf 76 6b 6c 3d
       -0.13376154 0.016959097 -0.9431238 0.05771967
0001f0 27 df 8c bc 87 00 2d 3e 56 49 48 3d ce 12 4f 3d
       -0.017196251 0.16894732 0.048898064 0.050555043
000200 9f 8e 43 3c 07 e4 d7 3c 92 4d 15 bd 24 49 87 bc
       0.011935859 0.02635385 -0.03645093 -0.016514368
000210 d8 eb 3a 3b d3 18 e2 bc 4d 1c 11 bd 7e b5 a6 be
       0.0028521921 -0.027599728 -0.03542738 -0.32560343
000220 2b c9 c3 3c 36 e8 91 bc 5c 0b 96 3c 61 86 53 3d
       0.023899635 -0.017810922 0.018315963 0.051641826
000230 ff 0d 03 3c f5 13 51 bd 64 7d 2e bd 97 4f c2 bc
       0.007998942 -0.051044423 -0.04260005 -0.023719592
000240 e8 83 ea bd 8e f3 3b bd b2 3e bb 39 5e 6f 22 bd
       -0.1145094 -0.04588657 0.0003571413 -0.03965699
000250 47 8e 3d bd ff 00 84 3b ae b8 80 bd 3f 3e c0 bc
       -0.046278264 0.004028439 -0.06285225 -0.023467181
000260 3c 3a f8 bc 11 1e 0d bd d1 24 ce ba 2f bd 97 3c
       -0.030301206 -0.0344525 -0.0015727525 0.018522827
000270 72 98 33 3d 8b 82 24 3d 78 79 d7 be 0b ca 02 3c
       0.043846555 0.040163558 -0.4208486 0.007982741
000280 25 92 4e bb fa f1 3f bf 36 1d 43 3d c4 94 bb bc
       -0.0031520214 -0.749786 0.04763528 -0.022898085
000290 8e 2d 26 3c 84 94 45 3c 80 a3 88 bb 59 26 9e 3c
       0.010142697 0.012059335 -0.0041698813 0.019305395
0002a0 b1 6c 82 bd ad eb c4 3b e5 22 da 3c 25 92 43 bd
       -0.063683875 0.00600954 0.026627967 -0.047746796
0002b0 d5 17 f3 3c ae f6 81 bc 87 5d d2 bd db 47 3a 3d
       0.02967445 -0.015864696 -0.10271745 0.045478683
0002c0 d5 ed 36 3c ec 98 83 3c ff fc 9f ba 50 d3 8e bc
       0.011165102 0.01606413 -0.0012206136 -0.017434746
0002d0 dd f0 e8 bd e0 d8 b9 bf 4f 6d ce bf 8c e8 09 3d
       -0.11374066 -1.451931 -1.6127108 0.03366904
0002e0 33 5b 04 bd 41 d0 83 3c a2 9c dc ba 52 2e 60 bd
       -0.032313537 0.016090514 -0.0016831348 -0.054731674
0002f0 f8 f6 4d 3d 45 f3 50 39 77 b1 30 bd 9d 0e 8a bb
       0.050284356 0.00019927051 -0.043137994 -0.004213168
000300 26 64 4a bd 9f ad 9b 3c b4 f5 0b bd 73 27 f6 bc
       -0.049411915 0.019003687 -0.034169868 -0.030048108
000310 da f3 5e bd 71 99 4c bc 84 4b 91 bc fb 6a bc bb
       -0.054431774 -0.012487755 -0.017736204 -0.0057500578
000320 9f 2a 40 bd 81 c0 c9 3c d4 58 3b 3c 19 e8 80 bb
       -0.046915647 0.024627926 0.0114347525 -0.003933918
000330 cd 55 1e 3d 0b ae 15 bb e6 4b b1 3a bd 15 5b 3b
       0.038656045 -0.0022839333 0.0013526648 0.0033429705
000340 87 6d 9f 3c 0e fa 1e bd 92 7e 09 bb b9 36 38 3d
       0.019461406 -0.03881269 -0.0020979983 0.044974063
000350 38 48 5a bd 51 db 1f 3d 02 18 01 bb 4a 61 01 3d
       -0.05329153 0.039027516 -0.0019698148 0.031586923
000360 1a 2c 43 bb 9b 65 90 3c d4 d3 10 bd 36 5e 4d bb
       -0.0029780925 0.017626574 -0.035358265 -0.0031336672
000370 d5 e0 42 3d 00 9c 38 bd de c3 55 bd 42 7a eb 3c
       0.047577698 -0.04507065 -0.052188747 0.02874482
000380 1a 8d 27 3c 68 06 95 3b e7 c5 99 3c 89 f1 02 bd
       0.010226512 0.004547883 0.018771125 -0.031968627
000390 3a d6 85 bd d4 66 39 3d 82 4f b4 38 bb dc 0a b9
       -0.06535001 0.04526408 8.597878e-05 -0.00013242934
0003a0 01 cf 7a bb fd 1a 52 be 99 db b3 bc 41 01 0a bb
       -0.0038270357 -0.20518108 -0.021955298 -0.0021057876
0003b0 26 68 42 bb 0e 97 1b 3d f5 15 52 bd 3d 9d a0 bc
       -0.0029664128 0.037985854 -0.05129047 -0.019606227
0003c0 ea cf c0 bc c8 c2 b4 3a 7b 70 dd bc af 39 9a 3c
       -0.023536641 0.001379096 -0.027031174 0.018826334
0003d0 08 5b 04 38 c4 34 af bc ca e7 f0 3c 1d 86 61 3d
       3.1556032e-05 -0.021387465 0.0294074 0.05505954
0003e0 a5 07 80 bd 54 52 25 3c 83 66 07 3d 48 bc b1 bc
       -0.06251458 0.010090429 0.033056747 -0.021696225
0003f0 41 ba 59 3c 5e 12 15 bb 3b d9 04 be c7 2c 5e 3d
       0.013289035 -0.0022746543 -0.12973492 0.05424192
