model/LinnosTask11111-1_400.pth (torch, 376549 bytes, 5 tensors)

fc.0.weight f4 [300, 9]
000000 9e 15 d3 3e e1 ca 72 3f 34 bb be 3e 42 d4 85 3d
       0.4122743 0.9484082 0.372522 0.065346256
000010 0e 3b a9 3e 46 fa 6e 3f 3f 7b e9 3e d2 db 90 3f
       0.33052868 0.93350637 0.45601842 1.1317084
000020 97 45 07 3f 76 70 8d 3e 5a cc 4b 3e 05 d1 87 3d
       0.5284056 0.27624863 0.19902173 0.06631664
000030 af 13 74 3c 03 a9 16 3e bd fe a8 bf b6 0a 8d bf
       0.014897271 0.1471291 -1.320274 -1.1018894
000040 83 c9 20 3f b1 87 2d 3f 94 10 0b 3e e3 69 1a 3f
       0.6280748 0.67785174 0.13580543 0.6031782
000050 02 38 39 3f 65 10 06 3f c7 32 a8 3e ff 77 85 3f
       0.72351086 0.52368766 0.3285124 1.0427245
000060 56 1d e6 3e 35 54 62 3f 41 9c 55 3f 8a 52 9e be
       0.44944257 0.8840974 0.8344155 -0.30922347
000070 de e1 56 be d6 d3 ac bd 3e 0d 05 be c6 74 93 3e
       -0.20984599 -0.08438842 -0.12993333 0.2880003
000080 ce 3e 5d be 80 20 1d be 23 78 6e be fa d6 9f be
       -0.2160599 -0.15344429 -0.23288016 -0.31218702
000090 c3 22 25 bd 1c 12 8d 3e ea 3c 95 3e 34 61 77 3e
       -0.040316354 0.2755288 0.29148036 0.24158174
0000a0 35 52 56 3e 54 76 16 bf 8c c4 32 3f c1 6a bb be
       0.20929797 -0.58774304 0.69831157 -0.36604884
0000b0 3a 79 d7 be b3 da 1d be 9a f7 09 3f ac b5 da 3e
       -0.42084676 -0.15415458 0.53893435 0.4271673
0000c0 fe 7a 5d be 2e 6c 73 3d fd f6 5f 3f 2e 7d 4c 3f
       -0.21628949 0.05942934 0.8748625 0.7987851
0000d0 65 8e 3e 3f 97 5b 06 3f 68 de 19 3f 42 7f 82 3d
       0.74436027 0.52483505 0.6010499 0.06371929
0000e0 38 90 c6 3e fc 14 d8 3d 87 6f c6 3d 06 b4 df bf
       0.38781905 0.105508775 0.09689241 -1.7476814
0000f0 b7 07 ff 3e d2 ea 0d 3f 78 61 9c bf a2 f0 f9 3e
       0.49810573 0.5543643 -1.2217245 0.488164
000100 ae 66 70 3f 26 97 18 3f 38 9e 8e 3e 26 79 fe 3e
       0.93906677 0.59605634 0.27855086 0.49701804
000110 3f e1 81 3f e4 6b 60 3f 8b 84 0e 3f 90 80 d4 3e
       1.0146865 0.8766463 0.55670995 0.41504335
000120 b8 07 17 3e 5e 82 f1 3b 01 02 f5 3d 70 ec c5 3e
       0.14749038 0.0073702773 0.11963273 0.3865695
000130 5f f0 39 3d f5 31 29 bf c5 0a 1e be 7c 72 11 bf
       0.04539525 -0.66091853 -0.15433796 -0.56815314
000140 e3 c5 ff be 28 d5 04 3f 14 2a 0f 3e 72 d7 99 be
       -0.49955663 0.5188775 0.13980895 -0.30047184
000150 3f 2f 88 3e 34 3f 15 3e e5 92 17 3b ab 1d 3f 3c
       0.26598546 0.14574891 0.0023128327 0.011664788
000160 f8 64 e6 3d 11 21 17 c0 b4 01 91 3e f7 93 61 3e
       0.11249727 -2.3613932 0.28321612 0.220291
000170 f6 60 b2 3e 14 23 93 3e 26 8f ad bb 0b fb d1 bf
       0.348396 0.287377 -0.0052966056 -1.6404737
000180 f4 28 2e 3f 77 2f 14 3f 14 e8 86 bf e0 8b 44 be
       0.6803124 0.57884926 -1.0539575 -0.19193983
000190 f7 8d a0 3e 1b ff 65 3e 76 d4 14 be 1b d1 ab bd
       0.3135831 0.22460596 -0.14534172 -0.08389493
0001a0 a6 93 a2 be 56 53 c4 bb a6 85 80 be 17 a5 83 be
       -0.31753272 -0.0059913797 -0.25101966 -0.2571189
0001b0 6b 75 96 bc 80 ff 4c 3d 4e c9 0b be 20 8a 4a 3e
       -0.018366536 0.05004835 -0.1365101 0.19779253
0001c0 f6 b6 4f be 9b db 9a 3e 6b ea 69 3e 98 eb 8f be
       -0.20284638 0.3024567 0.2284333 -0.2810943
0001d0 b0 e7 a9 bd 01 42 8d 3e 28 66 7e 3b 88 6f 69 3e
       -0.08296144 0.2758942 0.0038818214 0.22796452
0001e0 5c 62 e6 3e bd 09 34 3e 52 38 45 be 45 b3 82 3e
       0.44996917 0.1758184 -0.19259766 0.25527397
0001f0 3a c4 07 c0 97 e0 08 be 50 e4 aa bd 9e 44 26 be
       -2.1213517 -0.13366924 -0.083443284 -0.16237113
000200 d0 d1 ee bd d2 e1 8b be ab 36 91 bd a6 ec 91 3d
       -0.11661112 -0.27320725 -0.07090505 0.07125215
000210 f3 5d 5e be d6 22 8c bc 00 58 74 3e 56 12 d6 bb
       -0.21715526 -0.017106455 0.23861694 -0.0065329475
000220 c2 8d c8 3e a1 87 80 3e da b8 fa bb 82 d7 8b 3e
       0.39170653 0.25103477 -0.0076514306 0.27312857
000230 7d 0f 67 3f da ef 20 3f 49 e2 64 3f 54 35 fc 3e
       0.9025801 0.62865984 0.89407784 0.49259436
000240 44 50 99 be 80 d1 21 be 68 6a 68 3e ab 9c 0d bb
       -0.2994405 -0.15802574 0.22696841 -0.0021608274
000250 93 a8 29 be ac c8 82 be 00 b8 9f be 48 0b 90 be
       -0.16568212 -0.25543725 -0.31195068 -0.28133607
000260 4b 78 8a bd 73 30 3b 3e f0 89 38 3e ac 98 a4 be
       -0.06761225 0.182802 0.18021369 -0.3214773
000270 e8 ea 54 3e 5c 8c 85 be a0 52 90 bd be 66 0a be
       0.20792735 -0.26083648 -0.070470095 -0.13515756
000280 f6 7d 83 bd 60 09 86 bd d8 92 9c be 34 c9 96 be
       -0.064205095 -0.06544757 -0.30580783 -0.2945038
000290 f1 0d 71 bd 88 29 31 bb 44 f6 21 be 29 87 f6 3d
       -0.058851186 -0.0027032811 -0.15816599 0.120374985
0002a0 50 46 9c be 63 48 ea bc 30 4f 92 3e e5 74 87 bd
       -0.30522394 -0.02859897 0.2857604 -0.06614093
0002b0 ec 98 e0 3e 1f 9e 12 3e 15 4a 65 be 78 c4 ac 3e
       0.4386667 0.14318131 -0.22391541 0.33743644
0002c0 4b 42 ce be e7 4b d0 be 6f 32 5d 3f 2e 55 a8 be
       -0.40284953 -0.4068291 0.8640508 -0.32877487
0002d0 1e 9c a1 3e 22 33 f2 3d b0 73 df 3e 4b d2 90 3e
       0.3156442 0.11826159 0.4364295 0.2828544
0002e0 59 f1 96 3e ff 80 34 3f f4 35 87 bf f1 e7 d7 be
       0.2948101 0.7050933 -1.056334 -0.42169145
0002f0 a1 2e 5c bf 79 6a 44 3e 26 1c 36 bd 43 16 2e 3d
       -0.8600865 0.19181241 -0.04446044 0.0425017
000300 ac f6 02 be 4d 24 e1 3b 84 80 0d bf 0d c1 ad be
       -0.1278941 0.0068707825 -0.55274224 -0.3393635
000310 9e 71 14 bf be 09 2c bd a7 06 b0 3c fb a9 93 3e
       -0.57985866 -0.04200148 0.021487547 0.28840622
000320 0d 49 38 3e cb 7c ee 3e 4b fc e1 3d 45 ab a4 bf
       0.17996617 0.46579584 0.11034449 -1.2864767
000330 23 c4 a4 bf a0 e3 4f 3f 63 53 ae 3e 13 87 8b 3e
       -1.2872356 0.81206703 0.34047994 0.2725149
000340 59 13 44 be 85 00 2b be 8d 9e 85 3d 9d 06 08 be
       -0.19148006 -0.16699417 0.06524382 -0.13283773
000350 23 5a 8f be 46 b1 89 be 9f 1e c8 be 5f 08 15 be
       -0.27998456 -0.2689306 -0.39085862 -0.14553975
000360 2e 55 87 3d 41 fc c6 bd 2d b4 e2 3e eb 7b 96 3b
       0.066080436 -0.09716082 0.44278088 0.004592409
000370 a6 ed 33 3e 87 38 49 3f fd 1a 01 3f 79 60 38 bf
       0.17571124 0.7860188 0.50431806 -0.72022206
000380 5a 80 b6 bf d6 e7 46 3e 1f 41 28 3e e2 11 28 3e
       -1.425792 0.19424376 0.16431092 0.16413072
000390 51 70 ef bd b6 3f 8c 3d f4 c0 2b 3f aa f9 3f 3f
       -0.116913445 0.068480894 0.670913 0.7499033
0003a0 1d 67 33 3f c9 21 53 3f ff dd af 3e c9 42 4b be
       0.70079213 0.8247343 0.34349057 -0.19849695
0003b0 1e b2 42 3e f8 53 4e bc d8 5b 4c 3e 3d b7 9e bf
       0.19013259 -0.012593262 0.1995691 -1.239967
0003c0 51 88 0e 3f 2f 8c 3b 3f 3a 99 50 bf ab e2 0b 3a
       0.5567675 0.7326078 -0.81483805 0.00053362054
0003d0 f8 b9 2f 3e e7 0c a5 be 03 c7 76 3e cb 20 8d be
       0.17160785 -0.32236406 0.24099354 -0.27564082
0003e0 ab 8a 96 3b 2b 21 68 bd 63 c5 33 be 20 75 34 3d
       0.004594167 -0.056672256 -0.17555766 0.04405701
0003f0 a2 20 8d 3e 8b 8e c7 bd c8 a5 4a be 06 7a fc bd
       0.2756396 -0.09743985 -0.19789803 -0.123279616

fc.0.bias f4 [300]
000000 8f 3b bf bd c8 bc 9e 3e 67 d4 42 be d3 e3 85 be
       -0.09337532 0.31003404 -0.19026338 -0.2615038
000010 b7 c9 fb bd 6d 4d 17 bf c7 fd c6 3e f1 7c 77 bd
       -0.122943334 -0.5910252 0.38865492 -0.060421888
000020 9a 92 35 3f f7 1c 4b 3f 2b a1 5a 3e cb fa 85 be
       0.7092682 0.7934107 0.21350543 -0.26167902
000030 cc 15 a0 be 58 f4 26 3f e3 c8 99 be a1 35 66 bf
       -0.3126663 0.6521659 -0.30036077 -0.8992558
000040 cb 80 2c be 33 18 90 be 78 16 0e be 0b 36 29 be
       -0.16846006 -0.28143463 -0.13875759 -0.16524522
000050 29 59 bf 3d 2d 11 58 3f 17 65 8b 3e 8a cd 3d 3f
       0.09343178 0.8440121 0.27225563 0.7414175
000060 08 cb 53 3e cb 02 fd be 53 f7 40 3e 8e fe 73 be
       0.20682919 -0.49416193 0.18844347 -0.23827574
000070 2e 1f 89 be 19 af 01 bd cb 5e d2 bd 83 65 a6 be
       -0.267816 -0.031661127 -0.102719866 -0.32499322
000080 a2 75 43 3f 0c c5 d9 3d 43 67 64 be 34 27 86 be
       0.7635137 0.10633287 -0.22305016 -0.26201785
000090 00 55 e1 bd 7b e2 66 bf f4 f4 39 3f 5a 00 c3 3e
       -0.110025406 -0.9018933 0.72639394 0.38086206
0000a0 ea d7 b5 3e 6f 74 91 be 8c ef ca be c8 52 a0 be
       0.35516292 -0.28409144 -0.39635885 -0.31313157
0000b0 ee 41 01 be 5b bd bd be e0 27 e8 3c 66 7e 8f 3d
       -0.12622806 -0.3705853 0.028339326 0.070065305
0000c0 a5 67 3b 3f aa 44 53 3f 77 e6 5d be 4b f9 2a bd
       0.73205024 0.8252665 -0.21669947 -0.04174165
0000d0 9a dc c4 3e 96 4f 77 3e bc b8 72 be d7 0f 40 3f
       0.38449556 0.24151453 -0.23703283 0.7502417
0000e0 49 9d db be 75 f7 98 bc ea 25 03 bd 5c 53 80 bd
       -0.42893437 -0.018672684 -0.03201858 -0.062658995
0000f0 ef 66 21 3f eb b3 9c be e8 2f 16 3f 84 37 05 bf
       0.6304769 -0.30606017 0.5866685 -0.52037835
000100 a7 30 03 3f 3b 63 a9 3e 19 fc 3b 3f 39 72 5d 3f
       0.5124611 0.3308352 0.73431545 0.86502415
000110 fd 13 6a be 86 52 5c 3e ff f4 5f bd 9a 32 8a bd
       -0.22859187 0.21515855 -0.054677006 -0.06747933
000120 b7 5d a0 3d 6c 40 14 be 34 5c 0a 3e 96 1a e5 3a
       0.07830375 -0.144777 0.13511735 0.0017479237
000130 1f 11 3c 3f 7d ce 2e 3f 95 f2 0a 3e fb 74 09 be
       0.73463625 0.68283826 0.135691 -0.13423531
000140 5c 84 9b be 37 45 54 3f 5b 74 d5 be ef 46 51 be
       -0.3037442 0.82918113 -0.41690335 -0.20437215
000150 3f 76 74 3e 29 a3 e8 bd 0a 09 76 3e 51 e0 3c 3f
       0.23873232 -0.11359245 0.24026886 0.7377978
000160 8d fd 2b 3d 14 68 b8 be 89 0d 29 3f 7b 49 14 3f
       0.04198985 -0.36016905 0.6603628 0.5792462
000170 4e 99 8f be e6 b4 a9 be 1a 70 1e bf 1b a0 2b 3c
       -0.2804665 -0.33145827 -0.61889803 0.010475184
000180 63 b2 72 be e9 31 4a 3f 8b c0 33 3f 51 90 cc be
       -0.23700862 0.78982407 0.7021567 -0.39953855
000190 28 71 d8 be 4e 91 75 be c3 83 fd 3e 11 37 ae be
       -0.4227383 -0.2398121 0.4951459 -0.34026387
0001a0 57 06 d4 3e cb 0f 5b 3e 68 df e4 bd 7d 60 1f 3e
       0.41411087 0.21392743 -0.11175424 0.15564151
0001b0 cb d1 81 be 4a de f7 3e 83 ab f9 3e 91 4b 02 3f
       -0.25355372 0.4841178 0.48763666 0.50896555
0001c0 8a 49 15 bf 87 d1 5f 3f de 99 a7 be b3 b7 45 3e
       -0.58315337 0.8742909 -0.3273458 0.19308357
0001d0 b2 bf e9 bc 4a 44 3b bf c4 a7 97 be 55 40 89 3e
       -0.02853379 -0.73151076 -0.29620183 0.26806894
0001e0 ac b0 46 bf c9 9a 46 3f ae 76 91 3e 77 98 20 3f
       -0.7761333 0.77579933 0.28410858 0.6273264
0001f0 30 03 57 3f 24 11 28 3e 1f 9a f3 ba 6f c4 97 bd
       0.8398924 0.16412789 -0.001858536 -0.074105136
000200 25 c9 fa 3e e0 b8 2a be 2d 1b 20 be 2d 42 90 3e
       0.48981586 -0.16672087 -0.15635367 0.28175488
000210 5b 11 52 be ff f9 41 3f 8e 81 3f 3f 46 cf a4 be
       -0.20514433 0.7577209 0.7480706 -0.32189387
000220 fb 19 a7 be 1b 79 04 3f 1a 02 74 bd ed 0e a7 be
       -0.3263701 0.5174729 -0.059572317 -0.32628575
000230 59 66 3c be b6 5e 8e be 26 24 91 be 7c f3 06 3f
       -0.18398418 -0.27806634 -0.28347892 0.5271528
000240 db 62 f1 be ae d4 28 be 83 e1 9e be 23 8e 0c 3f
       -0.47145733 -0.16487381 -0.31031427 0.54904383
000250 e2 cd c3 3e 1a 49 35 bf e8 e7 da be 9f 6a 36 be
       0.38243014 -0.7081467 -0.42755055 -0.1781411
000260 fe 8b 77 be e6 d8 69 be 4a 4a da be 57 5f f0 3e
       -0.24174497 -0.22836646 -0.42634803 0.4694774
000270 b3 72 e3 bd 11 02 9a 3e e7 d9 26 3f 41 23 41 3f
       -0.111058615 0.30079702 0.6517624 0.7544442
000280 26 b9 3e 3e e8 3d 4b 3f 7b 39 01 be 78 e5 62 be
       0.18625316 0.79391336 -0.12619583 -0.22157848
000290 75 51 0f be a0 82 e5 be 5f df 2b 3f 68 5d a1 be
       -0.13995917 -0.4482622 0.6713771 -0.31516576
0002a0 96 37 00 be 53 84 ba 3e f0 20 79 3d 8d 7e 17 bf
       -0.12521204 0.3642908 0.060822427 -0.59177476
0002b0 50 d1 a0 be 87 d7 ea 3e fb 0a 87 bd 03 b4 8f be
       -0.31409693 0.4586756 -0.06593891 -0.28067026
0002c0 65 f1 8f be ec c4 0c bf b8 fa f9 bd 4b ae 85 be
       -0.28113857 -0.5498798 -0.12206024 -0.26109537
0002d0 0c 6d 0f bf 1d 2f 0e 3f 17 2b c7 bd 4f 87 cf 3e
       -0.5602577 0.5554064 -0.097250156 0.4053292
0002e0 33 64 19 3f 64 42 2b 3f 1d 5c 01 be d1 da 44 3f
       0.59918517 0.6689818 -0.12632795 0.7689639
0002f0 01 1f a5 3c 7a f9 96 be 40 41 3e be db 69 8f bc
       0.020156385 -0.2948721 -0.18579578 -0.01750653
000300 0b 9f ad be 1b c3 2d 3f 26 d4 2e 3e 08 8e 4f 3f
       -0.33910403 0.6787583 0.17073116 0.810761
000310 88 03 1c 3f 97 97 4c bf 25 c3 63 3f 0f a9 38 be
       0.6094289 -0.7991881 0.8896964 -0.1803324
000320 83 93 61 3f fc 82 49 be 3d 66 38 3f 05 8d 4d 3f
       0.8811571 -0.19678873 0.72031003 0.80293304
000330 0a 4e 29 3f 46 6a df be 60 98 36 be a1 8b 34 bf
       0.66134703 -0.43635768 -0.17831564 -0.70525557
000340 f5 f5 21 3e 40 6b db bd bc 03 a5 3e e8 20 89 be
       0.15816481 -0.10713816 0.32229412 -0.26782918
000350 6d 50 37 3f cd 8b 56 bf 7c a5 2f 3f 41 c4 3b 3f
       0.71607095 -0.8380707 0.68611884 0.73346335
000360 c4 dd 2b bf 7f b4 42 3f e3 bd 7d be a9 8c 3c 3e
       -0.6713526 0.76056665 -0.24779467 0.18413033
000370 2c 33 27 3f 07 bc 1c 3d 11 2c bd 3c 00 c3 29 bf
       0.6531246 0.038265254 0.023092302 -0.6631317
000380 2c cf 8d bd 54 a5 37 bd 84 30 94 bd 8e 39 49 3f
       -0.069242805 -0.044835404 -0.07235816 0.78603446
000390 3c 11 49 3f a3 6c 01 3f 88 cc 39 be b2 d3 90 be
       0.7854192 0.5055639 -0.18144429 -0.2828651
0003a0 70 6f 50 3f ea c1 1c 3e d5 75 d8 be 04 d2 87 be
       0.8142004 0.15308347 -0.422774 -0.26527417
0003b0 4b d4 4f 3f 10 3c f6 bd e9 d4 46 3f 2c 9f fa 3e
       0.8118331 -0.12023175 0.77668625 0.48949564
0003c0 63 9e 67 be 9b ba 38 be 8d a9 ec 3e 24 00 39 3f
       -0.22619013 -0.18039934 0.46223107 0.7226584
0003d0 70 e2 3a 3e 96 14 21 be 5e 38 3b 3f a2 82 16 3f
       0.18250442 -0.15730509 0.73132885 0.5879308
0003e0 f7 0d 3c bf 31 4c c8 3e 6d 9c bd be bb c1 92 be
       -0.7345881 0.3912063 -0.37033406 -0.2866343
0003f0 16 86 2a 3f 34 d6 87 be 3d 43 51 3f 2e fa 4f 3f
       0.6661085 -0.26530612 0.8174322 0.8124112

fc.1.weight f4 [300, 300]
000000 58 4a 92 3b 5f db 0a 3e 94 d0 05 bc 03 57 28 3d
       0.004464429 0.13560246 -0.008167405 0.041098606
000010 18 35 b8 3e bf e0 68 be 53 92 e2 bc 5c d6 37 3d
       0.35978007 -0.22741984 -0.027657663 0.044882163
000020 86 ce 2e 3d e4 ec 94 bb 8c b6 30 3e 9d f9 53 bb
       0.042677425 -0.004544841 0.17257136 -0.0032344826
000030 0d 67 b5 bc 7d ac 69 3d 35 ba 52 bd f5 9f 86 bf
       -0.022143865 0.057049263 -0.051447112 -1.0517565
000040 a8 34 6c 3d 8c 21 81 bc b7 be d3 3c 1f 28 ef 3e
       0.057667404 -0.015763067 0.025847776 0.46710297
000050 66 fc 03 3e 8c 52 47 3c f2 4a 14 3e 26 68 f5 bc
       0.12889251 0.012165677 0.14481714 -0.029956888
000060 a2 e3 bb 3e 56 5b 20 be d1 c5 bd 3e 21 ac ca bc
       0.36697108 -0.15659842 0.37064984 -0.02474028
000070 98 3e 58 3c 89 4e 20 bc 62 87 ec 3c 1a 79 79 3a
       0.013198517 -0.009784349 0.02887315 0.0009516642
000080 00 cb 35 3d ed ce 02 be 52 c5 0a bd e5 54 b5 3c
       0.04438305 -0.12774248 -0.033879586 0.022135207
000090 bd 2c 49 3d 2f 51 42 bf d5 04 a1 3c a6 63 da bc
       0.04911493 -0.75905126 0.019655624 -0.026658844
0000a0 c3 a9 00 3e c7 31 6c bc 31 31 ab 3d 73 ce a3 bc
       0.12564759 -0.014416165 0.08358992 -0.019995904
0000b0 a8 81 55 bc 50 72 61 3d ae 11 3b 3f eb 9d a9 be
       -0.013031401 0.055040658 0.7307385 -0.33128294
0000c0 ab f6 af ba db 94 c5 bc 31 eb af 3c 89 85 97 3c
       -0.0013424953 -0.024118831 0.021474453 0.018496292
0000d0 6f f8 98 3d 42 e2 8c 3e a7 b5 16 3f 72 93 f6 3c
       0.0746926 0.2751637 0.5887093 0.030099604
0000e0 99 39 59 3e 0f 30 51 3d ff bc 73 3e 83 a6 ce be
       0.21213378 0.051071223 0.23802565 -0.40361413
0000f0 05 05 b5 3d 71 7c e2 bc 02 9f 5f 3d 0e 18 1f 3d
       0.08838848 -0.027647229 0.054595 0.0388413
000100 a0 87 7c bd d6 04 d2 3d df 17 8d 3d 58 a4 2b bd
       -0.06165278 0.10254829 0.06889319 -0.041904777
000110 df 86 3e 3d a2 c3 4f bd f8 ec 9d be bd ee 3f 3d
       0.04651534 -0.05072368 -0.30844855 0.046858538
000120 a1 9e cc be c5 b8 4f 3d b9 1a 21 3e 06 8c 17 bc
       -0.39964774 0.05071332 0.1573285 -0.009249693
000130 23 08 5f 3d 0c 5c 4e bc f7 04 0b 3f d5 b7 b3 bb
       0.05445112 -0.012595188 0.5430445 -0.005484561
000140 27 df 3b 3c dc bf 1a 3d 5d c2 90 bb d8 fa 04 3e
       0.011466778 0.037780628 -0.004417701 0.12986314
000150 df af c8 3e 2e 61 00 3d bf 31 c6 3d f1 38 c6 bc
       0.3919668 0.031342678 0.09677457 -0.024197074
000160 13 fd da be b0 c7 24 3e 8c 20 59 3c 92 35 87 3d
       -0.42771205 0.160918 0.013252389 0.066020146
000170 4c 10 15 3d 35 5d 18 bb 2a 52 c8 3d c0 ef bf 3c
       0.036392495 -0.0023248915 0.097812966 0.023429751
000180 1e a4 e4 bc d1 1f 9c 3c 4c e4 a7 bc 99 03 d0 3d
       -0.027910288 0.01905814 -0.020494603 0.10156936
000190 8c 04 c9 bc 17 a6 7e bc 8c cb a0 3d 77 3e d7 3d
       -0.024538301 -0.015542529 0.078513235 0.10509961
0001a0 89 aa f5 3c 90 6f b9 bd ba bc 2e bd 6f 76 bc 3e
       0.029988544 -0.09054482 -0.042660452 0.36809108
0001b0 5e 9f 54 3d bf cb 93 3d e5 00 d2 3a af 20 92 3c
       0.051909797 0.07216596 0.0016021995 0.01783785
0001c0 fc 7c 76 be 23 d9 65 3c 0b 61 bc 3d 9b b3 78 bd
       -0.24071115 0.01402882 0.09198197 -0.06071816
0001d0 3f 01 e1 3e c7 83 41 be a8 3f 02 3e 48 95 06 3e
       0.43946263 -0.18897925 0.12719595 0.13142884
0001e0 08 6f 4d bf cb 5b c7 bc 68 a9 22 3e 4e 7d 83 bc
       -0.80247545 -0.024335762 0.15884936 -0.01605096
0001f0 19 4a 3a 3d 52 41 b9 3e f9 6f e0 be 0e cc ad bc
       0.04548082 0.36182648 -0.43835428 -0.021215465
000200 5d 25 ca 3d 08 6e 05 3c c0 c9 cb be 54 a1 1a 3e
       0.09870408 0.008143909 -0.3980236 0.15100604
000210 dd d4 03 3d 3f 58 18 bd 6b a0 1c 3d 8b ee e3 3d
       0.032185424 -0.037193533 0.038238924 0.11129483
000220 bb 3b ba 3d 72 7e 67 3d ef 7d 92 bd 9d 67 8e 3d
       0.09093424 0.056517072 -0.07152926 0.069533564
000230 87 bb 11 3b 3f 8a 5b 3d ec 6d 4c 3d e9 b5 7c 3d
       0.002223702 0.05359864 0.049909517 0.06169692
000240 0b c9 55 bd ea 0b 5e bd fc 22 08 bd c3 18 b6 3c
       -0.052193683 -0.05421058 -0.03323649 0.022228604
000250 60 90 6c 39 b3 aa 26 bf 0a 53 9e 3d 83 c2 2e 3d
       0.00022560498 -0.65104216 0.07730682 0.04266597
000260 8e 5e 6b bd b7 19 fe bc 67 64 30 be c5 d0 bf bc
       -0.05746322 -0.031018121 -0.172258 -0.023414979
000270 fe 04 46 3d b1 81 8a 3c 0a 98 80 bc 52 27 ac bc
       0.048344605 0.016907545 -0.015697498 -0.021014843
000280 7f 88 a5 bd ef 78 bd 3b ef e6 ce bc 68 b1 90 3d
       -0.08082675 0.0057822387 -0.025256602 0.070650876
000290 0d 74 39 3c 47 d8 30 3e 6d 2b 2e 3d 11 c8 cc bc
       0.011319173 0.17270003 0.042521883 -0.024997743
0002a0 d2 89 3d bd c6 48 5f 3d 1a 8b 09 3e a6 11 61 3e
       -0.046274014 0.05451276 0.1343197 0.21979389
0002b0 e2 55 01 3c 81 f3 b8 bc 63 d1 00 3d c7 56 26 bd
       0.007894011 -0.02257705 0.031449687 -0.0406101
0002c0 ce 20 b8 3d de 0d c2 be 9f 0f 11 3d 91 16 68 bd
       0.08990632 -0.37901205 0.035415288 -0.056662146
0002d0 b0 73 9b 3d 15 4f 0a 3d b2 fb a8 bc 26 2c 6f 3d
       0.07590425 0.033766825 -0.02062783 0.058391713
0002e0 7a c2 0b 3c 3e cc 71 3d da 99 e2 3e b3 c0 ba 3c
       0.008530254 0.05903267 0.44258004 0.022796964
0002f0 c5 7e 8c bc 9c 20 69 bc 67 4d 73 3d 9f a9 21 bd
       -0.017150292 -0.014228966 0.05939999 -0.039468404
000300 96 e4 01 3e 4a b8 17 3d 09 35 e2 3e 7d 91 14 3d
       0.12684855 0.037040986 0.44181088 0.03627156
000310 ec f4 26 bc 75 75 63 bf 9a 45 21 3c be c9 be bc
       -0.01019023 -0.888511 0.009843254 -0.023289558
000320 c4 3a d8 bb f3 83 95 39 d1 89 51 bb 4c 5e 23 bd
       -0.0065988023 0.00028517804 -0.0031973014 -0.03988485
000330 6f d4 03 bd 31 09 13 3e c1 d2 cc 3a ca 6a 60 bd
       -0.032185014 0.14358975 0.0015626774 -0.054789342
000340 c1 cc 20 3e 76 c3 00 3d ae 27 32 3d bd ca 44 3d
       0.15703107 0.031436406 0.043494873 0.04804491
000350 54 10 58 bc e0 94 a0 bf ea 5d 74 bc d2 4a ae 3c
       -0.013187487 -1.2545433 -0.014914969 0.021275911
000360 03 b4 1f 3e 29 13 f1 3b 87 31 0a 3d e5 de ce 3e
       0.15596013 0.0073570204 0.03373864 0.4040443
000370 6a af a4 bb 14 2d e3 3e 2d 96 64 3d cb 61 b4 be
       -0.005025794 0.4437033 0.05580728 -0.3523086
000380 c2 10 56 bd f5 d3 8e 3e 00 87 98 3e 27 f7 cb 3c
       -0.052262075 0.27896085 0.29790497 0.024898125
000390 44 d7 95 3d 30 c9 0f 3d 15 90 09 3d 23 0d 01 bb
       0.07316449 0.035103977 0.033584673 -0.0019691668
0003a0 9d 3d 55 3d d2 5c 98 3e 9f ff d5 3d 71 44 e1 bc
       0.052060712 0.29758316 0.104491465 -0.027498456
0003b0 2d c6 71 bc dc 73 4b 3d 10 a6 25 3d 94 23 e9 3c
       -0.014756721 0.04967104 0.040441573 0.028459348
0003c0 fe a3 3f ba 14 a8 5c bc fd 2d 54 3d 23 cc 64 3d
       -0.00073105085 -0.013467807 0.05180167 0.055858742
0003d0 2f 87 cb 3e db d5 64 bd 36 50 c0 bc c4 a6 af 3d
       0.39751574 -0.05586801 -0.023475748 0.0857673
0003e0 a3 ad 22 be 61 f5 3f 3d 19 a6 df 3d 8a 09 ff 3c
       -0.1588655 0.04686487 0.109203525 0.031132478
0003f0 df 02 b2 bc 40 7b 5e bd 2c 96 c1 3c 94 ae 20 3d
       -0.021729885 -0.05431676 0.023631178 0.03922899

fc.1.bias f4 [300]
000000 65 d9 12 3d c2 d0 a4 3c 94 25 f8 bb eb a5 24 3b
       0.035851855 0.020119075 -0.007572839 0.002512331
000010 38 a1 ab 3d 82 0c 87 bd 00 2e 99 3c 41 54 0f 3d
       0.083803594 -0.065941826 0.018698692 0.03499246
000020 aa 49 c6 3c 00 6e dc ba ff 8b d3 3d 8c 21 39 3d
       0.024205048 -0.001681745 0.103294365 0.04519801
000030 a8 b1 16 3d 61 65 8c bc af 70 b7 3d f8 7e 97 be
       0.03679052 -0.017138185 0.089570396 -0.29589057
000040 1b 34 f2 3c 8e 8e 3e bb 5a ee 33 bc 7c 4e 1f bc
       0.029565861 -0.0029076668 -0.01098212 -0.009723302
000050 e9 7e 06 bd 7d d3 8a be e1 0b 32 3d da 92 61 bc
       -0.032835875 -0.27114478 0.04346836 -0.013767922
000060 7d c3 4f 3d 95 dc bd 3c 8e f1 a2 bc c6 3c ab bc
       0.05072354 0.02317647 -0.019890573 -0.020903002
000070 4f 1a 28 3d 9c 19 a3 3c 15 93 41 be 0b bf 03 bd
       0.041040715 0.019909672 -0.18903764 -0.032164615
000080 9b 09 f4 3b 7f b5 32 3b 54 3d 75 bb 47 e9 2e 3b
       0.007447434 0.0027268825 -0.0037420588 0.0026689337
000090 5e 46 9e 3c 6f 0e 70 bb 44 99 a7 3b b0 60 a8 bc
       0.019320663 -0.0036629697 0.0051147062 -0.020553917
0000a0 e2 92 fa bc 83 db 18 b9 52 2f 63 be 67 46 12 bd
       -0.030587617 -0.00014577624 -0.2218602 -0.035711672
0000b0 d4 31 58 bc 6f ae 01 ba 95 26 cb bc a1 99 f9 3c
       -0.013195474 -0.0004946952 -0.02479867 0.030468764
0000c0 22 e3 8a be 73 4d c8 3d 53 fb 96 be 0b 27 21 bd
       -0.27126414 0.09780397 -0.2948862 -0.039343875
0000d0 1f c0 21 be 4c dc ad 3d c8 2c c5 3d eb 73 96 3c
       -0.15795945 0.08489284 0.09627682 0.01836582
0000e0 71 f2 f8 3c 08 70 c9 bb 63 fd a4 bb fb 70 cf 3c
       0.030389043 -0.0061473884 -0.005035089 0.025322428
0000f0 28 21 87 be f8 76 e4 3b 26 47 96 bc 23 66 0a 3d
       -0.26392484 0.00697219 -0.018344473 0.03378881
000100 a2 71 0b 3d f7 45 c2 3d 89 0a 3f bd e0 29 3a be
       0.034043916 0.09486001 -0.046640906 -0.18180037
000110 7f c0 3c 3c 7b 5c 56 bd ba 3a ba be 28 bb 4d 3d
       0.011520504 -0.05233429 -0.3637293 0.050227314
000120 ff 00 ee bb d8 1d 0d 3c 31 7a a1 bd a5 6d 41 bd
       -0.0072633023 0.008613072 -0.07884634 -0.047223706
000130 25 e9 a1 3c 4a f4 10 3d ec 2a 9d 3c c9 5e 5b 3d
       0.019764492 0.035389222 0.019185506 0.05355719
000140 2f ee b6 3b 84 95 57 bc 70 6a 55 be 69 e8 9c be
       0.005582593 -0.013158206 -0.20841384 -0.30646065
000150 50 6d 06 3c 0c 26 56 3d 98 c1 38 3d c6 23 29 bd
       0.008204773 0.052282378 0.0451065 -0.04129388
000160 ce fb b0 bc 2d 75 54 bd f5 1f 8b be df 5b 7e be
       -0.021604445 -0.05186956 -0.2717282 -0.24839734
000170 26 f0 30 bd e7 4e 85 be c1 25 b4 3a 13 70 9e 3d
       -0.043197773 -0.2603676 0.0013744162 0.0773622
000180 18 24 8a 3a 2e 00 09 bd 79 23 17 be 2c 97 b2 bd
       0.0010539321 -0.033447437 -0.14759625 -0.0872024
000190 c3 6f 35 3d 0e f2 aa bc b8 46 de ba 17 92 73 3c
       0.044296037 -0.020867374 -0.0016958332 0.0148663735
0001a0 91 bf 45 3d c9 87 29 bd b5 98 fc bc 38 6a cf 3d
       0.048278395 -0.04138926 -0.030834535 0.101276815
0001b0 de 2d c5 bb 93 9f 0e 3d 09 63 a7 3c c3 78 2f bd
       -0.0060174307 0.03482015 0.020432966 -0.042839777
0001c0 fa cd eb bb 94 32 11 3d cb 3b 6e 3c 13 50 09 3d
       -0.007196185 0.035448626 0.014540623 0.03352363
0001d0 12 5a e2 3d eb 13 ed bc 1f 77 cd 3c 1c 28 79 bd
       0.11052336 -0.028940162 0.025081215 -0.060829267
0001e0 0c 59 d5 3c 37 6e 84 3b b2 92 66 be b9 c4 b3 bd
       0.026043437 0.004041459 -0.22516897 -0.08777756
0001f0 60 46 9c 3c 1c 46 05 bd 22 a3 01 bd da 9b 29 3b
       0.019076526 -0.032537565 -0.031649716 0.0025880248
000200 d2 5f 06 3d 94 a3 4f bc fc 4d ac 3d 55 35 82 bd
       0.032806225 -0.012673277 0.08413312 -0.063578285
000210 64 20 45 3d 94 3c 32 3c bb 6a ed 3c 10 1f 5c be
       0.048126593 0.010878701 0.028981557 -0.21496224
000220 a4 a1 68 3c 91 cc 51 be 4f 74 44 bd a9 e9 29 3b
       0.014198694 -0.20488192 -0.047962483 0.0025926626
000230 ac ca ba bc b6 92 96 3c 66 ee 0c bb 15 40 6a bd
       -0.02280172 0.018380504 -0.0021504401 -0.05719002
000240 af 96 e5 3d c4 ed 9b bc 76 36 8d be c4 a3 8f bc
       0.11210381 -0.019034274 -0.27580613 -0.017534144
000250 70 35 62 3d 28 71 17 3c 66 3d cd 3c 46 84 8b 3c
       0.055226743 0.009243287 0.025053691 0.017030846
000260 77 60 17 bb 71 a9 80 bd ee e2 1a bd 61 73 57 3d
       -0.002309827 -0.062823184 -0.037814073 0.05260027
000270 c6 ee 33 bd 90 a1 34 bc 88 7a 98 be 8d dd 38 3d
       -0.043928884 -0.011024848 -0.29780984 0.045133162
000280 5a 2e 9c 3c d6 d2 a7 bc 3b d2 3f 3d ae 55 9a 3d
       0.01906507 -0.020486277 0.04683135 0.07535873
000290 05 69 c7 bc ac f4 a7 bd 28 71 8d 3c 2e 02 80 bb
       -0.02434207 -0.08200964 0.017265871 -0.00390651
0002a0 72 1d 84 3d 39 8d d0 3c 3c d3 e0 ba ef d9 37 bd
       0.06450929 0.025457965 -0.0017152796 -0.044885572
0002b0 0e ee 51 bd e1 55 ce 3d 81 4a 0a be f8 7f 08 bd
       -0.051252417 0.10074974 -0.13504983 -0.033325166
0002c0 29 6d 5d bd a4 3f d1 bc 51 97 b6 bc b5 b3 a5 3c
       -0.05405918 -0.025543042 -0.02228895 0.020227293
0002d0 d2 c8 dc bd 6a 3e 72 be fc 7c 95 be 52 46 2a 3c
       -0.10780491 -0.23656622 -0.29196918 0.010392742
0002e0 df 7c 5f bd 47 a0 61 bb 55 82 37 3d ec 95 21 be
       -0.054562446 -0.0034427808 0.04480203 -0.15779847
0002f0 1e a8 24 bd 26 34 44 bd bd 74 28 bc 1d 49 3b bd
       -0.04019939 -0.047901295 -0.010281739 -0.045724023
000300 c9 5e 82 bc d1 3a 59 3d b8 f4 a9 3d 02 e9 cd 3d
       -0.015914338 0.053034607 0.082986295 0.10054208
000310 38 67 e1 bd c6 21 37 bd 8d f4 39 3d c0 b2 a6 3c
       -0.110060155 -0.044709943 0.045399237 0.020348907
000320 33 14 3d bc e3 26 42 bd fc e7 8d bc 51 41 98 be
       -0.01154046 -0.047400367 -0.017322533 -0.29737332
000330 40 98 cf 3c f9 aa 6b bd d2 9a 16 bd db 15 9e bc
       0.025341153 -0.0575361 -0.036768742 -0.01929753
000340 16 0e e0 3c 9c 41 bf bc 3f 9f c1 bc 9e 64 6c bd
       0.027350467 -0.023346715 -0.023635505 -0.057713144
000350 89 1b d7 3d 90 1b e2 3c d5 45 9b 3c 99 c1 ff 3c
       0.10503299 0.027601033 0.018954197 0.031220244
000360 d1 d2 04 bc 73 dd b4 bb 3f 19 15 bd 16 9a a7 be
       -0.008106903 -0.005519563 -0.03640103 -0.32734746
000370 2a 76 94 be 67 d7 de 3c a7 9b 84 3d 35 d7 4e 3d
       -0.28996402 0.027202321 0.06475001 0.050498206
000380 82 77 65 be 5c c8 bd bc 86 8e 2f 3b fc ce 69 bd
       -0.2240887 -0.023166828 0.0026787831 -0.05708216
000390 01 df d1 bd 2a 95 9a be c5 ff 95 bc d5 6a 18 bd
       -0.10247613 -0.30191928 -0.018310437 -0.037211258
0003a0 5a 04 52 3c f5 2b 98 be 7c 11 40 bd 44 8c 43 bc
       0.01281842 -0.29721037 -0.046891674 -0.011935297
0003b0 b2 41 d0 3d 30 e5 6b bc bb 8a dd 3b 76 6a 6b 3d
       0.101687804 -0.014397904 0.0067609227 0.057474576
0003c0 54 9d 54 3c 8e 44 b6 bc bb eb b6 bd 58 75 3b 3d
       0.012976963 -0.022249486 -0.08931681 0.045766205
0003d0 48 f5 75 3b 34 dc 13 bc c1 14 e7 3b 71 7c 04 bd
       0.0037530232 -0.0090246685 0.0070520346 -0.03234524
0003e0 37 c5 d4 bd d9 f8 52 be 69 0f 94 3d 84 44 2f 3d
       -0.10389178 -0.2060274 0.07229502 0.04278995
0003f0 6e 39 84 bc a5 a3 13 3d de 04 1e 3c 7a 5f 3d 3d
       -0.016140666 0.036044735 0.009644715 0.04623363

fc.2.weight f4 [1, 300]
000000 eb b8 14 3e fb 7e 3e 3d b0 a5 39 3b 13 1d 84 3c
       0.14523666 0.046507817 0.0028327517 0.016127145
000010 49 08 32 be 3f 07 a7 3c 86 2a e3 3e b7 3c 27 3e
       -0.17385973 0.020389197 0.4436838 0.16331755
000020 c4 57 25 3e 5c 12 99 bc 49 a1 55 be ce 21 22 bf
       0.16146761 -0.018685512 -0.20862307 -0.6333283
000030 82 af 27 be b2 7f 99 3a 88 c9 11 bf d0 35 e2 c0
       -0.16375545 0.001171103 -0.5694814 -7.069069
000040 6d b9 f5 3d e6 8c 1a bd b8 fe 21 3e 51 81 05 3e
       0.11998258 -0.037732027 0.15819824 0.13037612
000050 83 9e e9 bc 8c 7c e5 c0 ad c0 29 bd 0c 9e d9 3e
       -0.028517967 -7.1714535 -0.041443516 0.42503393
000060 db 92 36 3e 83 e9 38 be 1d 19 ec 3d 88 71 be 3e
       0.17829458 -0.18057828 0.115282275 0.37195992
000070 a4 9f 13 3e 82 a4 11 3b 60 55 d2 c0 d3 cf 10 3d
       0.14416367 0.0022223298 -6.5729218 0.035354447
000080 31 e7 f1 3c ad ba 43 3e ce 69 3a bd ca 09 f6 3d
       0.029529186 0.1911418 -0.04551106 0.12013586
000090 67 38 b0 3c 5a 30 8b bb f9 28 c4 3c 2b a7 3a bd
       0.02151127 -0.0042477073 0.023945319 -0.04556958
0000a0 f6 4f 42 bd f9 e2 2e bd 19 34 e4 c0 79 69 42 bb
       -0.047439538 -0.042696927 -7.1313596 -0.0029664917
0000b0 d9 be 66 3e 79 27 09 3e 0f 98 cb 3c b9 39 48 3e
       0.2253374 0.13393964 0.02485278 0.1955327
0000c0 4a 68 34 3f 83 0d 29 bf c2 6f 35 3f 8e c5 ac ba
       0.7047163 -0.6603624 0.70873654 -0.0013181434
0000d0 61 8a d2 c0 03 1c 3f be 08 62 3f be bd 85 2b bc
       -6.579392 -0.1866303 -0.1868974 -0.010468897
0000e0 a6 bd 29 3e 1e d7 76 3c 1c de 64 bd 9a 47 4e 3d
       0.16576251 0.015065936 -0.055875883 0.050361253
0000f0 c6 67 e1 c0 6e 90 23 3e 8d b5 bb bc 9c 04 03 3e
       -7.0439177 0.15973064 -0.022913719 0.12794727
000100 3f db dd 3c a5 b5 4c be 27 30 00 3e d5 f0 bc c0
       0.027082084 -0.19991167 0.12518369 -5.9043984
000110 dd 89 07 3d 54 5f f8 bc 7e 13 5d 3f dc c8 1e bf
       0.03309046 -0.030318893 0.8635787 -0.6202524
000120 38 3c 82 3c 76 b9 9a ba 0f 1c fb 3e 47 76 5a bc
       0.015897855 -0.0011804539 0.49044845 -0.013333864
000130 e6 b2 02 3e 22 a8 b8 37 ec bb e9 3d 60 41 37 3e
       0.12763557 2.2012802e-05 0.114127964 0.17896032
000140 5e 6f 39 be 9f c4 84 bc 39 39 a7 3e 7a 53 e2 c0
       -0.1810889 -0.016207037 0.32660845 -7.07269
000150 4d b0 32 3e 41 4f 14 3e 22 19 0e 3e a3 2d e2 3b
       0.17450066 0.14483358 0.13876775 0.006902413
000160 6f e8 2d 3e bd 3a 9c bc f5 cd e0 c0 87 cf d7 c0
       0.16983198 -0.019070977 -7.0251412 -6.744083
000170 a1 ce 42 bd 37 51 e3 c0 c7 a7 19 3e 40 74 eb be
       -0.047560338 -7.103664 0.15005408 -0.4598713
000180 70 6d 2a bd e5 89 17 3b 25 77 95 c0 5a 05 92 bb
       -0.041608274 0.0023122963 -4.670794 -0.0044562044
000190 a1 b6 5e 3d 6e 1d 4e bd 3d 98 0a 3d 5b a2 2b 3e
       0.054373387 -0.050321035 0.033836592 0.16761152
0001a0 e8 f2 2b bd 03 bc aa bb ba 85 d5 3e e2 4d 23 bf
       -0.0419797 -0.005210401 0.41703588 -0.63790715
0001b0 91 b2 44 be 46 3b 55 3b 07 b3 2c 3d 04 b3 0e 3d
       -0.19208743 0.003253655 0.04216292 0.03483869
0001c0 ef 7e 40 3c 17 6c 2a be ec af aa ba 9e 15 18 3e
       0.011749013 -0.16642796 -0.00130224 0.14851996
0001d0 67 5d 25 bf ec ce 30 39 35 07 24 3e 0f 94 b7 3e
       -0.64595646 0.00016861752 0.16018374 0.35855147
0001e0 8b 94 5c be 5a 14 19 3e f1 2e e6 c0 61 61 ff 3c
       -0.2154104 0.1494917 -7.19323 0.031174364
0001f0 d4 98 3b be 01 de eb 3e bb c2 47 3d ce 12 4f 3d
       -0.18320018 0.46067813 0.048769694 0.050555043
000200 5e 23 af 3b 96 03 4d 3e 02 cb 4b be 4e f8 ab bb
       0.0053447923 0.20020899 -0.1990166 -0.005248106
000210 2a e7 13 3e 48 4d 84 be 54 05 56 be af 73 e0 c0
       0.14443651 -0.2584021 -0.2090047 -7.0141215
000220 3e 4a 33 3e cd b5 e1 c0 b0 0b 96 3c 61 86 53 3d
       0.1750879 -7.0534425 0.01831612 0.051641826
000230 ff 0d 03 3c f5 13 51 bd 64 7d 2e bd 3e 51 78 3c
       0.007998942 -0.051044423 -0.04260005 0.015156088
000240 20 b5 20 bf 8e f3 3b bd 12 59 1e 3f 5e 6f 22 bd
       -0.62776375 -0.04588657 0.6185466 -0.03965699
000250 87 fb 23 bf 54 c3 a6 bb eb 7c 2f bf 3f 3e c0 bc
       -0.64055675 -0.005089203 -0.68549985 -0.023467181
000260 fb 4a 1c bf 11 1e 0d bd d1 24 ce ba 99 76 04 3e
       -0.6105191 -0.0344525 -0.0015727525 0.12935866
000270 72 98 33 3d 8b 82 24 3d 2e f1 e1 c0 a1 4b 09 3e
       0.043846555 0.040163558 -7.060691 0.13407756
000280 0a 6b 04 3e 11 7e ab bb e7 3f 0a 3f dd 8e 14 bf
       0.12931457 -0.005233534 0.5400376 -0.5803049
000290 c2 cc e1 3d 24 dd 07 3d 80 a3 88 bb 5a 2e 1e 3e
       0.110253826 0.03316988 -0.0041698813 0.15447369
0002a0 6c ff 2e bf 37 c8 1c 3e 20 c6 3a 3e 5d a2 17 c0
       -0.6835849 0.15310751 0.18239641 -2.3692849
0002b0 c7 9d 42 3c 8b f7 27 be f3 ee c6 c0 db 47 3a 3d
       0.011878437 -0.16403024 -6.2166686 0.045478683
0002c0 38 3e 32 3c 25 5e 31 3e ff fc 9f ba 50 d3 8e bc
       0.010879092 0.1732107 -0.0012206136 -0.017434746
0002d0 fe 3e 41 c0 13 5f e5 c0 ae c3 e4 c0 45 8d 34 3e
       -3.0194697 -7.1678557 -7.1488867 0.17632015
0002e0 33 5b 04 bd 1e 43 27 3e c2 54 0a 3e 2b cc b6 c0
       -0.032313537 0.16334197 0.13508895 -5.712423
0002f0 f8 f6 4d 3d 9e e9 73 38 77 b1 30 bd 9d 0e 8a bb
       0.050284356 5.8153288e-05 -0.043137994 -0.004213168
000300 26 64 4a bd 3a 1e 1c 3e 5c 10 e6 be 1c 8e 4e be
       -0.049411915 0.15245906 -0.44934356 -0.20171398
000310 05 56 7b c0 39 0d 27 bd 52 d8 a8 be 81 65 ff bc
       -3.9271252 -0.040784094 -0.3297754 -0.03117633
000320 eb 81 3a bd 81 7e 52 3d de 20 3e 3e fe fd 3d 3f
       -0.045534056 0.051390175 0.18567225 0.74215686
000330 cd 55 1e 3d 0b ae 15 bb 97 9f 1a 3e 36 35 6f 3a
       0.038656045 -0.0022839333 0.15099941 0.00091250555
000340 87 6d 9f 3c 35 ec 1e bd 92 7e 09 bb b9 36 38 3d
       0.019461406 -0.038799483 -0.0020979983 0.044974063
000350 b8 f1 07 bf 51 db 1f 3d 06 09 14 3e d9 5c 28 3e
       -0.5310321 0.039027516 0.14456567 0.16441669
000360 1a 2c 43 bb 2b 93 17 3e d4 d3 10 bd fc 33 e4 c0
       -0.0029780925 0.14802234 -0.035358265 -7.1313457
000370 8a 93 83 3f 2b b2 a9 bc fa cf 18 bf 25 b5 30 3e
       1.02794 -0.02071484 -0.5969235 0.17256601
000380 dd 46 50 3f 68 06 95 3b 12 3a f7 3c 89 f1 02 bd
       0.8135813 0.004547883 0.030179057 -0.031968627
000390 5d bf a1 c0 86 7d 2d 3f 82 4f b4 38 4a 2e f7 3c
       -5.05461 0.6776966 8.597878e-05 0.03017344
0003a0 01 cf 7a bb 6c 82 df c0 cc 9f ce bc d5 45 0a bb
       -0.0038270357 -6.9846706 -0.025222681 -0.0021098752
0003b0 d4 8d 04 bf 9f 4a 41 3e dd 55 41 bd 3d 9d a0 bc
       -0.5177891 0.18876122 -0.047201026 -0.019606227
0003c0 ea cf c0 bc 1f ce 05 3e 72 07 89 c0 af 39 9a 3c
       -0.023536641 0.1306691 -4.282159 0.018826334
0003d0 61 bf 55 3d b0 37 44 be ca e7 f0 3c e6 54 60 3d
       0.052184466 -0.19161868 0.0294074 0.054768465
0003e0 67 e0 ad c0 ff 15 16 3f a9 09 5f 3e 48 bc b1 bc
       -5.433643 0.58627313 0.21781029 -0.021696225
0003f0 d6 4b db ba be af 0b 3e a0 92 28 bf eb 5f be 3e
       -0.0016730975 0.13641259 -0.6584873 0.37182555
