model/RedisTask11110-1_306.pth (torch, 385023 bytes, 6 tensors)

fc.0.weight f4 [300, 13]
000000 d9 3e 96 bd 70 28 54 3e 66 70 4d be 15 38 8f be
       -0.07336206 0.2071855 -0.20062408 -0.27972475
000010 82 d0 09 be 23 e4 0a 3d 11 c7 d8 3c 07 99 53 3e
       -0.13458446 0.033908974 0.02646211 0.20663844
000020 ab 85 17 bd 35 15 e1 3d 09 23 d5 bd aa 1a a1 bd
       -0.03699271 0.10990373 -0.10407073 -0.07866414
000030 d4 ac 9b be 00 20 01 be e9 25 ea bd 2d 80 02 bd
       -0.30405295 -0.12609863 -0.11433012 -0.03186052
000040 23 99 90 3d c2 70 04 3e 26 94 86 be a0 f5 71 be
       0.070604585 0.12933639 -0.26284903 -0.23628855
000050 f7 3f 05 bc b5 c8 16 3e 44 65 29 be b7 8f b3 3d
       -0.008132926 0.14725001 -0.16542536 0.08767646
000060 59 0c 1b be dd d2 8d b9 ec b6 d6 3e 66 ec a6 be
       -0.15141429 -0.0002705072 0.41936433 -0.32602233
000070 81 54 82 be 62 79 2a be 3d 18 40 be 75 63 5d 3e
       -0.25455096 -0.16647866 -0.18759246 0.21619971
000080 e7 34 9b bd 60 2b 9f 3d 2d d6 40 bd b9 3c 5a be
       -0.0757845 0.07771945 -0.047079254 -0.21312226
000090 9d 7a 82 be 26 0f 9b 3e 87 a7 19 3e e5 3d 13 3e
       -0.25484172 0.30284995 0.15005313 0.1437908
0000a0 14 3c 1c 3e 95 1f 0b be ed 1a 45 bd 57 23 a7 be
       0.15257293 -0.13586266 -0.04812138 -0.3264415
0000b0 fb 4f 7d be aa c3 cd bd 10 0c 61 3e ce f8 74 3e
       -0.24737541 -0.100470856 0.21977258 0.23923036
0000c0 a5 29 ca bc 53 28 a8 3d 5c 3b 92 3e 3f 84 a1 3e
       -0.02467806 0.08210816 0.28560913 0.31546208
0000d0 69 f9 24 3e 97 53 7f bd 78 e2 b4 3e e5 d5 08 be
       0.16110767 -0.062335577 0.35329032 -0.13362844
0000e0 7b d5 0b 3d 5e 89 3b be 76 9c 63 be 10 1a 06 be
       0.034139138 -0.1831412 -0.22227654 -0.1309588
0000f0 f6 d8 20 3e c2 52 53 3e 44 fb d2 3c 5c 24 1e 3e
       0.15707764 0.20637038 0.025754578 0.15443558
000100 f5 ee cd 3d d4 c1 b1 3d 64 ab 39 3c ba 3e fd 3b
       0.10055343 0.08679548 0.011332367 0.007728425
000110 73 7b 28 3e eb 4b 78 3e 83 3a 82 be 54 3c 34 be
       0.16453342 0.2424771 -0.25435266 -0.17601138
000120 fe c3 f2 3c cc 56 26 3e 3a fa 3a 3e f5 b2 2f 3e
       0.029634472 0.16244048 0.18259516 0.1715811
000130 f8 f0 07 bd 2e 2e 8c be 63 95 19 bd 8b 37 f6 bd
       -0.03318879 -0.27378982 -0.037495982 -0.12022313
000140 5e 23 aa be c6 a9 59 3e 21 b4 3a 3e 3e 8a b2 be
       -0.33230108 0.2125617 0.18232776 -0.34871095
000150 a0 12 bc 3d 9a 5e 65 bd ba 3b fc bc 75 46 f7 bd
       0.0918324 -0.055998422 -0.030790199 -0.120739855
000160 98 cd 07 3d 2e 8d 4f be 9a 35 0b 3e e2 ac 27 3e
       0.033155054 -0.202687 0.13594666 0.16374543
000170 7d bc d5 3e ba 32 e2 3d cb fe 89 be 80 ea 2b be
       0.41745368 0.110448316 -0.26952204 -0.16788673
000180 fb f8 fc 3d c5 8d e6 3c 74 5a 5f be 17 1d 23 be
       0.12352177 0.028143773 -0.21811849 -0.15929066
000190 98 ff 83 3e 7e d7 3d 3e 8e 9d f9 bd ca eb 8b bd
       0.2578094 0.18539235 -0.12188254 -0.068320826
0001a0 51 96 4e be 4b 5a a3 bb b2 f8 41 be cd eb bf be
       -0.20174529 -0.004985129 -0.18942526 -0.3748459
0001b0 c9 90 b4 bd d3 28 8d bc f8 f1 6c bd 95 9d 61 3e
       -0.08816678 -0.01723138 -0.057847947 0.22032769
0001c0 6f 8f eb bd 57 47 9c 3e 71 7c 79 3e 04 a7 38 be
       -0.11501967 0.30523178 0.24363877 -0.18032461
0001d0 99 5e 8d bd f0 26 b9 bd 91 68 f1 3d ad 21 b7 3d
       -0.06902809 -0.0904063 0.117875226 0.0894197
0001e0 fb 12 43 3e f0 47 0a 3d f3 b1 bf bd 8f 91 78 3e
       0.19050209 0.03376001 -0.09360113 0.24274276
0001f0 39 6f 6a be bd 77 e2 bd 6d ea 3b be 4d b8 8d be
       -0.2289399 -0.110579945 -0.18351145 -0.27679673
000200 a2 e1 22 be d0 a9 81 be cd 0d 66 ba 0a 1a 6d 3d
       -0.15906385 -0.2532487 -0.000877586 0.05788616
000210 57 f5 7f be ec cc 82 bd b7 9b 23 3e 88 88 ab bd
       -0.24995933 -0.06386742 0.15977369 -0.08375651
000220 fe 77 6f bd 26 d6 9c bd 54 f3 d7 bb 70 f0 fe 3d
       -0.058464043 -0.07658033 -0.0065902863 0.124482036
000230 74 76 34 3e 88 d1 cf 3d bf d5 71 3e 5e ba 79 be
       0.17623311 0.10147387 0.23616694 -0.243875
000240 10 21 7f be 8f 74 2a bf b0 6b 12 bd 09 81 c2 bb
       -0.24914956 -0.66584104 -0.03574723 -0.0059357923
000250 6f 8a 07 bd 8d 95 97 be f4 2b 36 bf 2d b4 6f be
       -0.033091005 -0.29606286 -0.7116082 -0.23408575
000260 86 6d 66 bd 39 c0 1b 3e ab 8b 19 3e d5 f3 88 be
       -0.056256793 0.15210046 0.14994685 -0.2674853
000270 40 7c c3 3e b3 e0 89 be 55 1e 22 bd b1 25 3b be
       0.38180733 -0.26929244 -0.039579708 -0.18276097
000280 5a 84 bd bd 77 0f 06 bd dc 37 c5 be 41 75 ce be
       -0.0925376 -0.032729592 -0.3851918 -0.40323833
000290 bb 95 9a bd 01 4f 05 3b fa 61 50 be c6 de 28 3e
       -0.0754809 0.002034128 -0.20349875 0.16491231
0002a0 8a 9a 65 be e5 2b 29 be d1 a2 bd 3e 42 0b f1 bd
       -0.22422233 -0.1652065 0.37038282 -0.117697254
0002b0 03 30 b5 3e 00 48 32 3e 09 c8 2c be da fd 8a 3e
       0.35388193 0.17410278 -0.16873182 0.27146798
0002c0 f2 70 a3 bd 71 69 13 be 14 46 0f 3e 22 4e c1 be
       -0.07980527 -0.14395691 0.13991576 -0.37754923
0002d0 ff f1 ab bd a2 09 56 b7 ff 8f 44 3e c6 ae 0d 3d
       -0.083957665 -1.2757637e-05 0.19195555 0.034590505
0002e0 53 b5 d6 3d be 43 cf 3d d1 4c b4 bd a9 b0 87 bd
       0.104838036 0.10120343 -0.08803714 -0.06625492
0002f0 6f be a6 be 77 73 b5 3d 1f 66 17 3e 96 34 06 3e
       -0.32567164 0.08859914 0.1478505 0.13105997
000300 0b 34 55 be 0f a2 82 bc 1f 2a 6d be b0 be 64 be
       -0.20820634 -0.015946416 -0.23160599 -0.22338367
000310 2a 9d fc bd dc 91 9a 3d a0 36 6b be f8 a8 e0 bc
       -0.12334664 0.07547352 -0.22970057 -0.02742432
000320 96 aa 96 bc 35 5a 76 3e 76 8f 31 be 3e 31 13 be
       -0.018391889 0.24057849 -0.17339882 -0.14374253
000330 9f 12 d8 bd 71 b6 5b 3e 15 05 87 bd 46 b8 89 3e
       -0.10550427 0.21456315 -0.06592766 0.26898402
000340 d6 65 cd 3d b7 d9 0f 3d 41 4e 07 bb 46 92 60 bd
       0.10029189 0.03511974 -0.0020646008 -0.054826997
000350 75 88 0e 3d e7 b3 81 bd 47 6e ff ba f2 f2 10 3d
       0.034798104 -0.06333142 -0.0019487821 0.03538794
000360 be 26 5e be 53 db 14 be 4c 55 65 3e 0a 7c 66 be
       -0.21694466 -0.1453679 0.2239582 -0.22508255
000370 bc 25 a3 bc 29 e7 87 3e 5a 8d 8b 3e a9 e9 d2 bb
       -0.019915454 0.2654355 0.2725628 -0.006436546
000380 d2 b2 82 be ab 20 00 3e 76 b6 60 be ab 6a de bd
       -0.25527054 0.12512462 -0.21944603 -0.10860189
000390 fb a1 c1 bd 82 cb 25 bd f3 7e 43 b9 e7 f2 68 3e
       -0.094547234 -0.040477283 -0.00018643941 0.2274891
0003a0 c0 ee 09 3d ad f5 7f 3e 8c 7d 0d 3d 89 8d 33 be
       0.033674955 0.24996062 0.03454356 -0.1753446
0003b0 4e 65 76 3e 6c aa a4 be e0 69 2d be d2 c3 4a 3d
       0.24062082 -0.32161272 -0.1693492 0.049503155
0003c0 3d 2d 13 3e 44 29 86 3e 0f 3c 97 bd 61 b2 ec 3b
       0.14372726 0.26203358 -0.07384502 0.007223413
0003d0 1f 89 3e 3e 08 1d 56 be f2 77 79 3e 57 39 a8 bf
       0.18606995 -0.20909512 0.24362162 -1.3142499
0003e0 38 d5 79 3c 7b 7f 29 be df d1 7a be a8 5d 06 3e
       0.015248589 -0.16552536 -0.24494122 0.13121665
0003f0 fc f6 89 3e ee 49 01 bd 5e 73 bd bd a8 68 85 3c
       0.26946247 -0.031564645 -0.0925052 0.016285256

fc.0.bias f4 [300]
000000 c7 0f 9f 3e c2 59 04 3d 13 da 5c 3e c8 1b 7b 3e
       0.31066725 0.032312162 0.21567564 0.24522316
000010 2e 24 e9 bc 97 89 0e bd 86 a0 6b 3e 2a 3b 26 be
       -0.028459635 -0.034799185 0.23010454 -0.16233507
000020 45 48 da bc 8c d7 1c 3d de c0 b3 bd d6 15 a9 3e
       -0.026645789 0.0382915 -0.08777021 0.33024472
000030 52 d7 24 3e 7b ae 2a bd 49 8e ef bc f6 e5 78 3e
       0.16097763 -0.041670304 -0.029242652 0.24306473
000040 ba b4 20 be a6 5a 47 be 8d 33 13 be d4 83 1e 3e
       -0.15693942 -0.19468173 -0.14375134 0.15479976
000050 1c 06 99 be d5 1c 0a be 66 32 36 3e a5 41 2a be
       -0.29887474 -0.13487561 0.17792663 -0.16626604
000060 92 17 e5 3d 9d 7a 86 bd 18 90 3c bd e4 aa 08 bd
       0.11186136 -0.065663554 -0.046035856 -0.0333661
000070 ba b5 da 3d 24 20 2b bb 9f 99 95 3e b1 88 7c be
       0.10679193 -0.0026111687 0.29218766 -0.24661519
000080 83 89 b4 3d 61 3a 09 3c c8 9d 92 bd 60 94 46 be
       0.08815291 0.008375735 -0.07159001 -0.19392538
000090 0e 39 74 3d 36 6a 1b 3d dc 2c 66 be ce 25 83 be
       0.059624724 0.037943088 -0.2247805 -0.2561478
0000a0 e3 99 8b be dc d7 e8 3d b8 35 a3 bd e4 21 36 ba
       -0.27265844 0.11369297 -0.079692304 -0.0006947799
0000b0 e3 65 44 3e 8e 58 23 be 29 d2 42 be 9a 1c 88 bd
       0.19179492 -0.1595175 -0.19025482 -0.0664608
0000c0 0f ec d7 bd 0f fc ba bd c3 76 4b 3e 02 12 00 3d
       -0.105430715 -0.091301076 0.19869523 0.031267174
0000d0 14 4d 83 be 48 42 1b 3e eb d9 31 3e 74 48 4e be
       -0.25644743 0.15162003 0.17368285 -0.20144826
0000e0 66 e3 97 3d 30 b5 74 3d 05 ca 4b be 2a be 65 be
       0.0741642 0.059743106 -0.19901283 -0.22435823
0000f0 0c 2a 6b be 53 2f 68 3e 4d 6e 67 3d b8 2f 92 3d
       -0.22965258 0.22674303 0.056501675 0.07138008
000100 ee 00 e8 bd f8 fa f1 3d ba 8d eb bd 01 2a 68 be
       -0.11328302 0.118154466 -0.115016416 -0.22672273
000110 df fd d1 bd d8 a2 af 3b d0 b3 e1 3c 4c 84 f8 bc
       -0.102535 0.0053599887 0.027551562 -0.030336522
000120 4e 6c 46 be e6 ab 30 be a3 bc 1d 3e d8 0e d3 bd
       -0.19377252 -0.17253074 0.1540399 -0.103055656
000130 c7 f2 02 3e 75 1f be bd a2 3e 20 bd 0b a5 9d be
       0.12787925 -0.09283344 -0.03912223 -0.3078998
000140 eb 99 04 bd bc ca e2 3d d2 9d 46 be 5a a7 f3 3d
       -0.03237335 0.11073825 -0.19396141 0.11897154
000150 f5 03 6f be 4e cb ee 3d cd be 80 be da bd 91 be
       -0.23341353 0.11659871 -0.2514557 -0.28465158
000160 1b 47 65 be 77 b0 2c 3d 8f 1b 5a 3d 40 5b 81 be
       -0.22390406 0.042160477 0.05324894 -0.2526493
000170 3b 6f 84 3c 3b df 94 3e 56 cd 33 3e 76 06 44 3e
       0.01616632 0.2907656 0.17558798 0.1914309
000180 20 3a 2c 3c fd 31 3f be fd 1f da bd 6c 70 3a 3e
       0.010511905 -0.18671413 -0.106506325 0.18206948
000190 f8 76 c0 3c 01 84 2b 3d b7 7f 74 3e 7a 93 8a be
       0.023494229 0.041873936 0.23876844 -0.2706564
0001a0 f8 5f 17 3e 44 00 5e 3e 7a f6 83 be 1e db 65 be
       0.14782703 0.21679789 -0.25773984 -0.22446868
0001b0 eb b6 d8 3d 69 e9 8b 3e 1f b6 db 3d 60 15 cf bd
       0.10581764 0.27326515 0.10728096 -0.10111499
0001c0 94 0a 53 3e fb cd 35 3d 95 88 12 be bc 3d 30 3e
       0.20609504 0.04438589 -0.14309914 0.1721105
0001d0 84 32 4e 3e db d1 d4 3c ed f7 d7 3d 4a d1 8a be
       0.20136458 0.025978973 0.10545335 -0.271128
0001e0 f7 07 05 be 8b a7 8e 3c 7e c9 0b 3b 92 9f 0f be
       -0.1299132 0.017413875 0.0021329815 -0.14025715
0001f0 40 8e e0 3d 1a da 10 bd 6f 3d 83 be 0d f4 8a 3d
       0.10964632 -0.035364248 -0.25632808 0.0678483
000200 d7 fa a8 bd 11 70 43 be c8 44 cc bd 51 ac f2 bc
       -0.08250969 -0.19085719 -0.099740565 -0.029623182
000210 06 5f 5d be 11 4c 88 be 25 13 74 3e e5 79 2c be
       -0.2161828 -0.26620534 0.23835428 -0.16843374
000220 be 51 5f 3d e3 31 80 3e 2e 9e e9 bd a3 c3 80 be
       0.054521315 0.2503806 -0.114071235 -0.2514926
000230 d3 61 89 be 97 18 ee 3b 72 a4 fa bd 0e c4 2f bd
       -0.26832446 0.007266115 -0.12238397 -0.04291158
000240 a5 71 c0 3d 5e b1 66 bc e7 4d c0 3d ec 79 b2 bd
       0.09396676 -0.014080374 0.09389859 -0.08714661
000250 64 44 f0 bd d3 c8 3b be 45 d4 ad 3d a4 96 2f be
       -0.117317945 -0.18338327 0.08487753 -0.17147309
000260 52 17 be 3d 14 5d de bd 4f b2 aa 3d 77 3b 0b be
       0.09281792 -0.10857597 0.08334791 -0.13596903
000270 d7 36 3c be d3 eb e8 bd ba ce 66 be 7e 0f 7a 3d
       -0.18380295 -0.11373105 -0.22539797 0.06104993
000280 1b d4 83 bd 99 0e 9d 3d e4 a4 d6 bb 41 31 a5 3d
       -0.0643694 0.076688 -0.006550418 0.08066035
000290 da 22 00 bd 1c 19 42 3e b0 63 16 be 8b ad 84 be
       -0.031283237 0.18954891 -0.14686465 -0.25913653
0002a0 59 38 d9 bc 74 ec 4d be 0d 66 5e be 5d 3e 9e 3d
       -0.026516126 -0.20109731 -0.21718617 0.077267386
0002b0 e7 ca 33 3e 49 7d 5b be d6 ac 86 bd a3 2d f1 bd
       0.1755787 -0.21434511 -0.065759346 -0.11776283
0002c0 4e 60 96 bd 0a 57 7c 3d 23 42 79 bd b5 71 10 3e
       -0.073425874 0.061606444 -0.06085409 0.14105876
0002d0 09 70 94 be 17 fb 70 bd c3 a4 1d be 7e 76 63 3e
       -0.28991726 -0.058833208 -0.15394883 0.2221317
0002e0 9c 18 74 3e 5e cb ab 3e d0 df 8e 3e 21 fc 67 bc
       0.23837513 0.33553594 0.2790513 -0.014159233
0002f0 da 81 4f be 8b 5c 76 be 6a 06 14 3e d9 8f 7d be
       -0.20264378 -0.2405874 0.14455572 -0.24761905
000300 c0 70 00 3e b3 35 e2 3b c4 e2 79 3d 1b e3 77 be
       0.1254301 0.006903374 0.061007276 -0.24207728
000310 5c 57 2f 3e a4 94 99 3c e5 b0 65 bd 1f 93 ba 3c
       0.17123169 0.018747635 -0.056076903 0.02277523
000320 85 60 11 3e 53 ba 92 bd ec 89 60 3d e4 b9 62 be
       0.14196976 -0.07164445 0.054819033 -0.22141224
000330 ab ee 46 3e bc cc 34 3e 44 67 45 3e 80 e1 d9 bb
       0.19426982 0.17656225 0.19277674 -0.006649196
000340 ca 28 8d be 78 e5 b7 bc 23 a5 88 be 73 bb e3 bd
       -0.27570182 -0.022448286 -0.2668849 -0.111197375
000350 61 76 6b be 31 2b f1 3d 9e c4 2e 3e bb 2e 96 3d
       -0.22994377 0.11775816 0.17067191 0.07333132
000360 2a 29 fc bd a1 8d f0 3d 82 cd 02 bd 7f e7 e3 3b
       -0.12312539 0.117457636 -0.03193427 0.0069550867
000370 08 56 09 3e 10 da 5b 3e 36 07 5a be 1b c6 b7 3d
       0.13411725 0.21469903 -0.21291813 0.089733325
000380 17 bd 2d bd b8 fa 99 bd d8 65 8d be fc 9d 4a bb
       -0.04241666 -0.07518524 -0.27616763 -0.003091692
000390 44 4d 4d be 30 a6 3c be 07 29 ed bd 9d ba 3d bd
       -0.20049006 -0.1842277 -0.11580091 -0.046320546
0003a0 73 8b 2b be d2 ee 35 be 49 a7 36 3e eb 59 31 3b
       -0.16752414 -0.17766884 0.17837252 0.0027061652
0003b0 19 a5 a9 be ba 24 82 bd ff 25 c3 3c cd 84 fd 3d
       -0.33133772 -0.06354661 0.023821829 0.12378845
0003c0 58 72 8b 3d d7 c3 ec bd c2 5d c9 3e 31 cc 32 be
       0.06808919 -0.11560791 0.39329344 -0.17460705
0003d0 bb 30 f2 bd 63 67 1f 3e 1c f4 2f be e0 e4 4e 3d
       -0.11825701 0.15566783 -0.17182964 0.05051124
0003e0 26 18 c5 3d 6b d9 81 be 60 d9 f8 bd 9e 3e a1 3e
       0.096237466 -0.2536119 -0.12150836 0.31493086
0003f0 7e cd 44 3d 6a 88 2d bd b0 72 64 bc d5 01 04 bd
       0.048047535 -0.042366423 -0.013943359 -0.03222831

fc.1.weight f4 [300, 300]
000000 4b 59 4a 3d 72 97 f7 bb fa 3e 1f bd 51 c8 e7 bb
       0.049401563 -0.0075558955 -0.03887842 -0.00707344
000010 2c 63 f4 bc e1 4d 00 3c c9 05 51 3c 71 29 86 bc
       -0.029832445 0.007831068 0.012757727 -0.016377183
000020 79 95 5c 3b aa 59 d4 3c d4 ab 35 bd e1 ae ad bc
       0.0033658429 0.025921661 -0.04435332 -0.021201553
000030 b0 5e 79 bc 96 69 45 bd 5e 8e 98 bb 90 80 b6 bb
       -0.015220329 -0.048196398 -0.0046556434 -0.005569525
000040 8a 03 3f bd 97 0b 42 3c fb b6 61 3d 11 df c4 3c
       -0.046634234 0.011843584 0.055106144 0.024032148
000050 ad 18 25 bd e6 77 58 3d ac 3c 3c bd 2a 7a f0 bc
       -0.040306736 0.05284872 -0.0459563 -0.029355127
000060 bf 9f 85 3c 8f 65 25 3d 00 70 3e 3d 7a 58 22 3d
       0.016311524 0.040380057 0.04649353 0.03963516
000070 91 f0 18 bd 4b 64 9f 3b b1 a5 2f bd 50 ad fb bb
       -0.037338797 0.004864251 -0.042882625 -0.0076805726
000080 83 e3 20 3d 95 c9 96 3c 02 fc 72 bd 23 8d cb bc
       0.039279472 0.018406669 -0.059322365 -0.024847573
000090 55 3f 6f bd e9 65 9b 3c 74 16 6c bc cf df 2c bd
       -0.058410008 0.018969493 -0.01440965 -0.042205628
0000a0 1a 22 97 bc da 35 9b 3c d4 25 af 3b e1 4e 45 3d
       -0.018448878 0.018946577 0.0053450856 0.048170928
0000b0 d9 00 2f bc d1 22 27 3c 23 46 8f bc 8f 13 11 ba
       -0.010681354 0.010201172 -0.017489498 -0.00055342255
0000c0 5f 1c 81 bb 39 88 32 3d 83 73 69 3c 45 d3 28 bd
       -0.0039401497 0.043586943 0.014248732 -0.041217107
0000d0 cd d2 7a bd 3c 5f 81 bd 90 b6 de bc 36 42 b0 3a
       -0.06123619 -0.06316993 -0.027186662 0.0013447467
0000e0 28 30 3c 3d 4b 83 60 bc d1 ec b8 3c 2f d6 9e 3c
       0.045944363 -0.013703178 0.02257386 0.01938924
0000f0 54 25 35 bd 5e 34 5c bd 54 19 42 3c 3a 19 90 3c
       -0.044225052 -0.05376088 0.011846859 0.017590154
000100 ad 45 00 bd 30 21 04 ba a1 34 86 bd 5e c5 3e 3a
       -0.031316448 -0.0005040346 -0.06553007 0.0007277335
000110 67 57 b2 3b ae 38 00 bc c4 66 8f bc 36 70 8e 3c
       0.005442548 -0.0078260135 -0.017505057 0.01738749
000120 9b 00 82 bc 45 09 30 3d c3 5c 6c bd 2b 26 07 bd
       -0.01586943 0.04297759 -0.057705652 -0.032995384
000130 6a d3 67 bd 22 e0 55 bd 71 7c 05 3d 0d a7 b0 bc
       -0.056598105 -0.052215703 0.03258938 -0.021564031
000140 d8 41 52 bd 96 cd 7f 3b 0b 3c 4f bd f0 2d b5 bb
       -0.051332325 0.003903245 -0.05059437 -0.005529158
000150 d9 d6 e0 3c 0d 7d 91 bc df 23 f3 3c 60 57 f7 3b
       0.027446197 -0.017759824 0.02968019 0.0075482577
000160 62 c3 3d bd 1a 2d 3a 3c 3e c7 ff 3c 04 d5 9e bc
       -0.04632891 0.011363292 0.031222936 -0.019388683
000170 ca fc 97 bb 3c 5a f1 3b 2f 15 59 bb a2 9e 08 3c
       -0.004638289 0.007365493 -0.0033124199 0.008338602
000180 d5 b8 82 bd 63 be 13 3d a1 8d 8b 3c 2e 3d 3b bb
       -0.0638291 0.03607024 0.017035307 -0.0028570401
000190 5f 64 20 3b 37 b7 3e bd f7 b1 c0 bc aa 81 28 bc
       0.0024473888 -0.046561446 -0.02352236 -0.010284821
0001a0 3c 6f 9f 3b 87 8c 20 bd 12 e2 76 bb 02 1a e6 bc
       0.004865555 -0.039196517 -0.003767137 -0.028088573
0001b0 e4 4d 0a 3d 78 89 65 bd fa c2 c5 3b f0 b7 01 3d
       0.03376569 -0.056039304 0.006035206 0.031669557
0001c0 e5 2b 59 bd 4e a5 23 bc 31 8f 95 3c 64 ea 75 3c
       -0.053020377 -0.009988142 0.018256756 0.015009496
0001d0 f0 16 c0 39 7c 7b 67 3c 98 1e 47 bd a6 e7 3c 3d
       0.00036638184 0.014128562 -0.04861316 0.046119355
0001e0 47 c7 a8 3a 72 41 00 3d 16 74 8a 3b aa db 75 bc
       0.0012876772 0.031312414 0.0042252643 -0.015005985
0001f0 89 c3 93 3c 76 6c 3a 3d 3e 45 69 3d 76 8b 6a bd
       0.018037574 0.045513593 0.0569508 -0.057261907
000200 42 d0 8e bb 30 e2 29 bd 69 49 cd 3c 22 62 11 3d
       -0.0043583224 -0.041475475 0.025059419 0.035493977
000210 0c 24 50 bd b4 b1 3b bc fa d8 01 3d 38 63 1c 3d
       -0.050815627 -0.011455942 0.031701066 0.03818056
000220 77 6f 4c bd 13 b9 02 3d 30 2d a6 bc ed 71 6a bd
       -0.04991099 0.03191478 -0.020285219 -0.057237554
000230 b3 6d 3c 3c b3 96 9a 3c 28 ed d6 3c b3 5c 44 bd
       0.011500764 0.018870687 0.026236132 -0.047939967
000240 c1 47 2b bd 4f 7b 37 bd 18 2f b9 3c 63 6c 6f bd
       -0.041816477 -0.04479533 0.022605464 -0.058452975
000250 0a 40 ff b9 68 fc 8a bc a7 62 88 3c ff c3 39 3c
       -0.00048685103 -0.01696606 0.016648604 0.011338233
000260 dc 31 0c bd 6c 6a 1f 3b ba 70 33 3d d1 bd 1b 3c
       -0.034227237 0.0024324907 0.043808676 0.009505705
000270 dd c8 0d bd f5 2b cd bb db 50 7b bd d6 e6 3b bd
       -0.034615386 -0.0062613436 -0.061356407 -0.04587444
000280 93 50 88 bc 6e ed 34 bd 2e 21 23 3d 6a 16 11 3b
       -0.016639983 -0.044171743 0.039826564 0.0022138604
000290 fe 36 10 3d ea f3 af bc 33 8e 03 bc 48 9b 6e 3c
       0.035208695 -0.021478612 -0.008029508 0.014563389
0002a0 ba 2f c2 bc 97 38 a1 bc 04 4d 80 bd 7f 5e 16 3d
       -0.023704398 -0.019680304 -0.062646896 0.036711212
0002b0 d6 7f 2c 3d 8a 97 85 bd 8a 4c e3 bc 9d ed 4c bd
       0.0421141 -0.065230444 -0.027746458 -0.050031293
0002c0 72 68 00 bd 93 6a 1b 3d 63 09 aa 3c 0d 42 51 bc
       -0.031349607 0.037943434 0.020756429 -0.012772095
0002d0 69 74 8c 3c 36 a8 10 3c b8 25 01 3d a6 58 63 bd
       0.017145352 0.008829167 0.031530112 -0.055504464
0002e0 f2 ef 34 3c ce 09 80 bd 3e ec 35 bd a5 71 f4 bc
       0.011043536 -0.0625187 -0.04441475 -0.029839346
0002f0 aa 52 b8 bb 53 5d 7e bd de e9 da bb 25 06 17 3c
       -0.0056250887 -0.06210072 -0.006680711 0.009217774
000300 65 bb fc bc 49 b0 0e 3c 32 d2 35 3d 2c 94 21 bc
       -0.030851075 0.008709022 0.04438991 -0.009861987
000310 df ce 1f bd 92 e2 69 bd ea 03 41 bd dd 9e 26 bd
       -0.039015647 -0.05710084 -0.047122873 -0.040678848
000320 2c 96 45 bd 4c f2 b9 bc d7 75 b6 3c d1 77 2f 3c
       -0.04823892 -0.022698544 0.022272987 0.010709719
000330 4f 41 32 3d 97 20 49 3d c0 79 db bc 7b 3f fc bc
       0.043519314 0.049103346 -0.026791453 -0.030791989
000340 25 72 01 3c 5c da 54 bd 9e a0 00 3d 22 3f 2a bc
       0.007900749 -0.051966056 0.031403176 -0.010391029
000350 87 03 46 bd dd 3e 54 bd c1 7e 41 bd 49 b0 dc 3b
       -0.048343208 -0.051817764 -0.047240023 0.006734882
000360 d7 47 35 3d df 43 12 3d 56 c2 af bc c4 5c 09 bd
       0.044257965 0.03570926 -0.021454971 -0.033535734
000370 2d 8d 0a bd 3d 50 3c bd 02 17 c0 bc 2f c1 79 bd
       -0.033826042 -0.04597496 -0.023448471 -0.06097525
000380 56 5a c1 3c d8 e2 81 bd e9 1a 13 bd b8 1e f6 3c
       0.023602646 -0.06342095 -0.035914335 0.030043945
000390 40 00 57 bd 5a 0e f1 3b 91 21 31 3d 43 df 4b 3d
       -0.052490473 0.007356447 0.043244902 0.049773466
0003a0 31 56 ab 3c 09 db 7d bc 5c b5 cb 3c 1f 26 1e bc
       0.020915123 -0.015494117 0.024866752 -0.009652643
0003b0 9c a4 d5 bc 92 fd 01 bc cc 4d e3 3b 39 d0 07 3d
       -0.026079468 -0.007933991 0.0069367643 0.03315756
0003c0 75 17 68 3c 5e 12 a0 3c 46 82 0d 3c d7 70 3e bb
       0.014165749 0.019540008 0.008637017 -0.0029058957
0003d0 be 98 c6 3c ca 9f c0 3b b7 49 62 bd 73 fa b7 3a
       0.024242755 0.0058784233 -0.05524608 0.0014036432
0003e0 c5 e4 09 bd 01 d0 fa bc f8 e8 b6 3c 6a ab b0 3b
       -0.033665437 -0.030616762 0.022327885 0.005391528
0003f0 09 06 77 3b 41 80 0e bd a0 f7 98 3c 65 17 3e 3d
       0.0037692806 -0.03479028 0.018672764 0.04640903

fc.1.bias f4 [300]
000000 6d d6 9c bb 47 ea 54 3d d9 60 7b bd 8f 11 6a 3d
       -0.0047863037 0.051981237 -0.061371658 0.05714565
000010 c5 7c 24 bd 6c 4e 17 bd 5f df 1a bc 0e 45 15 3d
       -0.040158052 -0.036940023 -0.00945267 0.03644281
000020 20 c3 ef 3d 58 b8 05 3e b0 52 59 3d 6e 19 0c bc
       0.11707139 0.13058603 0.053057373 -0.008550985
000030 0b a6 e7 bb 79 5d 05 bc 8d e1 1b bc ec 91 34 bc
       -0.0070693544 -0.008139961 -0.009514225 -0.011021119
000040 40 8f 17 3d 45 da 29 bb 04 7b 5f bd 74 1c 33 bb
       0.03700185 -0.0025917452 -0.054560676 -0.0027330192
000050 ca 3d 47 bd c7 e7 9b bc f1 69 ec bc b5 56 da bd
       -0.04864291 -0.019031418 -0.02885911 -0.10661069
000060 37 42 10 3d 6d db 20 3c 3d bd 29 3d 70 d3 64 3c
       0.035219397 0.00981794 0.041440237 0.013966426
000070 9a c7 0c bd be de 25 bd c2 0b b2 bb 9f 7b 1a 3d
       -0.034370042 -0.040495627 -0.0054335305 0.03771555
000080 9a 66 3d bc 2a ec 43 bd b0 4e 73 bc 88 90 4a bc
       -0.011560107 -0.047832645 -0.0148503035 -0.0123635605
000090 78 2e 53 bd ee a5 2d bd 26 76 4d 3c 23 9c 3c bc
       -0.051557988 -0.04239457 0.012540376 -0.011511835
0000a0 6f cd ab 3c 5e e2 32 3d 30 ae 5d bd e9 c3 fc 39
       0.020971982 0.04367291 -0.054121196 0.0004821115
0000b0 64 0a c9 3c 1c 7d a8 bc 2f de cf bc 9d ed da ba
       0.024541087 -0.02056747 -0.0253745 -0.0016702894
0000c0 9c 89 15 bd 85 99 a0 bd 8a e6 11 3d 85 4c 89 bc
       -0.036508188 -0.078417815 0.03562025 -0.01676012
0000d0 bd 6e 50 bd a9 e2 f6 3c a0 de a3 3c ad 3c 83 3d
       -0.05088686 0.030137377 0.020003617 0.06408057
0000e0 68 d5 ce 3c 9e f2 c0 b9 cb e8 43 3d 3d 7f bd bc
       0.025248244 -0.00036801858 0.04782943 -0.023131961
0000f0 2a d2 c7 ba 60 b4 3f bb 3f 4e 2b bd d4 57 e6 ba
       -0.0015245129 -0.00292518 -0.04182267 -0.0017573782
000100 3f 15 81 bc 82 9e 34 3c c6 33 72 3c dc 74 df 3c
       -0.015757201 0.011024119 0.014782852 0.027277403
000110 57 98 26 bd 97 82 e5 3b be 5c 69 3d a0 68 8c 3c
       -0.040672626 0.007004093 0.05697321 0.017139733
000120 be 00 bd 3c 74 55 0e 3d 0b 3d 65 bd a6 8f 49 bb
       0.023071643 0.034749463 -0.05596642 -0.0030755787
000130 be ed 5a bd 44 2d ee 3d 77 0b 20 3b f5 8c 2a bd
       -0.053449385 0.116297275 0.0024420896 -0.041638333
000140 8e a5 5d 3d 01 c4 e6 3d 93 f1 5b bc dc 67 e4 bc
       0.054112963 0.112678535 -0.013424295 -0.027881555
000150 50 18 11 bc c0 1e 41 bc e9 38 ce bc d5 e2 1f bd
       -0.008855894 -0.0117871165 -0.025173621 -0.039034683
000160 2e ad 20 3c a5 01 5e 3d ec ae eb 3b 3a ae 5a bc
       0.009806914 0.054200787 0.007192483 -0.013347203
000170 54 f6 0c 3c eb 1e ca 3d 5f f4 0b bd 30 c4 9f 3a
       0.008603651 0.098691784 -0.034168597 0.0012189206
000180 ad fa bd bc 4d ab ed 3b f5 47 90 3d 5c 81 d5 bb
       -0.02319082 0.0072530867 0.07044975 -0.006515665
000190 1f e9 35 bd 13 f9 16 3d 36 51 61 3d 0b 26 7f 3c
       -0.044411775 0.03685863 0.05500909 0.015573035
0001a0 5c 73 f1 3b b6 41 6a 3d d9 29 7c 3d 8c ff 60 3d
       0.0073684882 0.057191573 0.061563347 0.05493121
0001b0 dd f5 43 bd a5 2f 54 bd df aa cb 3d ca 81 3b 3d
       -0.047841895 -0.05180325 0.099447004 0.045778073
0001c0 fb c6 a0 3d 5f 60 f0 3c ca 06 92 bc 85 3e 8c bd
       0.078504525 0.029342828 -0.017825503 -0.06847862
0001d0 e7 eb 97 bc 39 d5 9b 3d d6 4a 43 bd 5d 19 e3 ba
       -0.018545104 0.07609028 -0.04767879 -0.0017326284
0001e0 e9 41 0e 3c 6c fa 62 3c 8a 6f 0c bc b1 e9 ab 3d
       0.008682706 0.013853651 -0.008571515 0.083941825
0001f0 73 cd 93 3d b4 ec 09 3d cc d4 7b 3a 12 90 04 bc
       0.07216921 0.033673003 0.00096065993 -0.00809099
000200 75 31 cb 3c a4 5a 6b bd 26 f8 8e 3d f0 d6 de 3b
       0.024803856 -0.05745949 0.06980924 0.006800525
000210 fe 0c b8 3c 8f 1b dd bc a8 df 06 bd 07 d5 3f bd
       0.022467133 -0.02699068 -0.03292814 -0.046834018
000220 07 a3 19 3d 07 9c 45 3c 1a 18 16 3b cc bb a6 3c
       0.03750899 0.012061126 0.002290255 0.02035322
000230 d1 4d 12 bd 97 7e b9 3c eb af 4f 3d ac 8a c5 3c
       -0.035718743 0.02264337 0.050704878 0.024113975
000240 93 10 b7 39 03 c4 27 bd 7b 9b 9e bb 4c 5e 24 bd
       0.0003491683 -0.040958416 -0.004840312 -0.04012899
000250 c5 3f be bc 84 55 c1 bc f3 68 2f 3d 57 fd bb 3d
       -0.023223767 -0.023600347 0.042824697 0.0917918
000260 3e 56 9f 3c d8 34 82 3d bd 51 d8 3d 80 40 71 bd
       0.019450303 0.063577354 0.10562465 -0.058899403
000270 70 6c cd 3b 90 c4 48 bd 7c 59 08 3d a8 6d 6d 3c
       0.0062690303 -0.04901558 0.033288464 0.014491476
000280 e2 af a6 3c 31 b0 69 bd b1 67 d2 3d b2 c5 2a bc
       0.02034754 -0.057052795 0.10273684 -0.010423111
000290 10 ad e5 3c f8 fc fa 3c d5 84 20 bc ee b7 11 bd
       0.028036624 0.030638203 -0.009797295 -0.0355758
0002a0 3e 3c d1 bc 35 0d 2b 3c f3 98 56 3c 84 12 ad 3d
       -0.025541421 0.0104401605 0.013097989 0.08450797
0002b0 9b 0b 2d bd e2 bf 55 bd c4 6a 88 3d 96 25 ef bc
       -0.042247396 -0.052184947 0.06660989 -0.029192727
0002c0 d3 33 44 3d 75 48 6a 3c 2d 7e 27 3d ff a2 61 3d
       0.047900986 0.014299502 0.040891815 0.055087086
0002d0 77 f4 75 3d a6 fd 2a bd 62 f0 03 3e 2e 35 0f bc
       0.060047593 -0.041745804 0.12884668 -0.008740706
0002e0 f5 ea c5 3c 22 f4 ba 3d b2 0d 63 bd d0 f5 5b bd
       0.024159888 0.09128596 -0.055432983 -0.053701222
0002f0 02 cd 82 3c 8f 6e 22 bd c0 ba 32 3d 89 6e 9f 3d
       0.015966896 -0.03965622 0.04363513 0.07784755
000300 0d 10 96 3b 13 9c 6d 3d 70 45 90 3d fa 6f ff 3c
       0.00457955 0.058010172 0.07044494 0.031181324
000310 16 a9 a0 bc 62 7b cb bc 5b 6d 2e 3d 75 0b 4d bd
       -0.019611876 -0.024839107 0.04258476 -0.050059754
000320 0f e1 59 3b 98 f0 6d 3c 66 17 a5 3c 00 cc fb bc
       0.0033245718 0.014522694 0.020152759 -0.030736923
000330 48 2d ae 3c 53 c0 c1 bc df 7e 39 bd 0e 72 85 3c
       0.021261826 -0.023651278 -0.04528701 0.016289737
000340 ac 18 5f 3d 18 d8 93 3d 83 94 12 bc 68 8d fe ba
       0.05446689 0.07218951 -0.008946541 -0.0019420804
000350 5d 5b 5b bc 6d 71 a4 3c be 27 60 3c 37 91 d4 3d
       -0.013388482 0.020073617 0.01368135 0.1037926
000360 3f 35 d2 3b c7 08 61 bc 90 98 02 3d ed 16 1e 3c
       0.006415039 -0.013735003 0.031883776 0.009649021
000370 2c e3 e8 3d 73 cb 58 bd 5d 99 ac bd 16 51 94 3d
       0.113714546 -0.0529284 -0.08427689 0.072420284
000380 56 aa 21 bc 11 80 9f 3d 18 ad 9a 3c f2 78 9a bb
       -0.009867271 0.077880986 0.018881366 -0.004714125
000390 a0 0a 26 3d db 58 24 3d 2c d8 3b 3c ec 12 a3 38
       0.040537477 0.0401238 0.011465114 7.77597e-05
0003a0 a6 c3 bc bb 0e dc 4d 3c eb 19 22 bd 08 48 96 bc
       -0.005760628 0.012564672 -0.0395755 -0.018344894
0003b0 8e f6 fc 3d 68 98 77 3d fa e1 84 3c 81 00 32 3c
       0.12351714 0.06044808 0.016221035 0.010864378
0003c0 33 57 ca 3d 83 20 66 3d 34 c1 e5 bc 31 d6 92 bb
       0.09879913 0.05618335 -0.028046228 -0.0044811
0003d0 08 7a 02 3d 8b 7c 4a 3c a3 98 4a 3d fa e6 4b bd
       0.03185466 0.012358795 0.049461972 -0.049780823
0003e0 44 b6 a8 3c 5d 83 36 bc 8c 05 90 3c e7 b0 fe bc
       0.020594724 -0.011139718 0.01758077 -0.031090213
0003f0 20 5e ae 3c de eb 88 3d fb 34 43 3d 2e 5f 51 3d
       0.021285117 0.06685613 0.047657948 0.05111616

fc.2.weight f4 [4, 300]
000000 4c 60 10 bd fd dd f6 3c 75 62 53 3c 19 05 75 3e
       -0.035248086 0.03013515 0.012901892 0.23927726
000010 1a f2 31 3a 32 d7 23 bd 7b ab 5a 3d 12 8a 82 3c
       0.000678809 -0.040000148 0.053386193 0.015934978
000020 33 9a 6a 3d 31 22 54 bc 4c 70 a1 bd f8 de a0 3c
       0.057275962 -0.012947605 -0.07882747 0.01963757
000030 9c 88 5c 3e e1 06 4e bd 74 c6 2b 3d fa aa e5 3e
       0.21536487 -0.05029953 0.041937307 0.44857007
000040 65 78 bc bb 29 5b d2 bc ba 93 a5 3b a4 22 30 3d
       -0.005751657 -0.025678234 0.005053011 0.043001786
000050 05 35 2f 3d f4 62 e0 3c ec f6 3d bd 80 a3 20 bd
       0.042775173 0.027390935 -0.04637806 -0.039218426
000060 f3 c3 9b bc 16 ac af bd 97 52 12 bd af 84 ff 3d
       -0.019014334 -0.08577745 -0.035723295 0.12476479
000070 37 52 06 bd 44 14 18 bd e6 99 31 bc d9 cd 4a bd
       -0.03279325 -0.0371287 -0.010839915 -0.049512718
000080 ea 9f 21 bd e8 cb 15 3b 64 6f 8a 3b 9e 22 5d bc
       -0.039459147 0.0022857133 0.0042247046 -0.013497023
000090 73 1c 0e bd 6f e0 d6 3c 37 4f f9 3c ca d4 10 3d
       -0.0346951 0.026230065 0.03043328 0.03535918
0000a0 89 d4 02 bd 6e bd 35 3e 20 53 05 bd bc 44 0a 3d
       -0.03194097 0.17748043 -0.032549977 0.033756956
0000b0 86 6d 9f 3d 08 16 39 bc b4 73 c9 bc 0b cd 82 bc
       0.07784562 -0.011296757 -0.024591304 -0.015966913
0000c0 ba ca 09 bd 21 15 f3 bc a8 f5 66 3c f5 8d 45 bb
       -0.0336406 -0.029673161 0.014096655 -0.0030144427
0000d0 f5 3b 62 bb 94 be 0c 3d c5 bd 2d bd a9 15 2e 3b
       -0.00345206 0.034361437 -0.042417306 0.0026563203
0000e0 dc 07 8e 3d 8b a5 28 bc b6 92 01 be 30 ed 96 bc
       0.06935093 -0.010293375 -0.12653622 -0.018423647
0000f0 50 c8 b2 3e f3 05 02 3e 02 67 db bc 2f 4d a4 bd
       0.3491845 0.12697582 -0.026782516 -0.08022534
000100 f3 26 a3 3d 7a e4 cd bb 29 98 c7 3a 2a 04 3f 3d
       0.07966413 -0.00628334 0.0015227842 0.04663483
000110 74 6e 6f bd 72 44 ad bc 2d 6f 90 3c e7 21 32 bd
       -0.058454946 -0.021150801 0.017631138 -0.043489363
000120 82 b1 6a 3c 9d 77 cf 3e 28 7c a3 3c ae 0d cc bc
       0.014324548 0.40520945 0.019956663 -0.024908867
000130 3b 8e 30 bd 83 dc e3 3c 40 af 3a bd e0 ac e9 bc
       -0.04310439 0.02781511 -0.045577288 -0.028524816
000140 65 32 0e 3d ad b6 43 be 47 c7 a6 bd cc fb a6 3c
       0.03471603 -0.19112654 -0.08143478 0.020383738
000150 8d 0a 28 3c 58 f1 14 3c e2 e2 16 3e b2 d7 95 3c
       0.010256422 0.009090744 0.14734986 0.018291328
000160 d0 26 93 3b a6 ba 9c 3c 7f 9f 4d 3d 61 97 0c 3e
       0.004490711 0.01913197 0.050200935 0.13729621
000170 9b bd 6e 3c 1b 6d aa be 58 9a e7 3c 3f 41 21 bb
       0.014571573 -0.33286366 0.028271839 -0.002460554
000180 58 95 09 bc a1 d6 bd 3e 6d 3f 0d 3d 40 f7 dd 38
       -0.008397423 0.3707781 0.034484316 0.00010584155
000190 c5 1d 29 bc 6a 7b 14 3f 78 3f 20 3d c8 c0 f7 bc
       -0.010322039 0.58000815 0.03912303 -0.030243292
0001a0 99 17 0d bd 1d 86 9d bc dd 8c 9a 3d f6 01 40 ba
       -0.034446333 -0.01922899 0.07546399 -0.0007324511
0001b0 25 fd 94 ba c6 9e 23 bd bb 03 f5 be d7 f3 d9 3c
       -0.0011366947 -0.03994634 -0.4785441 0.02660553
0001c0 7a c2 a5 3d 34 ca ba bd 7b c4 2d bc 6b 8e 4f 3d
       0.08093734 -0.091205984 -0.010605927 0.05067293
0001d0 06 15 41 3a 8e 3f d1 bc f0 9e 74 3d 97 23 a7 bc
       0.00073654985 -0.025543 0.059721887 -0.020402713
0001e0 8d f4 45 bd bf a3 f5 3c fa 38 18 3e b5 fe 03 3c
       -0.048328925 0.029985307 0.14865485 0.008056332
0001f0 3b 7f af 3c 7b 0f 5b 3e 27 4c 61 bd 43 3e 45 bc
       0.021422973 0.21392624 -0.055004265 -0.01203877
000200 35 17 b7 3c cf 1b 66 bc 7e 2a 0d bd 90 7a b6 bb
       0.022349933 -0.014044716 -0.03446435 -0.00556881
000210 e2 b8 d0 3d 26 bb 27 3e 85 81 ad 3b 2b bc 3c bd
       0.101915136 0.16379985 0.005294981 -0.04607789
000220 3f 31 23 bd 0f 36 1b bd ae 93 43 3d 09 a5 ca 3e
       -0.039841887 -0.03789335 0.04774826 0.39579037
000230 30 f9 26 3c cd 9c dd 3c 16 73 d7 3c f5 40 54 bb
       0.010191247 0.027052308 0.026299994 -0.003238735
000240 61 8d 16 3b 7e 87 fa 3e 39 1d 9f 3d 71 75 4a bd
       0.0022972452 0.48931497 0.07769246 -0.049428407
000250 04 85 eb bc b0 c8 28 3d b0 b3 ef 3a 33 9a a0 bd
       -0.02874995 0.041207016 0.0018287804 -0.07841911
000260 09 cf 73 bc 89 b1 b9 be bf 07 70 3c 0e 9c 4a bc
       -0.014880904 -0.3626826 0.014650284 -0.012366308
000270 5e c8 a6 3c 3b a5 f6 3e cc 74 14 3d 4f 08 e4 3d
       0.020359214 0.48172936 0.0362442 0.11134397
000280 6b 0f 58 3d 10 ee 1f 3d d1 a6 25 3e ff 34 d3 bb
       0.05274908 0.039045393 0.16176917 -0.0064455266
000290 31 9a d4 3b 03 1f f9 3e e3 07 19 bd 1e 89 8c bb
       0.0064881076 0.48656473 -0.037361037 -0.0042888066
0002a0 1e 3b b5 bb 54 bb bf be 9b d2 03 bd 85 e0 96 bd
       -0.005530729 -0.37447608 -0.03218327 -0.073670425
0002b0 5e 7f 37 bb 58 c5 14 bc 1a 72 14 3e 4f b1 4b bd
       -0.00279995 -0.009080254 0.14496651 -0.04972964
0002c0 1a 06 a5 bc 37 ba 07 bc 6a 4e aa bc 34 f7 6a 3d
       -0.020144511 -0.008284143 -0.020789344 0.057364658
0002d0 be 59 ea 3d 47 a3 50 bd 1d 65 69 3c 3d ac 84 3b
       0.11442898 -0.050936963 0.014245299 0.0040488527
0002e0 fa 06 66 3e dd 1e 4b bd 7b f1 23 bd c5 92 1d 3c
       0.22463599 -0.04958998 -0.040025216 0.009617512
0002f0 06 78 1a 3d c6 0e 8d bb 0f 22 e2 3c 18 43 fe 3c
       0.03771212 -0.0043047396 0.027604131 0.031037852
000300 64 be a4 bc 07 3f 5b bd 84 3c f8 bc 75 a4 a5 be
       -0.020110317 -0.053526904 -0.030302294 -0.32352033
000310 78 14 d9 3c 7b 70 de 3c c0 fd c9 3e 4c 65 43 3d
       0.026499018 0.027153244 0.39451408 0.047704026
000320 4d a8 3b bd c3 50 cb bc ea 97 55 3c 32 77 d1 3c
       -0.0458148 -0.024818784 0.013036707 0.025569532
000330 92 f0 42 3d 40 c5 8d bc d7 3d 5a 3c 2e 81 71 3d
       0.047592707 -0.01730597 0.013320408 0.058961086
000340 c3 38 09 3d b3 4c bf 3d 0a dd 0a 3f 65 b7 26 bd
       0.033501398 0.09340801 0.5424353 -0.040702242
000350 78 98 8a 3e 90 46 fa 3c fe 90 db 3c 31 1e ee 3d
       0.2706945 0.030551225 0.026802536 0.11626852
000360 8a 0b 8d 3d 95 93 1f 3b 12 fa 8a bd 83 13 1b 3d
       0.068869665 0.002434944 -0.067859784 0.037860405
000370 84 3a ee 3d 3b 70 0d 3c cb 59 aa ba 36 bf 07 3d
       0.11632255 0.008632715 -0.0012996731 0.033141337
000380 a4 7b a5 3b ff 1e 92 bd a9 d7 b3 bb 87 bf 75 3d
       0.0050501395 -0.07134818 -0.005488355 0.059997108
000390 74 39 29 3d dc 4c 3a 3d ba 1b 5d 3c d1 db 20 bd
       0.041314557 0.045483455 0.01349538 -0.039272133
0003a0 c0 3c 31 b8 68 69 da 3c df 75 fc 3b a2 e2 b7 3c
       -4.2256666e-05 0.02666159 0.007704481 0.022446934
0003b0 30 00 5e 3d e1 88 d4 3d 44 ef 88 3e 27 ec 24 3b
       0.054199398 0.1037767 0.26745045 0.0025165172
0003c0 ce c9 01 3d d2 a0 fb 3c 17 88 ec 3c 94 3c d4 bc
       0.031686597 0.030716334 0.028873486 -0.025907792
0003d0 17 2a 4d bd 70 91 46 3d 98 79 37 be d5 a2 49 be
       -0.050088968 0.048478544 -0.17917478 -0.19691022
0003e0 3d 58 c1 be 8a a3 46 3c ad ca 9e 3d 00 20 b7 3b
       -0.37762633 0.012123952 0.07753501 0.0055885315
0003f0 10 3d 1b 3c 00 76 e1 3d 8b 66 5d 3d 80 c3 4e 3d
       0.009475008 0.11008835 0.05405287 0.050479412

fc.2.bias f4 [4]
000000 47 86 4a bd 1d ba dc bd bc 5b 9d 3d 30 8e 8e bc
       -0.049444463 -0.10777686 0.076835126 -0.017401785
